…
Node 'coupling_7' takes the following inputs:
	 Output #0 of node 'permute_6' with dims (212,)

Node 'permute_7' takes the following inputs:
	 Output #0 of node 'coupling_7' with dims (212,)

Node 'coupling_8' takes the following inputs:
	 Output #0 of node 'permute_7' with dims (212,)

Node 'permute_8' takes the following inputs:
	 Output #0 of node 'coupling_8' with dims (212,)

Node 'output' takes the following inputs:
	 Output #0 of node 'permute_8' with dims (212,)

ReversibleGraphNet(
  (module_list): ModuleList(
    (0): None
    (1): GLOWCouplingBlock(
      (s1): Sequential(
        (0): Linear(in_features=106, out_features=512, bias=True)
        (1): ReLU()
        (2): Linear(in_features=512, out_features=512, bias=True)
        (3): ReLU()
        (4): Linear(in_features=512, out_features=212, bias=True)
      )
      (s2): Sequential(
        (0): Linear(in_features=106, out_features=512, bias=True)
        (1): ReLU()
        (2): Linear(in_features=512, out_features=512, bias=True)
        (3): ReLU()
        (4): Linear(in_features=512, out_features=212, bias=True)
      )
    )
    (2): PermuteRandom()
    (3): GLOWCouplingBlock(
      (s1): Sequential(
        (0): Linear(in_features=106, out_features=512, bias=True)
        (1): ReLU()
        (2): Linear(in_features=512, out_features=512, bias=True)
        (3): ReLU()
        (4): Linear(in_features=512, out_features=212, bias=True)
      )
      (s2): Sequential(
        (0): Linear(in_features=106, out_features=512, bias=True)
        (1): ReLU()
        (2): Linear(in_features=512, out_features=512, bias=True)
        (3): ReLU()
        (4): Linear(in_features=512, out_features=212, bias=True)
      )
    )
    (4): PermuteRandom()
    (5): GLOWCouplingBlock(
      (s1): Sequential(
        (0): Linear(in_features=106, out_features=512, bias=True)
        (1): ReLU()
        (2): Linear(in_features=512, out_features=512, bias=True)
        (3): ReLU()
        (4): Linear(in_features=512, out_features=212, bias=True)
      )
      (s2): Sequential(
        (0): Linear(in_features=106, out_features=512, bias=True)
        (1): ReLU()
        (2): Linear(in_features=512, out_features=512, bias=True)
        (3): ReLU()
        (4): Linear(in_features=512, out_features=212, bias=True)
      )
    )
    (6): PermuteRandom()
    (7): GLOWCouplingBlock(
      (s1): Sequential(
        (0): Linear(in_features=106, out_features=512, bias=True)
        (1): ReLU()
        (2): Linear(in_features=512, out_features=512, bias=True)
        (3): ReLU()
        (4): Linear(in_features=512, out_features=212, bias=True)
      )
      (s2): Sequential(
        (0): Linear(in_features=106, out_features=512, bias=True)
        (1): ReLU()
        (2): Linear(in_features=512, out_features=512, bias=True)
        (3): ReLU()
        (4): Linear(in_features=512, out_features=212, bias=True)
      )
    )
    (8): PermuteRandom()
    (9): GLOWCouplingBlock(
      (s1): Sequential(
        (0): Linear(in_features=106, out_features=512, bias=True)
        (1): ReLU()
        (2): Linear(in_features=512, out_features=512, bias=True)
        (3): ReLU()
        (4): Linear(in_features=512, out_features=212, bias=True)
      )
      (s2): Sequential(
        (0): Linear(in_features=106, out_features=512, bias=True)
        (1): ReLU()
        (2): Linear(in_features=512, out_features=512, bias=True)
        (3): ReLU()
        (4): Linear(in_features=512, out_features=212, bias=True)
      )
    )
    (10): PermuteRandom()
    (11): GLOWCouplingBlock(
      (s1): Sequential(
        (0): Linear(in_features=106, out_features=512, bias=True)
        (1): ReLU()
        (2): Linear(in_features=512, out_features=512, bias=True)
        (3): ReLU()
        (4): Linear(in_features=512, out_features=212, bias=True)
      )
      (s2): Sequential(
        (0): Linear(in_features=106, out_features=512, bias=True)
        (1): ReLU()
        (2): Linear(in_features=512, out_features=512, bias=True)
        (3): ReLU()
        (4): Linear(in_features=512, out_features=212, bias=True)
      )
    )
    (12): PermuteRandom()
    (13): GLOWCouplingBlock(
      (s1): Sequential(
        (0): Linear(in_features=106, out_features=512, bias=True)
        (1): ReLU()
        (2): Linear(in_features=512, out_features=512, bias=True)
        (3): ReLU()
        (4): Linear(in_features=512, out_features=212, bias=True)
      )
      (s2): Sequential(
        (0): Linear(in_features=106, out_features=512, bias=True)
        (1): ReLU()
        (2): Linear(in_features=512, out_features=512, bias=True)
        (3): ReLU()
        (4): Linear(in_features=512, out_features=212, bias=True)
      )
    )
    (14): PermuteRandom()
    (15): GLOWCouplingBlock(
      (s1): Sequential(
        (0): Linear(in_features=106, out_features=512, bias=True)
        (1): ReLU()
        (2): Linear(in_features=512, out_features=512, bias=True)
        (3): ReLU()
        (4): Linear(in_features=512, out_features=212, bias=True)
      )
      (s2): Sequential(
        (0): Linear(in_features=106, out_features=512, bias=True)
        (1): ReLU()
        (2): Linear(in_features=512, out_features=512, bias=True)
        (3): ReLU()
        (4): Linear(in_features=512, out_features=212, bias=True)
      )
    )
    (16): PermuteRandom()
    (17): GLOWCouplingBlock(
      (s1): Sequential(
        (0): Linear(in_features=106, out_features=512, bias=True)
        (1): ReLU()
        (2): Linear(in_features=512, out_features=512, bias=True)
        (3): ReLU()
        (4): Linear(in_features=512, out_features=212, bias=True)
      )
      (s2): Sequential(
        (0): Linear(in_features=106, out_features=512, bias=True)
        (1): ReLU()
        (2): Linear(in_features=512, out_features=512, bias=True)
        (3): ReLU()
        (4): Linear(in_features=512, out_features=212, bias=True)
      )
    )
    (18): PermuteRandom()
    (19): dummy()
  )
)
/home/sr365/MM_Bench/INN_FrEIA/models/Peurifoy/Peurifoycouple_layer_num9labmda_mse1_lr_0.001_dim_pad_10_dim_z_1
number of trainable parameters is :
7671528
Start eval now:
in compare truth pred function in eval_help package, your shape of pred file is (100, 201)
(Avg MSE=3.8577e-01)
Evaluation finished
…
Node 'coupling_6' takes the following inputs:
	 Output #0 of node 'permute_5' with dims (213,)

Node 'permute_6' takes the following inputs:
	 Output #0 of node 'coupling_6' with dims (213,)

Node 'coupling_7' takes the following inputs:
	 Output #0 of node 'permute_6' with dims (213,)

Node 'permute_7' takes the following inputs:
	 Output #0 of node 'coupling_7' with dims (213,)

Node 'output' takes the following inputs:
	 Output #0 of node 'permute_7' with dims (213,)

ReversibleGraphNet(
  (module_list): ModuleList(
    (0): None
    (1): GLOWCouplingBlock(
      (s1): Sequential(
        (0): Linear(in_features=106, out_features=512, bias=True)
        (1): ReLU()
        (2): Linear(in_features=512, out_features=512, bias=True)
        (3): ReLU()
        (4): Linear(in_features=512, out_features=214, bias=True)
      )
      (s2): Sequential(
        (0): Linear(in_features=107, out_features=512, bias=True)
        (1): ReLU()
        (2): Linear(in_features=512, out_features=512, bias=True)
        (3): ReLU()
        (4): Linear(in_features=512, out_features=212, bias=True)
      )
    )
    (2): PermuteRandom()
    (3): GLOWCouplingBlock(
      (s1): Sequential(
        (0): Linear(in_features=106, out_features=512, bias=True)
        (1): ReLU()
        (2): Linear(in_features=512, out_features=512, bias=True)
        (3): ReLU()
        (4): Linear(in_features=512, out_features=214, bias=True)
      )
      (s2): Sequential(
        (0): Linear(in_features=107, out_features=512, bias=True)
        (1): ReLU()
        (2): Linear(in_features=512, out_features=512, bias=True)
        (3): ReLU()
        (4): Linear(in_features=512, out_features=212, bias=True)
      )
    )
    (4): PermuteRandom()
    (5): GLOWCouplingBlock(
      (s1): Sequential(
        (0): Linear(in_features=106, out_features=512, bias=True)
        (1): ReLU()
        (2): Linear(in_features=512, out_features=512, bias=True)
        (3): ReLU()
        (4): Linear(in_features=512, out_features=214, bias=True)
      )
      (s2): Sequential(
        (0): Linear(in_features=107, out_features=512, bias=True)
        (1): ReLU()
        (2): Linear(in_features=512, out_features=512, bias=True)
        (3): ReLU()
        (4): Linear(in_features=512, out_features=212, bias=True)
      )
    )
    (6): PermuteRandom()
    (7): GLOWCouplingBlock(
      (s1): Sequential(
        (0): Linear(in_features=106, out_features=512, bias=True)
        (1): ReLU()
        (2): Linear(in_features=512, out_features=512, bias=True)
        (3): ReLU()
        (4): Linear(in_features=512, out_features=214, bias=True)
      )
      (s2): Sequential(
        (0): Linear(in_features=107, out_features=512, bias=True)
        (1): ReLU()
        (2): Linear(in_features=512, out_features=512, bias=True)
        (3): ReLU()
        (4): Linear(in_features=512, out_features=212, bias=True)
      )
    )
    (8): PermuteRandom()
    (9): GLOWCouplingBlock(
      (s1): Sequential(
        (0): Linear(in_features=106, out_features=512, bias=True)
        (1): ReLU()
        (2): Linear(in_features=512, out_features=512, bias=True)
        (3): ReLU()
        (4): Linear(in_features=512, out_features=214, bias=True)
      )
      (s2): Sequential(
        (0): Linear(in_features=107, out_features=512, bias=True)
        (1): ReLU()
        (2): Linear(in_features=512, out_features=512, bias=True)
        (3): ReLU()
        (4): Linear(in_features=512, out_features=212, bias=True)
      )
    )
    (10): PermuteRandom()
    (11): GLOWCouplingBlock(
      (s1): Sequential(
        (0): Linear(in_features=106, out_features=512, bias=True)
        (1): ReLU()
        (2): Linear(in_features=512, out_features=512, bias=True)
        (3): ReLU()
        (4): Linear(in_features=512, out_features=214, bias=True)
      )
      (s2): Sequential(
        (0): Linear(in_features=107, out_features=512, bias=True)
        (1): ReLU()
        (2): Linear(in_features=512, out_features=512, bias=True)
        (3): ReLU()
        (4): Linear(in_features=512, out_features=212, bias=True)
      )
    )
    (12): PermuteRandom()
    (13): GLOWCouplingBlock(
      (s1): Sequential(
        (0): Linear(in_features=106, out_features=512, bias=True)
        (1): ReLU()
        (2): Linear(in_features=512, out_features=512, bias=True)
        (3): ReLU()
        (4): Linear(in_features=512, out_features=214, bias=True)
      )
      (s2): Sequential(
        (0): Linear(in_features=107, out_features=512, bias=True)
        (1): ReLU()
        (2): Linear(in_features=512, out_features=512, bias=True)
        (3): ReLU()
        (4): Linear(in_features=512, out_features=212, bias=True)
      )
    )
    (14): PermuteRandom()
    (15): GLOWCouplingBlock(
      (s1): Sequential(
        (0): Linear(in_features=106, out_features=512, bias=True)
        (1): ReLU()
        (2): Linear(in_features=512, out_features=512, bias=True)
        (3): ReLU()
        (4): Linear(in_features=512, out_features=214, bias=True)
      )
      (s2): Sequential(
        (0): Linear(in_features=107, out_features=512, bias=True)
        (1): ReLU()
        (2): Linear(in_features=512, out_features=512, bias=True)
        (3): ReLU()
        (4): Linear(in_features=512, out_features=212, bias=True)
      )
    )
    (16): PermuteRandom()
    (17): dummy()
  )
)
/home/sr365/MM_Bench/INN_FrEIA/models/Peurifoy/Peurifoycouple_layer_num8labmda_mse100_lr_0.001_dim_pad_10_dim_z_2
number of trainable parameters is :
6831440
Start eval now:
in compare truth pred function in eval_help package, your shape of pred file is (100, 201)
(Avg MSE=8.9729e-01)
Evaluation finished
…
Node 'coupling_9' takes the following inputs:
	 Output #0 of node 'permute_8' with dims (253,)

Node 'permute_9' takes the following inputs:
	 Output #0 of node 'coupling_9' with dims (253,)

Node 'coupling_10' takes the following inputs:
	 Output #0 of node 'permute_9' with dims (253,)

Node 'permute_10' takes the following inputs:
	 Output #0 of node 'coupling_10' with dims (253,)

Node 'output' takes the following inputs:
	 Output #0 of node 'permute_10' with dims (253,)

ReversibleGraphNet(
  (module_list): ModuleList(
    (0): None
    (1): GLOWCouplingBlock(
      (s1): Sequential(
        (0): Linear(in_features=126, out_features=512, bias=True)
        (1): ReLU()
        (2): Linear(in_features=512, out_features=512, bias=True)
        (3): ReLU()
        (4): Linear(in_features=512, out_features=254, bias=True)
      )
      (s2): Sequential(
        (0): Linear(in_features=127, out_features=512, bias=True)
        (1): ReLU()
        (2): Linear(in_features=512, out_features=512, bias=True)
        (3): ReLU()
        (4): Linear(in_features=512, out_features=252, bias=True)
      )
    )
    (2): PermuteRandom()
    (3): GLOWCouplingBlock(
      (s1): Sequential(
        (0): Linear(in_features=126, out_features=512, bias=True)
        (1): ReLU()
        (2): Linear(in_features=512, out_features=512, bias=True)
        (3): ReLU()
        (4): Linear(in_features=512, out_features=254, bias=True)
      )
      (s2): Sequential(
        (0): Linear(in_features=127, out_features=512, bias=True)
        (1): ReLU()
        (2): Linear(in_features=512, out_features=512, bias=True)
        (3): ReLU()
        (4): Linear(in_features=512, out_features=252, bias=True)
      )
    )
    (4): PermuteRandom()
    (5): GLOWCouplingBlock(
      (s1): Sequential(
        (0): Linear(in_features=126, out_features=512, bias=True)
        (1): ReLU()
        (2): Linear(in_features=512, out_features=512, bias=True)
        (3): ReLU()
        (4): Linear(in_features=512, out_features=254, bias=True)
      )
      (s2): Sequential(
        (0): Linear(in_features=127, out_features=512, bias=True)
        (1): ReLU()
        (2): Linear(in_features=512, out_features=512, bias=True)
        (3): ReLU()
        (4): Linear(in_features=512, out_features=252, bias=True)
      )
    )
    (6): PermuteRandom()
    (7): GLOWCouplingBlock(
      (s1): Sequential(
        (0): Linear(in_features=126, out_features=512, bias=True)
        (1): ReLU()
        (2): Linear(in_features=512, out_features=512, bias=True)
        (3): ReLU()
        (4): Linear(in_features=512, out_features=254, bias=True)
      )
      (s2): Sequential(
        (0): Linear(in_features=127, out_features=512, bias=True)
        (1): ReLU()
        (2): Linear(in_features=512, out_features=512, bias=True)
        (3): ReLU()
        (4): Linear(in_features=512, out_features=252, bias=True)
      )
    )
    (8): PermuteRandom()
    (9): GLOWCouplingBlock(
      (s1): Sequential(
        (0): Linear(in_features=126, out_features=512, bias=True)
        (1): ReLU()
        (2): Linear(in_features=512, out_features=512, bias=True)
        (3): ReLU()
        (4): Linear(in_features=512, out_features=254, bias=True)
      )
      (s2): Sequential(
        (0): Linear(in_features=127, out_features=512, bias=True)
        (1): ReLU()
        (2): Linear(in_features=512, out_features=512, bias=True)
        (3): ReLU()
        (4): Linear(in_features=512, out_features=252, bias=True)
      )
    )
    (10): PermuteRandom()
    (11): GLOWCouplingBlock(
      (s1): Sequential(
        (0): Linear(in_features=126, out_features=512, bias=True)
        (1): ReLU()
        (2): Linear(in_features=512, out_features=512, bias=True)
        (3): ReLU()
        (4): Linear(in_features=512, out_features=254, bias=True)
      )
      (s2): Sequential(
        (0): Linear(in_features=127, out_features=512, bias=True)
        (1): ReLU()
        (2): Linear(in_features=512, out_features=512, bias=True)
        (3): ReLU()
        (4): Linear(in_features=512, out_features=252, bias=True)
      )
    )
    (12): PermuteRandom()
    (13): GLOWCouplingBlock(
      (s1): Sequential(
        (0): Linear(in_features=126, out_features=512, bias=True)
        (1): ReLU()
        (2): Linear(in_features=512, out_features=512, bias=True)
        (3): ReLU()
        (4): Linear(in_features=512, out_features=254, bias=True)
      )
      (s2): Sequential(
        (0): Linear(in_features=127, out_features=512, bias=True)
        (1): ReLU()
        (2): Linear(in_features=512, out_features=512, bias=True)
        (3): ReLU()
        (4): Linear(in_features=512, out_features=252, bias=True)
      )
    )
    (14): PermuteRandom()
    (15): GLOWCouplingBlock(
      (s1): Sequential(
        (0): Linear(in_features=126, out_features=512, bias=True)
        (1): ReLU()
        (2): Linear(in_features=512, out_features=512, bias=True)
        (3): ReLU()
        (4): Linear(in_features=512, out_features=254, bias=True)
      )
      (s2): Sequential(
        (0): Linear(in_features=127, out_features=512, bias=True)
        (1): ReLU()
        (2): Linear(in_features=512, out_features=512, bias=True)
        (3): ReLU()
        (4): Linear(in_features=512, out_features=252, bias=True)
      )
    )
    (16): PermuteRandom()
    (17): GLOWCouplingBlock(
      (s1): Sequential(
        (0): Linear(in_features=126, out_features=512, bias=True)
        (1): ReLU()
        (2): Linear(in_features=512, out_features=512, bias=True)
        (3): ReLU()
        (4): Linear(in_features=512, out_features=254, bias=True)
      )
      (s2): Sequential(
        (0): Linear(in_features=127, out_features=512, bias=True)
        (1): ReLU()
        (2): Linear(in_features=512, out_features=512, bias=True)
        (3): ReLU()
        (4): Linear(in_features=512, out_features=252, bias=True)
      )
    )
    (18): PermuteRandom()
    (19): GLOWCouplingBlock(
      (s1): Sequential(
        (0): Linear(in_features=126, out_features=512, bias=True)
        (1): ReLU()
        (2): Linear(in_features=512, out_features=512, bias=True)
        (3): ReLU()
        (4): Linear(in_features=512, out_features=254, bias=True)
      )
      (s2): Sequential(
        (0): Linear(in_features=127, out_features=512, bias=True)
        (1): ReLU()
        (2): Linear(in_features=512, out_features=512, bias=True)
        (3): ReLU()
        (4): Linear(in_features=512, out_features=252, bias=True)
      )
    )
    (20): PermuteRandom()
    (21): GLOWCouplingBlock(
      (s1): Sequential(
        (0): Linear(in_features=126, out_features=512, bias=True)
        (1): ReLU()
        (2): Linear(in_features=512, out_features=512, bias=True)
        (3): ReLU()
        (4): Linear(in_features=512, out_features=254, bias=True)
      )
      (s2): Sequential(
        (0): Linear(in_features=127, out_features=512, bias=True)
        (1): ReLU()
        (2): Linear(in_features=512, out_features=512, bias=True)
        (3): ReLU()
        (4): Linear(in_features=512, out_features=252, bias=True)
      )
    )
    (22): PermuteRandom()
    (23): dummy()
  )
)
/home/sr365/MM_Bench/INN_FrEIA/models/Peurifoy/Peurifoycouple_layer_num11labmda_mse0.01_lr_0.001_dim_pad_50_dim_z_2
number of trainable parameters is :
10069950
Start eval now:
in compare truth pred function in eval_help package, your shape of pred file is (100, 201)
(Avg MSE=9.2721e-03)
Evaluation finished
…
Node 'coupling_6' takes the following inputs:
	 Output #0 of node 'permute_5' with dims (253,)

Node 'permute_6' takes the following inputs:
	 Output #0 of node 'coupling_6' with dims (253,)

Node 'coupling_7' takes the following inputs:
	 Output #0 of node 'permute_6' with dims (253,)

Node 'permute_7' takes the following inputs:
	 Output #0 of node 'coupling_7' with dims (253,)

Node 'output' takes the following inputs:
	 Output #0 of node 'permute_7' with dims (253,)

ReversibleGraphNet(
  (module_list): ModuleList(
    (0): None
    (1): GLOWCouplingBlock(
      (s1): Sequential(
        (0): Linear(in_features=126, out_features=512, bias=True)
        (1): ReLU()
        (2): Linear(in_features=512, out_features=512, bias=True)
        (3): ReLU()
        (4): Linear(in_features=512, out_features=254, bias=True)
      )
      (s2): Sequential(
        (0): Linear(in_features=127, out_features=512, bias=True)
        (1): ReLU()
        (2): Linear(in_features=512, out_features=512, bias=True)
        (3): ReLU()
        (4): Linear(in_features=512, out_features=252, bias=True)
      )
    )
    (2): PermuteRandom()
    (3): GLOWCouplingBlock(
      (s1): Sequential(
        (0): Linear(in_features=126, out_features=512, bias=True)
        (1): ReLU()
        (2): Linear(in_features=512, out_features=512, bias=True)
        (3): ReLU()
        (4): Linear(in_features=512, out_features=254, bias=True)
      )
      (s2): Sequential(
        (0): Linear(in_features=127, out_features=512, bias=True)
        (1): ReLU()
        (2): Linear(in_features=512, out_features=512, bias=True)
        (3): ReLU()
        (4): Linear(in_features=512, out_features=252, bias=True)
      )
    )
    (4): PermuteRandom()
    (5): GLOWCouplingBlock(
      (s1): Sequential(
        (0): Linear(in_features=126, out_features=512, bias=True)
        (1): ReLU()
        (2): Linear(in_features=512, out_features=512, bias=True)
        (3): ReLU()
        (4): Linear(in_features=512, out_features=254, bias=True)
      )
      (s2): Sequential(
        (0): Linear(in_features=127, out_features=512, bias=True)
        (1): ReLU()
        (2): Linear(in_features=512, out_features=512, bias=True)
        (3): ReLU()
        (4): Linear(in_features=512, out_features=252, bias=True)
      )
    )
    (6): PermuteRandom()
    (7): GLOWCouplingBlock(
      (s1): Sequential(
        (0): Linear(in_features=126, out_features=512, bias=True)
        (1): ReLU()
        (2): Linear(in_features=512, out_features=512, bias=True)
        (3): ReLU()
        (4): Linear(in_features=512, out_features=254, bias=True)
      )
      (s2): Sequential(
        (0): Linear(in_features=127, out_features=512, bias=True)
        (1): ReLU()
        (2): Linear(in_features=512, out_features=512, bias=True)
        (3): ReLU()
        (4): Linear(in_features=512, out_features=252, bias=True)
      )
    )
    (8): PermuteRandom()
    (9): GLOWCouplingBlock(
      (s1): Sequential(
        (0): Linear(in_features=126, out_features=512, bias=True)
        (1): ReLU()
        (2): Linear(in_features=512, out_features=512, bias=True)
        (3): ReLU()
        (4): Linear(in_features=512, out_features=254, bias=True)
      )
      (s2): Sequential(
        (0): Linear(in_features=127, out_features=512, bias=True)
        (1): ReLU()
        (2): Linear(in_features=512, out_features=512, bias=True)
        (3): ReLU()
        (4): Linear(in_features=512, out_features=252, bias=True)
      )
    )
    (10): PermuteRandom()
    (11): GLOWCouplingBlock(
      (s1): Sequential(
        (0): Linear(in_features=126, out_features=512, bias=True)
        (1): ReLU()
        (2): Linear(in_features=512, out_features=512, bias=True)
        (3): ReLU()
        (4): Linear(in_features=512, out_features=254, bias=True)
      )
      (s2): Sequential(
        (0): Linear(in_features=127, out_features=512, bias=True)
        (1): ReLU()
        (2): Linear(in_features=512, out_features=512, bias=True)
        (3): ReLU()
        (4): Linear(in_features=512, out_features=252, bias=True)
      )
    )
    (12): PermuteRandom()
    (13): GLOWCouplingBlock(
      (s1): Sequential(
        (0): Linear(in_features=126, out_features=512, bias=True)
        (1): ReLU()
        (2): Linear(in_features=512, out_features=512, bias=True)
        (3): ReLU()
        (4): Linear(in_features=512, out_features=254, bias=True)
      )
      (s2): Sequential(
        (0): Linear(in_features=127, out_features=512, bias=True)
        (1): ReLU()
        (2): Linear(in_features=512, out_features=512, bias=True)
        (3): ReLU()
        (4): Linear(in_features=512, out_features=252, bias=True)
      )
    )
    (14): PermuteRandom()
    (15): GLOWCouplingBlock(
      (s1): Sequential(
        (0): Linear(in_features=126, out_features=512, bias=True)
        (1): ReLU()
        (2): Linear(in_features=512, out_features=512, bias=True)
        (3): ReLU()
        (4): Linear(in_features=512, out_features=254, bias=True)
      )
      (s2): Sequential(
        (0): Linear(in_features=127, out_features=512, bias=True)
        (1): ReLU()
        (2): Linear(in_features=512, out_features=512, bias=True)
        (3): ReLU()
        (4): Linear(in_features=512, out_features=252, bias=True)
      )
    )
    (16): PermuteRandom()
    (17): dummy()
  )
)
/home/sr365/MM_Bench/INN_FrEIA/models/Peurifoy/Peurifoycouple_layer_num8labmda_mse100_lr_0.001_dim_pad_50_dim_z_2
number of trainable parameters is :
7323600
Start eval now:
in compare truth pred function in eval_help package, your shape of pred file is (100, 201)
(Avg MSE=2.8836e-01)
Evaluation finished
…
Node 'coupling_9' takes the following inputs:
	 Output #0 of node 'permute_8' with dims (252,)

Node 'permute_9' takes the following inputs:
	 Output #0 of node 'coupling_9' with dims (252,)

Node 'coupling_10' takes the following inputs:
	 Output #0 of node 'permute_9' with dims (252,)

Node 'permute_10' takes the following inputs:
	 Output #0 of node 'coupling_10' with dims (252,)

Node 'output' takes the following inputs:
	 Output #0 of node 'permute_10' with dims (252,)

ReversibleGraphNet(
  (module_list): ModuleList(
    (0): None
    (1): GLOWCouplingBlock(
      (s1): Sequential(
        (0): Linear(in_features=126, out_features=512, bias=True)
        (1): ReLU()
        (2): Linear(in_features=512, out_features=512, bias=True)
        (3): ReLU()
        (4): Linear(in_features=512, out_features=252, bias=True)
      )
      (s2): Sequential(
        (0): Linear(in_features=126, out_features=512, bias=True)
        (1): ReLU()
        (2): Linear(in_features=512, out_features=512, bias=True)
        (3): ReLU()
        (4): Linear(in_features=512, out_features=252, bias=True)
      )
    )
    (2): PermuteRandom()
    (3): GLOWCouplingBlock(
      (s1): Sequential(
        (0): Linear(in_features=126, out_features=512, bias=True)
        (1): ReLU()
        (2): Linear(in_features=512, out_features=512, bias=True)
        (3): ReLU()
        (4): Linear(in_features=512, out_features=252, bias=True)
      )
      (s2): Sequential(
        (0): Linear(in_features=126, out_features=512, bias=True)
        (1): ReLU()
        (2): Linear(in_features=512, out_features=512, bias=True)
        (3): ReLU()
        (4): Linear(in_features=512, out_features=252, bias=True)
      )
    )
    (4): PermuteRandom()
    (5): GLOWCouplingBlock(
      (s1): Sequential(
        (0): Linear(in_features=126, out_features=512, bias=True)
        (1): ReLU()
        (2): Linear(in_features=512, out_features=512, bias=True)
        (3): ReLU()
        (4): Linear(in_features=512, out_features=252, bias=True)
      )
      (s2): Sequential(
        (0): Linear(in_features=126, out_features=512, bias=True)
        (1): ReLU()
        (2): Linear(in_features=512, out_features=512, bias=True)
        (3): ReLU()
        (4): Linear(in_features=512, out_features=252, bias=True)
      )
    )
    (6): PermuteRandom()
    (7): GLOWCouplingBlock(
      (s1): Sequential(
        (0): Linear(in_features=126, out_features=512, bias=True)
        (1): ReLU()
        (2): Linear(in_features=512, out_features=512, bias=True)
        (3): ReLU()
        (4): Linear(in_features=512, out_features=252, bias=True)
      )
      (s2): Sequential(
        (0): Linear(in_features=126, out_features=512, bias=True)
        (1): ReLU()
        (2): Linear(in_features=512, out_features=512, bias=True)
        (3): ReLU()
        (4): Linear(in_features=512, out_features=252, bias=True)
      )
    )
    (8): PermuteRandom()
    (9): GLOWCouplingBlock(
      (s1): Sequential(
        (0): Linear(in_features=126, out_features=512, bias=True)
        (1): ReLU()
        (2): Linear(in_features=512, out_features=512, bias=True)
        (3): ReLU()
        (4): Linear(in_features=512, out_features=252, bias=True)
      )
      (s2): Sequential(
        (0): Linear(in_features=126, out_features=512, bias=True)
        (1): ReLU()
        (2): Linear(in_features=512, out_features=512, bias=True)
        (3): ReLU()
        (4): Linear(in_features=512, out_features=252, bias=True)
      )
    )
    (10): PermuteRandom()
    (11): GLOWCouplingBlock(
      (s1): Sequential(
        (0): Linear(in_features=126, out_features=512, bias=True)
        (1): ReLU()
        (2): Linear(in_features=512, out_features=512, bias=True)
        (3): ReLU()
        (4): Linear(in_features=512, out_features=252, bias=True)
      )
      (s2): Sequential(
        (0): Linear(in_features=126, out_features=512, bias=True)
        (1): ReLU()
        (2): Linear(in_features=512, out_features=512, bias=True)
        (3): ReLU()
        (4): Linear(in_features=512, out_features=252, bias=True)
      )
    )
    (12): PermuteRandom()
    (13): GLOWCouplingBlock(
      (s1): Sequential(
        (0): Linear(in_features=126, out_features=512, bias=True)
        (1): ReLU()
        (2): Linear(in_features=512, out_features=512, bias=True)
        (3): ReLU()
        (4): Linear(in_features=512, out_features=252, bias=True)
      )
      (s2): Sequential(
        (0): Linear(in_features=126, out_features=512, bias=True)
        (1): ReLU()
        (2): Linear(in_features=512, out_features=512, bias=True)
        (3): ReLU()
        (4): Linear(in_features=512, out_features=252, bias=True)
      )
    )
    (14): PermuteRandom()
    (15): GLOWCouplingBlock(
      (s1): Sequential(
        (0): Linear(in_features=126, out_features=512, bias=True)
        (1): ReLU()
        (2): Linear(in_features=512, out_features=512, bias=True)
        (3): ReLU()
        (4): Linear(in_features=512, out_features=252, bias=True)
      )
      (s2): Sequential(
        (0): Linear(in_features=126, out_features=512, bias=True)
        (1): ReLU()
        (2): Linear(in_features=512, out_features=512, bias=True)
        (3): ReLU()
        (4): Linear(in_features=512, out_features=252, bias=True)
      )
    )
    (16): PermuteRandom()
    (17): GLOWCouplingBlock(
      (s1): Sequential(
        (0): Linear(in_features=126, out_features=512, bias=True)
        (1): ReLU()
        (2): Linear(in_features=512, out_features=512, bias=True)
        (3): ReLU()
        (4): Linear(in_features=512, out_features=252, bias=True)
      )
      (s2): Sequential(
        (0): Linear(in_features=126, out_features=512, bias=True)
        (1): ReLU()
        (2): Linear(in_features=512, out_features=512, bias=True)
        (3): ReLU()
        (4): Linear(in_features=512, out_features=252, bias=True)
      )
    )
    (18): PermuteRandom()
    (19): GLOWCouplingBlock(
      (s1): Sequential(
        (0): Linear(in_features=126, out_features=512, bias=True)
        (1): ReLU()
        (2): Linear(in_features=512, out_features=512, bias=True)
        (3): ReLU()
        (4): Linear(in_features=512, out_features=252, bias=True)
      )
      (s2): Sequential(
        (0): Linear(in_features=126, out_features=512, bias=True)
        (1): ReLU()
        (2): Linear(in_features=512, out_features=512, bias=True)
        (3): ReLU()
        (4): Linear(in_features=512, out_features=252, bias=True)
      )
    )
    (20): PermuteRandom()
    (21): GLOWCouplingBlock(
      (s1): Sequential(
        (0): Linear(in_features=126, out_features=512, bias=True)
        (1): ReLU()
        (2): Linear(in_features=512, out_features=512, bias=True)
        (3): ReLU()
        (4): Linear(in_features=512, out_features=252, bias=True)
      )
      (s2): Sequential(
        (0): Linear(in_features=126, out_features=512, bias=True)
        (1): ReLU()
        (2): Linear(in_features=512, out_features=512, bias=True)
        (3): ReLU()
        (4): Linear(in_features=512, out_features=252, bias=True)
      )
    )
    (22): PermuteRandom()
    (23): dummy()
  )
)
/home/sr365/MM_Bench/INN_FrEIA/models/Peurifoy/Peurifoycouple_layer_num11labmda_mse1_lr_0.001_dim_pad_50_dim_z_1
number of trainable parameters is :
10053032
Start eval now:
in compare truth pred function in eval_help package, your shape of pred file is (100, 201)
(Avg MSE=1.6932e+00)
Evaluation finished
…
Node 'coupling_9' takes the following inputs:
	 Output #0 of node 'permute_8' with dims (212,)

Node 'permute_9' takes the following inputs:
	 Output #0 of node 'coupling_9' with dims (212,)

Node 'coupling_10' takes the following inputs:
	 Output #0 of node 'permute_9' with dims (212,)

Node 'permute_10' takes the following inputs:
	 Output #0 of node 'coupling_10' with dims (212,)

Node 'output' takes the following inputs:
	 Output #0 of node 'permute_10' with dims (212,)

ReversibleGraphNet(
  (module_list): ModuleList(
    (0): None
    (1): GLOWCouplingBlock(
      (s1): Sequential(
        (0): Linear(in_features=106, out_features=512, bias=True)
        (1): ReLU()
        (2): Linear(in_features=512, out_features=512, bias=True)
        (3): ReLU()
        (4): Linear(in_features=512, out_features=212, bias=True)
      )
      (s2): Sequential(
        (0): Linear(in_features=106, out_features=512, bias=True)
        (1): ReLU()
        (2): Linear(in_features=512, out_features=512, bias=True)
        (3): ReLU()
        (4): Linear(in_features=512, out_features=212, bias=True)
      )
    )
    (2): PermuteRandom()
    (3): GLOWCouplingBlock(
      (s1): Sequential(
        (0): Linear(in_features=106, out_features=512, bias=True)
        (1): ReLU()
        (2): Linear(in_features=512, out_features=512, bias=True)
        (3): ReLU()
        (4): Linear(in_features=512, out_features=212, bias=True)
      )
      (s2): Sequential(
        (0): Linear(in_features=106, out_features=512, bias=True)
        (1): ReLU()
        (2): Linear(in_features=512, out_features=512, bias=True)
        (3): ReLU()
        (4): Linear(in_features=512, out_features=212, bias=True)
      )
    )
    (4): PermuteRandom()
    (5): GLOWCouplingBlock(
      (s1): Sequential(
        (0): Linear(in_features=106, out_features=512, bias=True)
        (1): ReLU()
        (2): Linear(in_features=512, out_features=512, bias=True)
        (3): ReLU()
        (4): Linear(in_features=512, out_features=212, bias=True)
      )
      (s2): Sequential(
        (0): Linear(in_features=106, out_features=512, bias=True)
        (1): ReLU()
        (2): Linear(in_features=512, out_features=512, bias=True)
        (3): ReLU()
        (4): Linear(in_features=512, out_features=212, bias=True)
      )
    )
    (6): PermuteRandom()
    (7): GLOWCouplingBlock(
      (s1): Sequential(
        (0): Linear(in_features=106, out_features=512, bias=True)
        (1): ReLU()
        (2): Linear(in_features=512, out_features=512, bias=True)
        (3): ReLU()
        (4): Linear(in_features=512, out_features=212, bias=True)
      )
      (s2): Sequential(
        (0): Linear(in_features=106, out_features=512, bias=True)
        (1): ReLU()
        (2): Linear(in_features=512, out_features=512, bias=True)
        (3): ReLU()
        (4): Linear(in_features=512, out_features=212, bias=True)
      )
    )
    (8): PermuteRandom()
    (9): GLOWCouplingBlock(
      (s1): Sequential(
        (0): Linear(in_features=106, out_features=512, bias=True)
        (1): ReLU()
        (2): Linear(in_features=512, out_features=512, bias=True)
        (3): ReLU()
        (4): Linear(in_features=512, out_features=212, bias=True)
      )
      (s2): Sequential(
        (0): Linear(in_features=106, out_features=512, bias=True)
        (1): ReLU()
        (2): Linear(in_features=512, out_features=512, bias=True)
        (3): ReLU()
        (4): Linear(in_features=512, out_features=212, bias=True)
      )
    )
    (10): PermuteRandom()
    (11): GLOWCouplingBlock(
      (s1): Sequential(
        (0): Linear(in_features=106, out_features=512, bias=True)
        (1): ReLU()
        (2): Linear(in_features=512, out_features=512, bias=True)
        (3): ReLU()
        (4): Linear(in_features=512, out_features=212, bias=True)
      )
      (s2): Sequential(
        (0): Linear(in_features=106, out_features=512, bias=True)
        (1): ReLU()
        (2): Linear(in_features=512, out_features=512, bias=True)
        (3): ReLU()
        (4): Linear(in_features=512, out_features=212, bias=True)
      )
    )
    (12): PermuteRandom()
    (13): GLOWCouplingBlock(
      (s1): Sequential(
        (0): Linear(in_features=106, out_features=512, bias=True)
        (1): ReLU()
        (2): Linear(in_features=512, out_features=512, bias=True)
        (3): ReLU()
        (4): Linear(in_features=512, out_features=212, bias=True)
      )
      (s2): Sequential(
        (0): Linear(in_features=106, out_features=512, bias=True)
        (1): ReLU()
        (2): Linear(in_features=512, out_features=512, bias=True)
        (3): ReLU()
        (4): Linear(in_features=512, out_features=212, bias=True)
      )
    )
    (14): PermuteRandom()
    (15): GLOWCouplingBlock(
      (s1): Sequential(
        (0): Linear(in_features=106, out_features=512, bias=True)
        (1): ReLU()
        (2): Linear(in_features=512, out_features=512, bias=True)
        (3): ReLU()
        (4): Linear(in_features=512, out_features=212, bias=True)
      )
      (s2): Sequential(
        (0): Linear(in_features=106, out_features=512, bias=True)
        (1): ReLU()
        (2): Linear(in_features=512, out_features=512, bias=True)
        (3): ReLU()
        (4): Linear(in_features=512, out_features=212, bias=True)
      )
    )
    (16): PermuteRandom()
    (17): GLOWCouplingBlock(
      (s1): Sequential(
        (0): Linear(in_features=106, out_features=512, bias=True)
        (1): ReLU()
        (2): Linear(in_features=512, out_features=512, bias=True)
        (3): ReLU()
        (4): Linear(in_features=512, out_features=212, bias=True)
      )
      (s2): Sequential(
        (0): Linear(in_features=106, out_features=512, bias=True)
        (1): ReLU()
        (2): Linear(in_features=512, out_features=512, bias=True)
        (3): ReLU()
        (4): Linear(in_features=512, out_features=212, bias=True)
      )
    )
    (18): PermuteRandom()
    (19): GLOWCouplingBlock(
      (s1): Sequential(
        (0): Linear(in_features=106, out_features=512, bias=True)
        (1): ReLU()
        (2): Linear(in_features=512, out_features=512, bias=True)
        (3): ReLU()
        (4): Linear(in_features=512, out_features=212, bias=True)
      )
      (s2): Sequential(
        (0): Linear(in_features=106, out_features=512, bias=True)
        (1): ReLU()
        (2): Linear(in_features=512, out_features=512, bias=True)
        (3): ReLU()
        (4): Linear(in_features=512, out_features=212, bias=True)
      )
    )
    (20): PermuteRandom()
    (21): GLOWCouplingBlock(
      (s1): Sequential(
        (0): Linear(in_features=106, out_features=512, bias=True)
        (1): ReLU()
        (2): Linear(in_features=512, out_features=512, bias=True)
        (3): ReLU()
        (4): Linear(in_features=512, out_features=212, bias=True)
      )
      (s2): Sequential(
        (0): Linear(in_features=106, out_features=512, bias=True)
        (1): ReLU()
        (2): Linear(in_features=512, out_features=512, bias=True)
        (3): ReLU()
        (4): Linear(in_features=512, out_features=212, bias=True)
      )
    )
    (22): PermuteRandom()
    (23): dummy()
  )
)
/home/sr365/MM_Bench/INN_FrEIA/models/Peurifoy/Peurifoycouple_layer_num11labmda_mse0.01_lr_0.001_dim_pad_10_dim_z_1
number of trainable parameters is :
9376312
Start eval now:
in compare truth pred function in eval_help package, your shape of pred file is (100, 201)
(Avg MSE=2.9930e-03)
Evaluation finished
…
Node 'coupling_8' takes the following inputs:
	 Output #0 of node 'permute_7' with dims (213,)

Node 'permute_8' takes the following inputs:
	 Output #0 of node 'coupling_8' with dims (213,)

Node 'coupling_9' takes the following inputs:
	 Output #0 of node 'permute_8' with dims (213,)

Node 'permute_9' takes the following inputs:
	 Output #0 of node 'coupling_9' with dims (213,)

Node 'output' takes the following inputs:
	 Output #0 of node 'permute_9' with dims (213,)

ReversibleGraphNet(
  (module_list): ModuleList(
    (0): None
    (1): GLOWCouplingBlock(
      (s1): Sequential(
        (0): Linear(in_features=106, out_features=512, bias=True)
        (1): ReLU()
        (2): Linear(in_features=512, out_features=512, bias=True)
        (3): ReLU()
        (4): Linear(in_features=512, out_features=214, bias=True)
      )
      (s2): Sequential(
        (0): Linear(in_features=107, out_features=512, bias=True)
        (1): ReLU()
        (2): Linear(in_features=512, out_features=512, bias=True)
        (3): ReLU()
        (4): Linear(in_features=512, out_features=212, bias=True)
      )
    )
    (2): PermuteRandom()
    (3): GLOWCouplingBlock(
      (s1): Sequential(
        (0): Linear(in_features=106, out_features=512, bias=True)
        (1): ReLU()
        (2): Linear(in_features=512, out_features=512, bias=True)
        (3): ReLU()
        (4): Linear(in_features=512, out_features=214, bias=True)
      )
      (s2): Sequential(
        (0): Linear(in_features=107, out_features=512, bias=True)
        (1): ReLU()
        (2): Linear(in_features=512, out_features=512, bias=True)
        (3): ReLU()
        (4): Linear(in_features=512, out_features=212, bias=True)
      )
    )
    (4): PermuteRandom()
    (5): GLOWCouplingBlock(
      (s1): Sequential(
        (0): Linear(in_features=106, out_features=512, bias=True)
        (1): ReLU()
        (2): Linear(in_features=512, out_features=512, bias=True)
        (3): ReLU()
        (4): Linear(in_features=512, out_features=214, bias=True)
      )
      (s2): Sequential(
        (0): Linear(in_features=107, out_features=512, bias=True)
        (1): ReLU()
        (2): Linear(in_features=512, out_features=512, bias=True)
        (3): ReLU()
        (4): Linear(in_features=512, out_features=212, bias=True)
      )
    )
    (6): PermuteRandom()
    (7): GLOWCouplingBlock(
      (s1): Sequential(
        (0): Linear(in_features=106, out_features=512, bias=True)
        (1): ReLU()
        (2): Linear(in_features=512, out_features=512, bias=True)
        (3): ReLU()
        (4): Linear(in_features=512, out_features=214, bias=True)
      )
      (s2): Sequential(
        (0): Linear(in_features=107, out_features=512, bias=True)
        (1): ReLU()
        (2): Linear(in_features=512, out_features=512, bias=True)
        (3): ReLU()
        (4): Linear(in_features=512, out_features=212, bias=True)
      )
    )
    (8): PermuteRandom()
    (9): GLOWCouplingBlock(
      (s1): Sequential(
        (0): Linear(in_features=106, out_features=512, bias=True)
        (1): ReLU()
        (2): Linear(in_features=512, out_features=512, bias=True)
        (3): ReLU()
        (4): Linear(in_features=512, out_features=214, bias=True)
      )
      (s2): Sequential(
        (0): Linear(in_features=107, out_features=512, bias=True)
        (1): ReLU()
        (2): Linear(in_features=512, out_features=512, bias=True)
        (3): ReLU()
        (4): Linear(in_features=512, out_features=212, bias=True)
      )
    )
    (10): PermuteRandom()
    (11): GLOWCouplingBlock(
      (s1): Sequential(
        (0): Linear(in_features=106, out_features=512, bias=True)
        (1): ReLU()
        (2): Linear(in_features=512, out_features=512, bias=True)
        (3): ReLU()
        (4): Linear(in_features=512, out_features=214, bias=True)
      )
      (s2): Sequential(
        (0): Linear(in_features=107, out_features=512, bias=True)
        (1): ReLU()
        (2): Linear(in_features=512, out_features=512, bias=True)
        (3): ReLU()
        (4): Linear(in_features=512, out_features=212, bias=True)
      )
    )
    (12): PermuteRandom()
    (13): GLOWCouplingBlock(
      (s1): Sequential(
        (0): Linear(in_features=106, out_features=512, bias=True)
        (1): ReLU()
        (2): Linear(in_features=512, out_features=512, bias=True)
        (3): ReLU()
        (4): Linear(in_features=512, out_features=214, bias=True)
      )
      (s2): Sequential(
        (0): Linear(in_features=107, out_features=512, bias=True)
        (1): ReLU()
        (2): Linear(in_features=512, out_features=512, bias=True)
        (3): ReLU()
        (4): Linear(in_features=512, out_features=212, bias=True)
      )
    )
    (14): PermuteRandom()
    (15): GLOWCouplingBlock(
      (s1): Sequential(
        (0): Linear(in_features=106, out_features=512, bias=True)
        (1): ReLU()
        (2): Linear(in_features=512, out_features=512, bias=True)
        (3): ReLU()
        (4): Linear(in_features=512, out_features=214, bias=True)
      )
      (s2): Sequential(
        (0): Linear(in_features=107, out_features=512, bias=True)
        (1): ReLU()
        (2): Linear(in_features=512, out_features=512, bias=True)
        (3): ReLU()
        (4): Linear(in_features=512, out_features=212, bias=True)
      )
    )
    (16): PermuteRandom()
    (17): GLOWCouplingBlock(
      (s1): Sequential(
        (0): Linear(in_features=106, out_features=512, bias=True)
        (1): ReLU()
        (2): Linear(in_features=512, out_features=512, bias=True)
        (3): ReLU()
        (4): Linear(in_features=512, out_features=214, bias=True)
      )
      (s2): Sequential(
        (0): Linear(in_features=107, out_features=512, bias=True)
        (1): ReLU()
        (2): Linear(in_features=512, out_features=512, bias=True)
        (3): ReLU()
        (4): Linear(in_features=512, out_features=212, bias=True)
      )
    )
    (18): PermuteRandom()
    (19): GLOWCouplingBlock(
      (s1): Sequential(
        (0): Linear(in_features=106, out_features=512, bias=True)
        (1): ReLU()
        (2): Linear(in_features=512, out_features=512, bias=True)
        (3): ReLU()
        (4): Linear(in_features=512, out_features=214, bias=True)
      )
      (s2): Sequential(
        (0): Linear(in_features=107, out_features=512, bias=True)
        (1): ReLU()
        (2): Linear(in_features=512, out_features=512, bias=True)
        (3): ReLU()
        (4): Linear(in_features=512, out_features=212, bias=True)
      )
    )
    (20): PermuteRandom()
    (21): dummy()
  )
)
/home/sr365/MM_Bench/INN_FrEIA/models/Peurifoy/Peurifoycouple_layer_num10labmda_mse1_lr_0.001_dim_pad_10_dim_z_2
number of trainable parameters is :
8539300
Start eval now:
in compare truth pred function in eval_help package, your shape of pred file is (100, 201)
(Avg MSE=1.7515e-01)
Evaluation finished
…
Node 'coupling_9' takes the following inputs:
	 Output #0 of node 'permute_8' with dims (213,)

Node 'permute_9' takes the following inputs:
	 Output #0 of node 'coupling_9' with dims (213,)

Node 'coupling_10' takes the following inputs:
	 Output #0 of node 'permute_9' with dims (213,)

Node 'permute_10' takes the following inputs:
	 Output #0 of node 'coupling_10' with dims (213,)

Node 'output' takes the following inputs:
	 Output #0 of node 'permute_10' with dims (213,)

ReversibleGraphNet(
  (module_list): ModuleList(
    (0): None
    (1): GLOWCouplingBlock(
      (s1): Sequential(
        (0): Linear(in_features=106, out_features=512, bias=True)
        (1): ReLU()
        (2): Linear(in_features=512, out_features=512, bias=True)
        (3): ReLU()
        (4): Linear(in_features=512, out_features=214, bias=True)
      )
      (s2): Sequential(
        (0): Linear(in_features=107, out_features=512, bias=True)
        (1): ReLU()
        (2): Linear(in_features=512, out_features=512, bias=True)
        (3): ReLU()
        (4): Linear(in_features=512, out_features=212, bias=True)
      )
    )
    (2): PermuteRandom()
    (3): GLOWCouplingBlock(
      (s1): Sequential(
        (0): Linear(in_features=106, out_features=512, bias=True)
        (1): ReLU()
        (2): Linear(in_features=512, out_features=512, bias=True)
        (3): ReLU()
        (4): Linear(in_features=512, out_features=214, bias=True)
      )
      (s2): Sequential(
        (0): Linear(in_features=107, out_features=512, bias=True)
        (1): ReLU()
        (2): Linear(in_features=512, out_features=512, bias=True)
        (3): ReLU()
        (4): Linear(in_features=512, out_features=212, bias=True)
      )
    )
    (4): PermuteRandom()
    (5): GLOWCouplingBlock(
      (s1): Sequential(
        (0): Linear(in_features=106, out_features=512, bias=True)
        (1): ReLU()
        (2): Linear(in_features=512, out_features=512, bias=True)
        (3): ReLU()
        (4): Linear(in_features=512, out_features=214, bias=True)
      )
      (s2): Sequential(
        (0): Linear(in_features=107, out_features=512, bias=True)
        (1): ReLU()
        (2): Linear(in_features=512, out_features=512, bias=True)
        (3): ReLU()
        (4): Linear(in_features=512, out_features=212, bias=True)
      )
    )
    (6): PermuteRandom()
    (7): GLOWCouplingBlock(
      (s1): Sequential(
        (0): Linear(in_features=106, out_features=512, bias=True)
        (1): ReLU()
        (2): Linear(in_features=512, out_features=512, bias=True)
        (3): ReLU()
        (4): Linear(in_features=512, out_features=214, bias=True)
      )
      (s2): Sequential(
        (0): Linear(in_features=107, out_features=512, bias=True)
        (1): ReLU()
        (2): Linear(in_features=512, out_features=512, bias=True)
        (3): ReLU()
        (4): Linear(in_features=512, out_features=212, bias=True)
      )
    )
    (8): PermuteRandom()
    (9): GLOWCouplingBlock(
      (s1): Sequential(
        (0): Linear(in_features=106, out_features=512, bias=True)
        (1): ReLU()
        (2): Linear(in_features=512, out_features=512, bias=True)
        (3): ReLU()
        (4): Linear(in_features=512, out_features=214, bias=True)
      )
      (s2): Sequential(
        (0): Linear(in_features=107, out_features=512, bias=True)
        (1): ReLU()
        (2): Linear(in_features=512, out_features=512, bias=True)
        (3): ReLU()
        (4): Linear(in_features=512, out_features=212, bias=True)
      )
    )
    (10): PermuteRandom()
    (11): GLOWCouplingBlock(
      (s1): Sequential(
        (0): Linear(in_features=106, out_features=512, bias=True)
        (1): ReLU()
        (2): Linear(in_features=512, out_features=512, bias=True)
        (3): ReLU()
        (4): Linear(in_features=512, out_features=214, bias=True)
      )
      (s2): Sequential(
        (0): Linear(in_features=107, out_features=512, bias=True)
        (1): ReLU()
        (2): Linear(in_features=512, out_features=512, bias=True)
        (3): ReLU()
        (4): Linear(in_features=512, out_features=212, bias=True)
      )
    )
    (12): PermuteRandom()
    (13): GLOWCouplingBlock(
      (s1): Sequential(
        (0): Linear(in_features=106, out_features=512, bias=True)
        (1): ReLU()
        (2): Linear(in_features=512, out_features=512, bias=True)
        (3): ReLU()
        (4): Linear(in_features=512, out_features=214, bias=True)
      )
      (s2): Sequential(
        (0): Linear(in_features=107, out_features=512, bias=True)
        (1): ReLU()
        (2): Linear(in_features=512, out_features=512, bias=True)
        (3): ReLU()
        (4): Linear(in_features=512, out_features=212, bias=True)
      )
    )
    (14): PermuteRandom()
    (15): GLOWCouplingBlock(
      (s1): Sequential(
        (0): Linear(in_features=106, out_features=512, bias=True)
        (1): ReLU()
        (2): Linear(in_features=512, out_features=512, bias=True)
        (3): ReLU()
        (4): Linear(in_features=512, out_features=214, bias=True)
      )
      (s2): Sequential(
        (0): Linear(in_features=107, out_features=512, bias=True)
        (1): ReLU()
        (2): Linear(in_features=512, out_features=512, bias=True)
        (3): ReLU()
        (4): Linear(in_features=512, out_features=212, bias=True)
      )
    )
    (16): PermuteRandom()
    (17): GLOWCouplingBlock(
      (s1): Sequential(
        (0): Linear(in_features=106, out_features=512, bias=True)
        (1): ReLU()
        (2): Linear(in_features=512, out_features=512, bias=True)
        (3): ReLU()
        (4): Linear(in_features=512, out_features=214, bias=True)
      )
      (s2): Sequential(
        (0): Linear(in_features=107, out_features=512, bias=True)
        (1): ReLU()
        (2): Linear(in_features=512, out_features=512, bias=True)
        (3): ReLU()
        (4): Linear(in_features=512, out_features=212, bias=True)
      )
    )
    (18): PermuteRandom()
    (19): GLOWCouplingBlock(
      (s1): Sequential(
        (0): Linear(in_features=106, out_features=512, bias=True)
        (1): ReLU()
        (2): Linear(in_features=512, out_features=512, bias=True)
        (3): ReLU()
        (4): Linear(in_features=512, out_features=214, bias=True)
      )
      (s2): Sequential(
        (0): Linear(in_features=107, out_features=512, bias=True)
        (1): ReLU()
        (2): Linear(in_features=512, out_features=512, bias=True)
        (3): ReLU()
        (4): Linear(in_features=512, out_features=212, bias=True)
      )
    )
    (20): PermuteRandom()
    (21): GLOWCouplingBlock(
      (s1): Sequential(
        (0): Linear(in_features=106, out_features=512, bias=True)
        (1): ReLU()
        (2): Linear(in_features=512, out_features=512, bias=True)
        (3): ReLU()
        (4): Linear(in_features=512, out_features=214, bias=True)
      )
      (s2): Sequential(
        (0): Linear(in_features=107, out_features=512, bias=True)
        (1): ReLU()
        (2): Linear(in_features=512, out_features=512, bias=True)
        (3): ReLU()
        (4): Linear(in_features=512, out_features=212, bias=True)
      )
    )
    (22): PermuteRandom()
    (23): dummy()
  )
)
/home/sr365/MM_Bench/INN_FrEIA/models/Peurifoy/Peurifoycouple_layer_num11labmda_mse1_lr_0.001_dim_pad_10_dim_z_2
number of trainable parameters is :
9393230
Start eval now:
in compare truth pred function in eval_help package, your shape of pred file is (100, 201)
(Avg MSE=2.1926e-01)
Evaluation finished
…
Node 'coupling_6' takes the following inputs:
	 Output #0 of node 'permute_5' with dims (252,)

Node 'permute_6' takes the following inputs:
	 Output #0 of node 'coupling_6' with dims (252,)

Node 'coupling_7' takes the following inputs:
	 Output #0 of node 'permute_6' with dims (252,)

Node 'permute_7' takes the following inputs:
	 Output #0 of node 'coupling_7' with dims (252,)

Node 'output' takes the following inputs:
	 Output #0 of node 'permute_7' with dims (252,)

ReversibleGraphNet(
  (module_list): ModuleList(
    (0): None
    (1): GLOWCouplingBlock(
      (s1): Sequential(
        (0): Linear(in_features=126, out_features=512, bias=True)
        (1): ReLU()
        (2): Linear(in_features=512, out_features=512, bias=True)
        (3): ReLU()
        (4): Linear(in_features=512, out_features=252, bias=True)
      )
      (s2): Sequential(
        (0): Linear(in_features=126, out_features=512, bias=True)
        (1): ReLU()
        (2): Linear(in_features=512, out_features=512, bias=True)
        (3): ReLU()
        (4): Linear(in_features=512, out_features=252, bias=True)
      )
    )
    (2): PermuteRandom()
    (3): GLOWCouplingBlock(
      (s1): Sequential(
        (0): Linear(in_features=126, out_features=512, bias=True)
        (1): ReLU()
        (2): Linear(in_features=512, out_features=512, bias=True)
        (3): ReLU()
        (4): Linear(in_features=512, out_features=252, bias=True)
      )
      (s2): Sequential(
        (0): Linear(in_features=126, out_features=512, bias=True)
        (1): ReLU()
        (2): Linear(in_features=512, out_features=512, bias=True)
        (3): ReLU()
        (4): Linear(in_features=512, out_features=252, bias=True)
      )
    )
    (4): PermuteRandom()
    (5): GLOWCouplingBlock(
      (s1): Sequential(
        (0): Linear(in_features=126, out_features=512, bias=True)
        (1): ReLU()
        (2): Linear(in_features=512, out_features=512, bias=True)
        (3): ReLU()
        (4): Linear(in_features=512, out_features=252, bias=True)
      )
      (s2): Sequential(
        (0): Linear(in_features=126, out_features=512, bias=True)
        (1): ReLU()
        (2): Linear(in_features=512, out_features=512, bias=True)
        (3): ReLU()
        (4): Linear(in_features=512, out_features=252, bias=True)
      )
    )
    (6): PermuteRandom()
    (7): GLOWCouplingBlock(
      (s1): Sequential(
        (0): Linear(in_features=126, out_features=512, bias=True)
        (1): ReLU()
        (2): Linear(in_features=512, out_features=512, bias=True)
        (3): ReLU()
        (4): Linear(in_features=512, out_features=252, bias=True)
      )
      (s2): Sequential(
        (0): Linear(in_features=126, out_features=512, bias=True)
        (1): ReLU()
        (2): Linear(in_features=512, out_features=512, bias=True)
        (3): ReLU()
        (4): Linear(in_features=512, out_features=252, bias=True)
      )
    )
    (8): PermuteRandom()
    (9): GLOWCouplingBlock(
      (s1): Sequential(
        (0): Linear(in_features=126, out_features=512, bias=True)
        (1): ReLU()
        (2): Linear(in_features=512, out_features=512, bias=True)
        (3): ReLU()
        (4): Linear(in_features=512, out_features=252, bias=True)
      )
      (s2): Sequential(
        (0): Linear(in_features=126, out_features=512, bias=True)
        (1): ReLU()
        (2): Linear(in_features=512, out_features=512, bias=True)
        (3): ReLU()
        (4): Linear(in_features=512, out_features=252, bias=True)
      )
    )
    (10): PermuteRandom()
    (11): GLOWCouplingBlock(
      (s1): Sequential(
        (0): Linear(in_features=126, out_features=512, bias=True)
        (1): ReLU()
        (2): Linear(in_features=512, out_features=512, bias=True)
        (3): ReLU()
        (4): Linear(in_features=512, out_features=252, bias=True)
      )
      (s2): Sequential(
        (0): Linear(in_features=126, out_features=512, bias=True)
        (1): ReLU()
        (2): Linear(in_features=512, out_features=512, bias=True)
        (3): ReLU()
        (4): Linear(in_features=512, out_features=252, bias=True)
      )
    )
    (12): PermuteRandom()
    (13): GLOWCouplingBlock(
      (s1): Sequential(
        (0): Linear(in_features=126, out_features=512, bias=True)
        (1): ReLU()
        (2): Linear(in_features=512, out_features=512, bias=True)
        (3): ReLU()
        (4): Linear(in_features=512, out_features=252, bias=True)
      )
      (s2): Sequential(
        (0): Linear(in_features=126, out_features=512, bias=True)
        (1): ReLU()
        (2): Linear(in_features=512, out_features=512, bias=True)
        (3): ReLU()
        (4): Linear(in_features=512, out_features=252, bias=True)
      )
    )
    (14): PermuteRandom()
    (15): GLOWCouplingBlock(
      (s1): Sequential(
        (0): Linear(in_features=126, out_features=512, bias=True)
        (1): ReLU()
        (2): Linear(in_features=512, out_features=512, bias=True)
        (3): ReLU()
        (4): Linear(in_features=512, out_features=252, bias=True)
      )
      (s2): Sequential(
        (0): Linear(in_features=126, out_features=512, bias=True)
        (1): ReLU()
        (2): Linear(in_features=512, out_features=512, bias=True)
        (3): ReLU()
        (4): Linear(in_features=512, out_features=252, bias=True)
      )
    )
    (16): PermuteRandom()
    (17): dummy()
  )
)
/home/sr365/MM_Bench/INN_FrEIA/models/Peurifoy/Peurifoycouple_layer_num8labmda_mse1_lr_0.001_dim_pad_50_dim_z_1
number of trainable parameters is :
7311296
Start eval now:
in compare truth pred function in eval_help package, your shape of pred file is (100, 201)
(Avg MSE=1.3149e-01)
Evaluation finished
…
Node 'coupling_7' takes the following inputs:
	 Output #0 of node 'permute_6' with dims (252,)

Node 'permute_7' takes the following inputs:
	 Output #0 of node 'coupling_7' with dims (252,)

Node 'coupling_8' takes the following inputs:
	 Output #0 of node 'permute_7' with dims (252,)

Node 'permute_8' takes the following inputs:
	 Output #0 of node 'coupling_8' with dims (252,)

Node 'output' takes the following inputs:
	 Output #0 of node 'permute_8' with dims (252,)

ReversibleGraphNet(
  (module_list): ModuleList(
    (0): None
    (1): GLOWCouplingBlock(
      (s1): Sequential(
        (0): Linear(in_features=126, out_features=512, bias=True)
        (1): ReLU()
        (2): Linear(in_features=512, out_features=512, bias=True)
        (3): ReLU()
        (4): Linear(in_features=512, out_features=252, bias=True)
      )
      (s2): Sequential(
        (0): Linear(in_features=126, out_features=512, bias=True)
        (1): ReLU()
        (2): Linear(in_features=512, out_features=512, bias=True)
        (3): ReLU()
        (4): Linear(in_features=512, out_features=252, bias=True)
      )
    )
    (2): PermuteRandom()
    (3): GLOWCouplingBlock(
      (s1): Sequential(
        (0): Linear(in_features=126, out_features=512, bias=True)
        (1): ReLU()
        (2): Linear(in_features=512, out_features=512, bias=True)
        (3): ReLU()
        (4): Linear(in_features=512, out_features=252, bias=True)
      )
      (s2): Sequential(
        (0): Linear(in_features=126, out_features=512, bias=True)
        (1): ReLU()
        (2): Linear(in_features=512, out_features=512, bias=True)
        (3): ReLU()
        (4): Linear(in_features=512, out_features=252, bias=True)
      )
    )
    (4): PermuteRandom()
    (5): GLOWCouplingBlock(
      (s1): Sequential(
        (0): Linear(in_features=126, out_features=512, bias=True)
        (1): ReLU()
        (2): Linear(in_features=512, out_features=512, bias=True)
        (3): ReLU()
        (4): Linear(in_features=512, out_features=252, bias=True)
      )
      (s2): Sequential(
        (0): Linear(in_features=126, out_features=512, bias=True)
        (1): ReLU()
        (2): Linear(in_features=512, out_features=512, bias=True)
        (3): ReLU()
        (4): Linear(in_features=512, out_features=252, bias=True)
      )
    )
    (6): PermuteRandom()
    (7): GLOWCouplingBlock(
      (s1): Sequential(
        (0): Linear(in_features=126, out_features=512, bias=True)
        (1): ReLU()
        (2): Linear(in_features=512, out_features=512, bias=True)
        (3): ReLU()
        (4): Linear(in_features=512, out_features=252, bias=True)
      )
      (s2): Sequential(
        (0): Linear(in_features=126, out_features=512, bias=True)
        (1): ReLU()
        (2): Linear(in_features=512, out_features=512, bias=True)
        (3): ReLU()
        (4): Linear(in_features=512, out_features=252, bias=True)
      )
    )
    (8): PermuteRandom()
    (9): GLOWCouplingBlock(
      (s1): Sequential(
        (0): Linear(in_features=126, out_features=512, bias=True)
        (1): ReLU()
        (2): Linear(in_features=512, out_features=512, bias=True)
        (3): ReLU()
        (4): Linear(in_features=512, out_features=252, bias=True)
      )
      (s2): Sequential(
        (0): Linear(in_features=126, out_features=512, bias=True)
        (1): ReLU()
        (2): Linear(in_features=512, out_features=512, bias=True)
        (3): ReLU()
        (4): Linear(in_features=512, out_features=252, bias=True)
      )
    )
    (10): PermuteRandom()
    (11): GLOWCouplingBlock(
      (s1): Sequential(
        (0): Linear(in_features=126, out_features=512, bias=True)
        (1): ReLU()
        (2): Linear(in_features=512, out_features=512, bias=True)
        (3): ReLU()
        (4): Linear(in_features=512, out_features=252, bias=True)
      )
      (s2): Sequential(
        (0): Linear(in_features=126, out_features=512, bias=True)
        (1): ReLU()
        (2): Linear(in_features=512, out_features=512, bias=True)
        (3): ReLU()
        (4): Linear(in_features=512, out_features=252, bias=True)
      )
    )
    (12): PermuteRandom()
    (13): GLOWCouplingBlock(
      (s1): Sequential(
        (0): Linear(in_features=126, out_features=512, bias=True)
        (1): ReLU()
        (2): Linear(in_features=512, out_features=512, bias=True)
        (3): ReLU()
        (4): Linear(in_features=512, out_features=252, bias=True)
      )
      (s2): Sequential(
        (0): Linear(in_features=126, out_features=512, bias=True)
        (1): ReLU()
        (2): Linear(in_features=512, out_features=512, bias=True)
        (3): ReLU()
        (4): Linear(in_features=512, out_features=252, bias=True)
      )
    )
    (14): PermuteRandom()
    (15): GLOWCouplingBlock(
      (s1): Sequential(
        (0): Linear(in_features=126, out_features=512, bias=True)
        (1): ReLU()
        (2): Linear(in_features=512, out_features=512, bias=True)
        (3): ReLU()
        (4): Linear(in_features=512, out_features=252, bias=True)
      )
      (s2): Sequential(
        (0): Linear(in_features=126, out_features=512, bias=True)
        (1): ReLU()
        (2): Linear(in_features=512, out_features=512, bias=True)
        (3): ReLU()
        (4): Linear(in_features=512, out_features=252, bias=True)
      )
    )
    (16): PermuteRandom()
    (17): GLOWCouplingBlock(
      (s1): Sequential(
        (0): Linear(in_features=126, out_features=512, bias=True)
        (1): ReLU()
        (2): Linear(in_features=512, out_features=512, bias=True)
        (3): ReLU()
        (4): Linear(in_features=512, out_features=252, bias=True)
      )
      (s2): Sequential(
        (0): Linear(in_features=126, out_features=512, bias=True)
        (1): ReLU()
        (2): Linear(in_features=512, out_features=512, bias=True)
        (3): ReLU()
        (4): Linear(in_features=512, out_features=252, bias=True)
      )
    )
    (18): PermuteRandom()
    (19): dummy()
  )
)
/home/sr365/MM_Bench/INN_FrEIA/models/Peurifoy/Peurifoycouple_layer_num9labmda_mse100_lr_0.001_dim_pad_50_dim_z_1
number of trainable parameters is :
8225208
Start eval now:
in compare truth pred function in eval_help package, your shape of pred file is (100, 201)
(Avg MSE=5.1297e-01)
Evaluation finished
…
Node 'coupling_8' takes the following inputs:
	 Output #0 of node 'permute_7' with dims (252,)

Node 'permute_8' takes the following inputs:
	 Output #0 of node 'coupling_8' with dims (252,)

Node 'coupling_9' takes the following inputs:
	 Output #0 of node 'permute_8' with dims (252,)

Node 'permute_9' takes the following inputs:
	 Output #0 of node 'coupling_9' with dims (252,)

Node 'output' takes the following inputs:
	 Output #0 of node 'permute_9' with dims (252,)

ReversibleGraphNet(
  (module_list): ModuleList(
    (0): None
    (1): GLOWCouplingBlock(
      (s1): Sequential(
        (0): Linear(in_features=126, out_features=512, bias=True)
        (1): ReLU()
        (2): Linear(in_features=512, out_features=512, bias=True)
        (3): ReLU()
        (4): Linear(in_features=512, out_features=252, bias=True)
      )
      (s2): Sequential(
        (0): Linear(in_features=126, out_features=512, bias=True)
        (1): ReLU()
        (2): Linear(in_features=512, out_features=512, bias=True)
        (3): ReLU()
        (4): Linear(in_features=512, out_features=252, bias=True)
      )
    )
    (2): PermuteRandom()
    (3): GLOWCouplingBlock(
      (s1): Sequential(
        (0): Linear(in_features=126, out_features=512, bias=True)
        (1): ReLU()
        (2): Linear(in_features=512, out_features=512, bias=True)
        (3): ReLU()
        (4): Linear(in_features=512, out_features=252, bias=True)
      )
      (s2): Sequential(
        (0): Linear(in_features=126, out_features=512, bias=True)
        (1): ReLU()
        (2): Linear(in_features=512, out_features=512, bias=True)
        (3): ReLU()
        (4): Linear(in_features=512, out_features=252, bias=True)
      )
    )
    (4): PermuteRandom()
    (5): GLOWCouplingBlock(
      (s1): Sequential(
        (0): Linear(in_features=126, out_features=512, bias=True)
        (1): ReLU()
        (2): Linear(in_features=512, out_features=512, bias=True)
        (3): ReLU()
        (4): Linear(in_features=512, out_features=252, bias=True)
      )
      (s2): Sequential(
        (0): Linear(in_features=126, out_features=512, bias=True)
        (1): ReLU()
        (2): Linear(in_features=512, out_features=512, bias=True)
        (3): ReLU()
        (4): Linear(in_features=512, out_features=252, bias=True)
      )
    )
    (6): PermuteRandom()
    (7): GLOWCouplingBlock(
      (s1): Sequential(
        (0): Linear(in_features=126, out_features=512, bias=True)
        (1): ReLU()
        (2): Linear(in_features=512, out_features=512, bias=True)
        (3): ReLU()
        (4): Linear(in_features=512, out_features=252, bias=True)
      )
      (s2): Sequential(
        (0): Linear(in_features=126, out_features=512, bias=True)
        (1): ReLU()
        (2): Linear(in_features=512, out_features=512, bias=True)
        (3): ReLU()
        (4): Linear(in_features=512, out_features=252, bias=True)
      )
    )
    (8): PermuteRandom()
    (9): GLOWCouplingBlock(
      (s1): Sequential(
        (0): Linear(in_features=126, out_features=512, bias=True)
        (1): ReLU()
        (2): Linear(in_features=512, out_features=512, bias=True)
        (3): ReLU()
        (4): Linear(in_features=512, out_features=252, bias=True)
      )
      (s2): Sequential(
        (0): Linear(in_features=126, out_features=512, bias=True)
        (1): ReLU()
        (2): Linear(in_features=512, out_features=512, bias=True)
        (3): ReLU()
        (4): Linear(in_features=512, out_features=252, bias=True)
      )
    )
    (10): PermuteRandom()
    (11): GLOWCouplingBlock(
      (s1): Sequential(
        (0): Linear(in_features=126, out_features=512, bias=True)
        (1): ReLU()
        (2): Linear(in_features=512, out_features=512, bias=True)
        (3): ReLU()
        (4): Linear(in_features=512, out_features=252, bias=True)
      )
      (s2): Sequential(
        (0): Linear(in_features=126, out_features=512, bias=True)
        (1): ReLU()
        (2): Linear(in_features=512, out_features=512, bias=True)
        (3): ReLU()
        (4): Linear(in_features=512, out_features=252, bias=True)
      )
    )
    (12): PermuteRandom()
    (13): GLOWCouplingBlock(
      (s1): Sequential(
        (0): Linear(in_features=126, out_features=512, bias=True)
        (1): ReLU()
        (2): Linear(in_features=512, out_features=512, bias=True)
        (3): ReLU()
        (4): Linear(in_features=512, out_features=252, bias=True)
      )
      (s2): Sequential(
        (0): Linear(in_features=126, out_features=512, bias=True)
        (1): ReLU()
        (2): Linear(in_features=512, out_features=512, bias=True)
        (3): ReLU()
        (4): Linear(in_features=512, out_features=252, bias=True)
      )
    )
    (14): PermuteRandom()
    (15): GLOWCouplingBlock(
      (s1): Sequential(
        (0): Linear(in_features=126, out_features=512, bias=True)
        (1): ReLU()
        (2): Linear(in_features=512, out_features=512, bias=True)
        (3): ReLU()
        (4): Linear(in_features=512, out_features=252, bias=True)
      )
      (s2): Sequential(
        (0): Linear(in_features=126, out_features=512, bias=True)
        (1): ReLU()
        (2): Linear(in_features=512, out_features=512, bias=True)
        (3): ReLU()
        (4): Linear(in_features=512, out_features=252, bias=True)
      )
    )
    (16): PermuteRandom()
    (17): GLOWCouplingBlock(
      (s1): Sequential(
        (0): Linear(in_features=126, out_features=512, bias=True)
        (1): ReLU()
        (2): Linear(in_features=512, out_features=512, bias=True)
        (3): ReLU()
        (4): Linear(in_features=512, out_features=252, bias=True)
      )
      (s2): Sequential(
        (0): Linear(in_features=126, out_features=512, bias=True)
        (1): ReLU()
        (2): Linear(in_features=512, out_features=512, bias=True)
        (3): ReLU()
        (4): Linear(in_features=512, out_features=252, bias=True)
      )
    )
    (18): PermuteRandom()
    (19): GLOWCouplingBlock(
      (s1): Sequential(
        (0): Linear(in_features=126, out_features=512, bias=True)
        (1): ReLU()
        (2): Linear(in_features=512, out_features=512, bias=True)
        (3): ReLU()
        (4): Linear(in_features=512, out_features=252, bias=True)
      )
      (s2): Sequential(
        (0): Linear(in_features=126, out_features=512, bias=True)
        (1): ReLU()
        (2): Linear(in_features=512, out_features=512, bias=True)
        (3): ReLU()
        (4): Linear(in_features=512, out_features=252, bias=True)
      )
    )
    (20): PermuteRandom()
    (21): dummy()
  )
)
/home/sr365/MM_Bench/INN_FrEIA/models/Peurifoy/Peurifoycouple_layer_num10labmda_mse0.01_lr_0.001_dim_pad_50_dim_z_1
number of trainable parameters is :
9139120
Start eval now:
in compare truth pred function in eval_help package, your shape of pred file is (100, 201)
(Avg MSE=3.6668e-03)
Evaluation finished
…
Node 'coupling_7' takes the following inputs:
	 Output #0 of node 'permute_6' with dims (253,)

Node 'permute_7' takes the following inputs:
	 Output #0 of node 'coupling_7' with dims (253,)

Node 'coupling_8' takes the following inputs:
	 Output #0 of node 'permute_7' with dims (253,)

Node 'permute_8' takes the following inputs:
	 Output #0 of node 'coupling_8' with dims (253,)

Node 'output' takes the following inputs:
	 Output #0 of node 'permute_8' with dims (253,)

ReversibleGraphNet(
  (module_list): ModuleList(
    (0): None
    (1): GLOWCouplingBlock(
      (s1): Sequential(
        (0): Linear(in_features=126, out_features=512, bias=True)
        (1): ReLU()
        (2): Linear(in_features=512, out_features=512, bias=True)
        (3): ReLU()
        (4): Linear(in_features=512, out_features=254, bias=True)
      )
      (s2): Sequential(
        (0): Linear(in_features=127, out_features=512, bias=True)
        (1): ReLU()
        (2): Linear(in_features=512, out_features=512, bias=True)
        (3): ReLU()
        (4): Linear(in_features=512, out_features=252, bias=True)
      )
    )
    (2): PermuteRandom()
    (3): GLOWCouplingBlock(
      (s1): Sequential(
        (0): Linear(in_features=126, out_features=512, bias=True)
        (1): ReLU()
        (2): Linear(in_features=512, out_features=512, bias=True)
        (3): ReLU()
        (4): Linear(in_features=512, out_features=254, bias=True)
      )
      (s2): Sequential(
        (0): Linear(in_features=127, out_features=512, bias=True)
        (1): ReLU()
        (2): Linear(in_features=512, out_features=512, bias=True)
        (3): ReLU()
        (4): Linear(in_features=512, out_features=252, bias=True)
      )
    )
    (4): PermuteRandom()
    (5): GLOWCouplingBlock(
      (s1): Sequential(
        (0): Linear(in_features=126, out_features=512, bias=True)
        (1): ReLU()
        (2): Linear(in_features=512, out_features=512, bias=True)
        (3): ReLU()
        (4): Linear(in_features=512, out_features=254, bias=True)
      )
      (s2): Sequential(
        (0): Linear(in_features=127, out_features=512, bias=True)
        (1): ReLU()
        (2): Linear(in_features=512, out_features=512, bias=True)
        (3): ReLU()
        (4): Linear(in_features=512, out_features=252, bias=True)
      )
    )
    (6): PermuteRandom()
    (7): GLOWCouplingBlock(
      (s1): Sequential(
        (0): Linear(in_features=126, out_features=512, bias=True)
        (1): ReLU()
        (2): Linear(in_features=512, out_features=512, bias=True)
        (3): ReLU()
        (4): Linear(in_features=512, out_features=254, bias=True)
      )
      (s2): Sequential(
        (0): Linear(in_features=127, out_features=512, bias=True)
        (1): ReLU()
        (2): Linear(in_features=512, out_features=512, bias=True)
        (3): ReLU()
        (4): Linear(in_features=512, out_features=252, bias=True)
      )
    )
    (8): PermuteRandom()
    (9): GLOWCouplingBlock(
      (s1): Sequential(
        (0): Linear(in_features=126, out_features=512, bias=True)
        (1): ReLU()
        (2): Linear(in_features=512, out_features=512, bias=True)
        (3): ReLU()
        (4): Linear(in_features=512, out_features=254, bias=True)
      )
      (s2): Sequential(
        (0): Linear(in_features=127, out_features=512, bias=True)
        (1): ReLU()
        (2): Linear(in_features=512, out_features=512, bias=True)
        (3): ReLU()
        (4): Linear(in_features=512, out_features=252, bias=True)
      )
    )
    (10): PermuteRandom()
    (11): GLOWCouplingBlock(
      (s1): Sequential(
        (0): Linear(in_features=126, out_features=512, bias=True)
        (1): ReLU()
        (2): Linear(in_features=512, out_features=512, bias=True)
        (3): ReLU()
        (4): Linear(in_features=512, out_features=254, bias=True)
      )
      (s2): Sequential(
        (0): Linear(in_features=127, out_features=512, bias=True)
        (1): ReLU()
        (2): Linear(in_features=512, out_features=512, bias=True)
        (3): ReLU()
        (4): Linear(in_features=512, out_features=252, bias=True)
      )
    )
    (12): PermuteRandom()
    (13): GLOWCouplingBlock(
      (s1): Sequential(
        (0): Linear(in_features=126, out_features=512, bias=True)
        (1): ReLU()
        (2): Linear(in_features=512, out_features=512, bias=True)
        (3): ReLU()
        (4): Linear(in_features=512, out_features=254, bias=True)
      )
      (s2): Sequential(
        (0): Linear(in_features=127, out_features=512, bias=True)
        (1): ReLU()
        (2): Linear(in_features=512, out_features=512, bias=True)
        (3): ReLU()
        (4): Linear(in_features=512, out_features=252, bias=True)
      )
    )
    (14): PermuteRandom()
    (15): GLOWCouplingBlock(
      (s1): Sequential(
        (0): Linear(in_features=126, out_features=512, bias=True)
        (1): ReLU()
        (2): Linear(in_features=512, out_features=512, bias=True)
        (3): ReLU()
        (4): Linear(in_features=512, out_features=254, bias=True)
      )
      (s2): Sequential(
        (0): Linear(in_features=127, out_features=512, bias=True)
        (1): ReLU()
        (2): Linear(in_features=512, out_features=512, bias=True)
        (3): ReLU()
        (4): Linear(in_features=512, out_features=252, bias=True)
      )
    )
    (16): PermuteRandom()
    (17): GLOWCouplingBlock(
      (s1): Sequential(
        (0): Linear(in_features=126, out_features=512, bias=True)
        (1): ReLU()
        (2): Linear(in_features=512, out_features=512, bias=True)
        (3): ReLU()
        (4): Linear(in_features=512, out_features=254, bias=True)
      )
      (s2): Sequential(
        (0): Linear(in_features=127, out_features=512, bias=True)
        (1): ReLU()
        (2): Linear(in_features=512, out_features=512, bias=True)
        (3): ReLU()
        (4): Linear(in_features=512, out_features=252, bias=True)
      )
    )
    (18): PermuteRandom()
    (19): dummy()
  )
)
/home/sr365/MM_Bench/INN_FrEIA/models/Peurifoy/Peurifoycouple_layer_num9labmda_mse100_lr_0.001_dim_pad_50_dim_z_2
number of trainable parameters is :
8239050
Start eval now:
in compare truth pred function in eval_help package, your shape of pred file is (100, 201)
(Avg MSE=2.8500e-01)
Evaluation finished
…
Node 'coupling_8' takes the following inputs:
	 Output #0 of node 'permute_7' with dims (253,)

Node 'permute_8' takes the following inputs:
	 Output #0 of node 'coupling_8' with dims (253,)

Node 'coupling_9' takes the following inputs:
	 Output #0 of node 'permute_8' with dims (253,)

Node 'permute_9' takes the following inputs:
	 Output #0 of node 'coupling_9' with dims (253,)

Node 'output' takes the following inputs:
	 Output #0 of node 'permute_9' with dims (253,)

ReversibleGraphNet(
  (module_list): ModuleList(
    (0): None
    (1): GLOWCouplingBlock(
      (s1): Sequential(
        (0): Linear(in_features=126, out_features=512, bias=True)
        (1): ReLU()
        (2): Linear(in_features=512, out_features=512, bias=True)
        (3): ReLU()
        (4): Linear(in_features=512, out_features=254, bias=True)
      )
      (s2): Sequential(
        (0): Linear(in_features=127, out_features=512, bias=True)
        (1): ReLU()
        (2): Linear(in_features=512, out_features=512, bias=True)
        (3): ReLU()
        (4): Linear(in_features=512, out_features=252, bias=True)
      )
    )
    (2): PermuteRandom()
    (3): GLOWCouplingBlock(
      (s1): Sequential(
        (0): Linear(in_features=126, out_features=512, bias=True)
        (1): ReLU()
        (2): Linear(in_features=512, out_features=512, bias=True)
        (3): ReLU()
        (4): Linear(in_features=512, out_features=254, bias=True)
      )
      (s2): Sequential(
        (0): Linear(in_features=127, out_features=512, bias=True)
        (1): ReLU()
        (2): Linear(in_features=512, out_features=512, bias=True)
        (3): ReLU()
        (4): Linear(in_features=512, out_features=252, bias=True)
      )
    )
    (4): PermuteRandom()
    (5): GLOWCouplingBlock(
      (s1): Sequential(
        (0): Linear(in_features=126, out_features=512, bias=True)
        (1): ReLU()
        (2): Linear(in_features=512, out_features=512, bias=True)
        (3): ReLU()
        (4): Linear(in_features=512, out_features=254, bias=True)
      )
      (s2): Sequential(
        (0): Linear(in_features=127, out_features=512, bias=True)
        (1): ReLU()
        (2): Linear(in_features=512, out_features=512, bias=True)
        (3): ReLU()
        (4): Linear(in_features=512, out_features=252, bias=True)
      )
    )
    (6): PermuteRandom()
    (7): GLOWCouplingBlock(
      (s1): Sequential(
        (0): Linear(in_features=126, out_features=512, bias=True)
        (1): ReLU()
        (2): Linear(in_features=512, out_features=512, bias=True)
        (3): ReLU()
        (4): Linear(in_features=512, out_features=254, bias=True)
      )
      (s2): Sequential(
        (0): Linear(in_features=127, out_features=512, bias=True)
        (1): ReLU()
        (2): Linear(in_features=512, out_features=512, bias=True)
        (3): ReLU()
        (4): Linear(in_features=512, out_features=252, bias=True)
      )
    )
    (8): PermuteRandom()
    (9): GLOWCouplingBlock(
      (s1): Sequential(
        (0): Linear(in_features=126, out_features=512, bias=True)
        (1): ReLU()
        (2): Linear(in_features=512, out_features=512, bias=True)
        (3): ReLU()
        (4): Linear(in_features=512, out_features=254, bias=True)
      )
      (s2): Sequential(
        (0): Linear(in_features=127, out_features=512, bias=True)
        (1): ReLU()
        (2): Linear(in_features=512, out_features=512, bias=True)
        (3): ReLU()
        (4): Linear(in_features=512, out_features=252, bias=True)
      )
    )
    (10): PermuteRandom()
    (11): GLOWCouplingBlock(
      (s1): Sequential(
        (0): Linear(in_features=126, out_features=512, bias=True)
        (1): ReLU()
        (2): Linear(in_features=512, out_features=512, bias=True)
        (3): ReLU()
        (4): Linear(in_features=512, out_features=254, bias=True)
      )
      (s2): Sequential(
        (0): Linear(in_features=127, out_features=512, bias=True)
        (1): ReLU()
        (2): Linear(in_features=512, out_features=512, bias=True)
        (3): ReLU()
        (4): Linear(in_features=512, out_features=252, bias=True)
      )
    )
    (12): PermuteRandom()
    (13): GLOWCouplingBlock(
      (s1): Sequential(
        (0): Linear(in_features=126, out_features=512, bias=True)
        (1): ReLU()
        (2): Linear(in_features=512, out_features=512, bias=True)
        (3): ReLU()
        (4): Linear(in_features=512, out_features=254, bias=True)
      )
      (s2): Sequential(
        (0): Linear(in_features=127, out_features=512, bias=True)
        (1): ReLU()
        (2): Linear(in_features=512, out_features=512, bias=True)
        (3): ReLU()
        (4): Linear(in_features=512, out_features=252, bias=True)
      )
    )
    (14): PermuteRandom()
    (15): GLOWCouplingBlock(
      (s1): Sequential(
        (0): Linear(in_features=126, out_features=512, bias=True)
        (1): ReLU()
        (2): Linear(in_features=512, out_features=512, bias=True)
        (3): ReLU()
        (4): Linear(in_features=512, out_features=254, bias=True)
      )
      (s2): Sequential(
        (0): Linear(in_features=127, out_features=512, bias=True)
        (1): ReLU()
        (2): Linear(in_features=512, out_features=512, bias=True)
        (3): ReLU()
        (4): Linear(in_features=512, out_features=252, bias=True)
      )
    )
    (16): PermuteRandom()
    (17): GLOWCouplingBlock(
      (s1): Sequential(
        (0): Linear(in_features=126, out_features=512, bias=True)
        (1): ReLU()
        (2): Linear(in_features=512, out_features=512, bias=True)
        (3): ReLU()
        (4): Linear(in_features=512, out_features=254, bias=True)
      )
      (s2): Sequential(
        (0): Linear(in_features=127, out_features=512, bias=True)
        (1): ReLU()
        (2): Linear(in_features=512, out_features=512, bias=True)
        (3): ReLU()
        (4): Linear(in_features=512, out_features=252, bias=True)
      )
    )
    (18): PermuteRandom()
    (19): GLOWCouplingBlock(
      (s1): Sequential(
        (0): Linear(in_features=126, out_features=512, bias=True)
        (1): ReLU()
        (2): Linear(in_features=512, out_features=512, bias=True)
        (3): ReLU()
        (4): Linear(in_features=512, out_features=254, bias=True)
      )
      (s2): Sequential(
        (0): Linear(in_features=127, out_features=512, bias=True)
        (1): ReLU()
        (2): Linear(in_features=512, out_features=512, bias=True)
        (3): ReLU()
        (4): Linear(in_features=512, out_features=252, bias=True)
      )
    )
    (20): PermuteRandom()
    (21): dummy()
  )
)
/home/sr365/MM_Bench/INN_FrEIA/models/Peurifoy/Peurifoycouple_layer_num10labmda_mse1_lr_0.001_dim_pad_50_dim_z_2
number of trainable parameters is :
9154500
Start eval now:
in compare truth pred function in eval_help package, your shape of pred file is (100, 201)
(Avg MSE=1.3120e-01)
Evaluation finished
…
Node 'coupling_6' takes the following inputs:
	 Output #0 of node 'permute_5' with dims (212,)

Node 'permute_6' takes the following inputs:
	 Output #0 of node 'coupling_6' with dims (212,)

Node 'coupling_7' takes the following inputs:
	 Output #0 of node 'permute_6' with dims (212,)

Node 'permute_7' takes the following inputs:
	 Output #0 of node 'coupling_7' with dims (212,)

Node 'output' takes the following inputs:
	 Output #0 of node 'permute_7' with dims (212,)

ReversibleGraphNet(
  (module_list): ModuleList(
    (0): None
    (1): GLOWCouplingBlock(
      (s1): Sequential(
        (0): Linear(in_features=106, out_features=512, bias=True)
        (1): ReLU()
        (2): Linear(in_features=512, out_features=512, bias=True)
        (3): ReLU()
        (4): Linear(in_features=512, out_features=212, bias=True)
      )
      (s2): Sequential(
        (0): Linear(in_features=106, out_features=512, bias=True)
        (1): ReLU()
        (2): Linear(in_features=512, out_features=512, bias=True)
        (3): ReLU()
        (4): Linear(in_features=512, out_features=212, bias=True)
      )
    )
    (2): PermuteRandom()
    (3): GLOWCouplingBlock(
      (s1): Sequential(
        (0): Linear(in_features=106, out_features=512, bias=True)
        (1): ReLU()
        (2): Linear(in_features=512, out_features=512, bias=True)
        (3): ReLU()
        (4): Linear(in_features=512, out_features=212, bias=True)
      )
      (s2): Sequential(
        (0): Linear(in_features=106, out_features=512, bias=True)
        (1): ReLU()
        (2): Linear(in_features=512, out_features=512, bias=True)
        (3): ReLU()
        (4): Linear(in_features=512, out_features=212, bias=True)
      )
    )
    (4): PermuteRandom()
    (5): GLOWCouplingBlock(
      (s1): Sequential(
        (0): Linear(in_features=106, out_features=512, bias=True)
        (1): ReLU()
        (2): Linear(in_features=512, out_features=512, bias=True)
        (3): ReLU()
        (4): Linear(in_features=512, out_features=212, bias=True)
      )
      (s2): Sequential(
        (0): Linear(in_features=106, out_features=512, bias=True)
        (1): ReLU()
        (2): Linear(in_features=512, out_features=512, bias=True)
        (3): ReLU()
        (4): Linear(in_features=512, out_features=212, bias=True)
      )
    )
    (6): PermuteRandom()
    (7): GLOWCouplingBlock(
      (s1): Sequential(
        (0): Linear(in_features=106, out_features=512, bias=True)
        (1): ReLU()
        (2): Linear(in_features=512, out_features=512, bias=True)
        (3): ReLU()
        (4): Linear(in_features=512, out_features=212, bias=True)
      )
      (s2): Sequential(
        (0): Linear(in_features=106, out_features=512, bias=True)
        (1): ReLU()
        (2): Linear(in_features=512, out_features=512, bias=True)
        (3): ReLU()
        (4): Linear(in_features=512, out_features=212, bias=True)
      )
    )
    (8): PermuteRandom()
    (9): GLOWCouplingBlock(
      (s1): Sequential(
        (0): Linear(in_features=106, out_features=512, bias=True)
        (1): ReLU()
        (2): Linear(in_features=512, out_features=512, bias=True)
        (3): ReLU()
        (4): Linear(in_features=512, out_features=212, bias=True)
      )
      (s2): Sequential(
        (0): Linear(in_features=106, out_features=512, bias=True)
        (1): ReLU()
        (2): Linear(in_features=512, out_features=512, bias=True)
        (3): ReLU()
        (4): Linear(in_features=512, out_features=212, bias=True)
      )
    )
    (10): PermuteRandom()
    (11): GLOWCouplingBlock(
      (s1): Sequential(
        (0): Linear(in_features=106, out_features=512, bias=True)
        (1): ReLU()
        (2): Linear(in_features=512, out_features=512, bias=True)
        (3): ReLU()
        (4): Linear(in_features=512, out_features=212, bias=True)
      )
      (s2): Sequential(
        (0): Linear(in_features=106, out_features=512, bias=True)
        (1): ReLU()
        (2): Linear(in_features=512, out_features=512, bias=True)
        (3): ReLU()
        (4): Linear(in_features=512, out_features=212, bias=True)
      )
    )
    (12): PermuteRandom()
    (13): GLOWCouplingBlock(
      (s1): Sequential(
        (0): Linear(in_features=106, out_features=512, bias=True)
        (1): ReLU()
        (2): Linear(in_features=512, out_features=512, bias=True)
        (3): ReLU()
        (4): Linear(in_features=512, out_features=212, bias=True)
      )
      (s2): Sequential(
        (0): Linear(in_features=106, out_features=512, bias=True)
        (1): ReLU()
        (2): Linear(in_features=512, out_features=512, bias=True)
        (3): ReLU()
        (4): Linear(in_features=512, out_features=212, bias=True)
      )
    )
    (14): PermuteRandom()
    (15): GLOWCouplingBlock(
      (s1): Sequential(
        (0): Linear(in_features=106, out_features=512, bias=True)
        (1): ReLU()
        (2): Linear(in_features=512, out_features=512, bias=True)
        (3): ReLU()
        (4): Linear(in_features=512, out_features=212, bias=True)
      )
      (s2): Sequential(
        (0): Linear(in_features=106, out_features=512, bias=True)
        (1): ReLU()
        (2): Linear(in_features=512, out_features=512, bias=True)
        (3): ReLU()
        (4): Linear(in_features=512, out_features=212, bias=True)
      )
    )
    (16): PermuteRandom()
    (17): dummy()
  )
)
/home/sr365/MM_Bench/INN_FrEIA/models/Peurifoy/Peurifoycouple_layer_num8labmda_mse0.01_lr_0.001_dim_pad_10_dim_z_1
number of trainable parameters is :
6819136
Start eval now:
in compare truth pred function in eval_help package, your shape of pred file is (100, 201)
(Avg MSE=2.8056e-03)
Evaluation finished
…
Node 'coupling_7' takes the following inputs:
	 Output #0 of node 'permute_6' with dims (213,)

Node 'permute_7' takes the following inputs:
	 Output #0 of node 'coupling_7' with dims (213,)

Node 'coupling_8' takes the following inputs:
	 Output #0 of node 'permute_7' with dims (213,)

Node 'permute_8' takes the following inputs:
	 Output #0 of node 'coupling_8' with dims (213,)

Node 'output' takes the following inputs:
	 Output #0 of node 'permute_8' with dims (213,)

ReversibleGraphNet(
  (module_list): ModuleList(
    (0): None
    (1): GLOWCouplingBlock(
      (s1): Sequential(
        (0): Linear(in_features=106, out_features=512, bias=True)
        (1): ReLU()
        (2): Linear(in_features=512, out_features=512, bias=True)
        (3): ReLU()
        (4): Linear(in_features=512, out_features=214, bias=True)
      )
      (s2): Sequential(
        (0): Linear(in_features=107, out_features=512, bias=True)
        (1): ReLU()
        (2): Linear(in_features=512, out_features=512, bias=True)
        (3): ReLU()
        (4): Linear(in_features=512, out_features=212, bias=True)
      )
    )
    (2): PermuteRandom()
    (3): GLOWCouplingBlock(
      (s1): Sequential(
        (0): Linear(in_features=106, out_features=512, bias=True)
        (1): ReLU()
        (2): Linear(in_features=512, out_features=512, bias=True)
        (3): ReLU()
        (4): Linear(in_features=512, out_features=214, bias=True)
      )
      (s2): Sequential(
        (0): Linear(in_features=107, out_features=512, bias=True)
        (1): ReLU()
        (2): Linear(in_features=512, out_features=512, bias=True)
        (3): ReLU()
        (4): Linear(in_features=512, out_features=212, bias=True)
      )
    )
    (4): PermuteRandom()
    (5): GLOWCouplingBlock(
      (s1): Sequential(
        (0): Linear(in_features=106, out_features=512, bias=True)
        (1): ReLU()
        (2): Linear(in_features=512, out_features=512, bias=True)
        (3): ReLU()
        (4): Linear(in_features=512, out_features=214, bias=True)
      )
      (s2): Sequential(
        (0): Linear(in_features=107, out_features=512, bias=True)
        (1): ReLU()
        (2): Linear(in_features=512, out_features=512, bias=True)
        (3): ReLU()
        (4): Linear(in_features=512, out_features=212, bias=True)
      )
    )
    (6): PermuteRandom()
    (7): GLOWCouplingBlock(
      (s1): Sequential(
        (0): Linear(in_features=106, out_features=512, bias=True)
        (1): ReLU()
        (2): Linear(in_features=512, out_features=512, bias=True)
        (3): ReLU()
        (4): Linear(in_features=512, out_features=214, bias=True)
      )
      (s2): Sequential(
        (0): Linear(in_features=107, out_features=512, bias=True)
        (1): ReLU()
        (2): Linear(in_features=512, out_features=512, bias=True)
        (3): ReLU()
        (4): Linear(in_features=512, out_features=212, bias=True)
      )
    )
    (8): PermuteRandom()
    (9): GLOWCouplingBlock(
      (s1): Sequential(
        (0): Linear(in_features=106, out_features=512, bias=True)
        (1): ReLU()
        (2): Linear(in_features=512, out_features=512, bias=True)
        (3): ReLU()
        (4): Linear(in_features=512, out_features=214, bias=True)
      )
      (s2): Sequential(
        (0): Linear(in_features=107, out_features=512, bias=True)
        (1): ReLU()
        (2): Linear(in_features=512, out_features=512, bias=True)
        (3): ReLU()
        (4): Linear(in_features=512, out_features=212, bias=True)
      )
    )
    (10): PermuteRandom()
    (11): GLOWCouplingBlock(
      (s1): Sequential(
        (0): Linear(in_features=106, out_features=512, bias=True)
        (1): ReLU()
        (2): Linear(in_features=512, out_features=512, bias=True)
        (3): ReLU()
        (4): Linear(in_features=512, out_features=214, bias=True)
      )
      (s2): Sequential(
        (0): Linear(in_features=107, out_features=512, bias=True)
        (1): ReLU()
        (2): Linear(in_features=512, out_features=512, bias=True)
        (3): ReLU()
        (4): Linear(in_features=512, out_features=212, bias=True)
      )
    )
    (12): PermuteRandom()
    (13): GLOWCouplingBlock(
      (s1): Sequential(
        (0): Linear(in_features=106, out_features=512, bias=True)
        (1): ReLU()
        (2): Linear(in_features=512, out_features=512, bias=True)
        (3): ReLU()
        (4): Linear(in_features=512, out_features=214, bias=True)
      )
      (s2): Sequential(
        (0): Linear(in_features=107, out_features=512, bias=True)
        (1): ReLU()
        (2): Linear(in_features=512, out_features=512, bias=True)
        (3): ReLU()
        (4): Linear(in_features=512, out_features=212, bias=True)
      )
    )
    (14): PermuteRandom()
    (15): GLOWCouplingBlock(
      (s1): Sequential(
        (0): Linear(in_features=106, out_features=512, bias=True)
        (1): ReLU()
        (2): Linear(in_features=512, out_features=512, bias=True)
        (3): ReLU()
        (4): Linear(in_features=512, out_features=214, bias=True)
      )
      (s2): Sequential(
        (0): Linear(in_features=107, out_features=512, bias=True)
        (1): ReLU()
        (2): Linear(in_features=512, out_features=512, bias=True)
        (3): ReLU()
        (4): Linear(in_features=512, out_features=212, bias=True)
      )
    )
    (16): PermuteRandom()
    (17): GLOWCouplingBlock(
      (s1): Sequential(
        (0): Linear(in_features=106, out_features=512, bias=True)
        (1): ReLU()
        (2): Linear(in_features=512, out_features=512, bias=True)
        (3): ReLU()
        (4): Linear(in_features=512, out_features=214, bias=True)
      )
      (s2): Sequential(
        (0): Linear(in_features=107, out_features=512, bias=True)
        (1): ReLU()
        (2): Linear(in_features=512, out_features=512, bias=True)
        (3): ReLU()
        (4): Linear(in_features=512, out_features=212, bias=True)
      )
    )
    (18): PermuteRandom()
    (19): dummy()
  )
)
/home/sr365/MM_Bench/INN_FrEIA/models/Peurifoy/Peurifoycouple_layer_num9labmda_mse100_lr_0.001_dim_pad_10_dim_z_2
number of trainable parameters is :
7685370
Start eval now:
in compare truth pred function in eval_help package, your shape of pred file is (100, 201)
(Avg MSE=3.8153e-01)
Evaluation finished
…
Node 'coupling_8' takes the following inputs:
	 Output #0 of node 'permute_7' with dims (212,)

Node 'permute_8' takes the following inputs:
	 Output #0 of node 'coupling_8' with dims (212,)

Node 'coupling_9' takes the following inputs:
	 Output #0 of node 'permute_8' with dims (212,)

Node 'permute_9' takes the following inputs:
	 Output #0 of node 'coupling_9' with dims (212,)

Node 'output' takes the following inputs:
	 Output #0 of node 'permute_9' with dims (212,)

ReversibleGraphNet(
  (module_list): ModuleList(
    (0): None
    (1): GLOWCouplingBlock(
      (s1): Sequential(
        (0): Linear(in_features=106, out_features=512, bias=True)
        (1): ReLU()
        (2): Linear(in_features=512, out_features=512, bias=True)
        (3): ReLU()
        (4): Linear(in_features=512, out_features=212, bias=True)
      )
      (s2): Sequential(
        (0): Linear(in_features=106, out_features=512, bias=True)
        (1): ReLU()
        (2): Linear(in_features=512, out_features=512, bias=True)
        (3): ReLU()
        (4): Linear(in_features=512, out_features=212, bias=True)
      )
    )
    (2): PermuteRandom()
    (3): GLOWCouplingBlock(
      (s1): Sequential(
        (0): Linear(in_features=106, out_features=512, bias=True)
        (1): ReLU()
        (2): Linear(in_features=512, out_features=512, bias=True)
        (3): ReLU()
        (4): Linear(in_features=512, out_features=212, bias=True)
      )
      (s2): Sequential(
        (0): Linear(in_features=106, out_features=512, bias=True)
        (1): ReLU()
        (2): Linear(in_features=512, out_features=512, bias=True)
        (3): ReLU()
        (4): Linear(in_features=512, out_features=212, bias=True)
      )
    )
    (4): PermuteRandom()
    (5): GLOWCouplingBlock(
      (s1): Sequential(
        (0): Linear(in_features=106, out_features=512, bias=True)
        (1): ReLU()
        (2): Linear(in_features=512, out_features=512, bias=True)
        (3): ReLU()
        (4): Linear(in_features=512, out_features=212, bias=True)
      )
      (s2): Sequential(
        (0): Linear(in_features=106, out_features=512, bias=True)
        (1): ReLU()
        (2): Linear(in_features=512, out_features=512, bias=True)
        (3): ReLU()
        (4): Linear(in_features=512, out_features=212, bias=True)
      )
    )
    (6): PermuteRandom()
    (7): GLOWCouplingBlock(
      (s1): Sequential(
        (0): Linear(in_features=106, out_features=512, bias=True)
        (1): ReLU()
        (2): Linear(in_features=512, out_features=512, bias=True)
        (3): ReLU()
        (4): Linear(in_features=512, out_features=212, bias=True)
      )
      (s2): Sequential(
        (0): Linear(in_features=106, out_features=512, bias=True)
        (1): ReLU()
        (2): Linear(in_features=512, out_features=512, bias=True)
        (3): ReLU()
        (4): Linear(in_features=512, out_features=212, bias=True)
      )
    )
    (8): PermuteRandom()
    (9): GLOWCouplingBlock(
      (s1): Sequential(
        (0): Linear(in_features=106, out_features=512, bias=True)
        (1): ReLU()
        (2): Linear(in_features=512, out_features=512, bias=True)
        (3): ReLU()
        (4): Linear(in_features=512, out_features=212, bias=True)
      )
      (s2): Sequential(
        (0): Linear(in_features=106, out_features=512, bias=True)
        (1): ReLU()
        (2): Linear(in_features=512, out_features=512, bias=True)
        (3): ReLU()
        (4): Linear(in_features=512, out_features=212, bias=True)
      )
    )
    (10): PermuteRandom()
    (11): GLOWCouplingBlock(
      (s1): Sequential(
        (0): Linear(in_features=106, out_features=512, bias=True)
        (1): ReLU()
        (2): Linear(in_features=512, out_features=512, bias=True)
        (3): ReLU()
        (4): Linear(in_features=512, out_features=212, bias=True)
      )
      (s2): Sequential(
        (0): Linear(in_features=106, out_features=512, bias=True)
        (1): ReLU()
        (2): Linear(in_features=512, out_features=512, bias=True)
        (3): ReLU()
        (4): Linear(in_features=512, out_features=212, bias=True)
      )
    )
    (12): PermuteRandom()
    (13): GLOWCouplingBlock(
      (s1): Sequential(
        (0): Linear(in_features=106, out_features=512, bias=True)
        (1): ReLU()
        (2): Linear(in_features=512, out_features=512, bias=True)
        (3): ReLU()
        (4): Linear(in_features=512, out_features=212, bias=True)
      )
      (s2): Sequential(
        (0): Linear(in_features=106, out_features=512, bias=True)
        (1): ReLU()
        (2): Linear(in_features=512, out_features=512, bias=True)
        (3): ReLU()
        (4): Linear(in_features=512, out_features=212, bias=True)
      )
    )
    (14): PermuteRandom()
    (15): GLOWCouplingBlock(
      (s1): Sequential(
        (0): Linear(in_features=106, out_features=512, bias=True)
        (1): ReLU()
        (2): Linear(in_features=512, out_features=512, bias=True)
        (3): ReLU()
        (4): Linear(in_features=512, out_features=212, bias=True)
      )
      (s2): Sequential(
        (0): Linear(in_features=106, out_features=512, bias=True)
        (1): ReLU()
        (2): Linear(in_features=512, out_features=512, bias=True)
        (3): ReLU()
        (4): Linear(in_features=512, out_features=212, bias=True)
      )
    )
    (16): PermuteRandom()
    (17): GLOWCouplingBlock(
      (s1): Sequential(
        (0): Linear(in_features=106, out_features=512, bias=True)
        (1): ReLU()
        (2): Linear(in_features=512, out_features=512, bias=True)
        (3): ReLU()
        (4): Linear(in_features=512, out_features=212, bias=True)
      )
      (s2): Sequential(
        (0): Linear(in_features=106, out_features=512, bias=True)
        (1): ReLU()
        (2): Linear(in_features=512, out_features=512, bias=True)
        (3): ReLU()
        (4): Linear(in_features=512, out_features=212, bias=True)
      )
    )
    (18): PermuteRandom()
    (19): GLOWCouplingBlock(
      (s1): Sequential(
        (0): Linear(in_features=106, out_features=512, bias=True)
        (1): ReLU()
        (2): Linear(in_features=512, out_features=512, bias=True)
        (3): ReLU()
        (4): Linear(in_features=512, out_features=212, bias=True)
      )
      (s2): Sequential(
        (0): Linear(in_features=106, out_features=512, bias=True)
        (1): ReLU()
        (2): Linear(in_features=512, out_features=512, bias=True)
        (3): ReLU()
        (4): Linear(in_features=512, out_features=212, bias=True)
      )
    )
    (20): PermuteRandom()
    (21): dummy()
  )
)
/home/sr365/MM_Bench/INN_FrEIA/models/Peurifoy/Peurifoycouple_layer_num10labmda_mse1_lr_0.001_dim_pad_10_dim_z_1
number of trainable parameters is :
8523920
Start eval now:
in compare truth pred function in eval_help package, your shape of pred file is (100, 201)
(Avg MSE=2.2620e-01)
Evaluation finished
…
