…
Node 'coupling_7' takes the following inputs:
	 Output #0 of node 'permute_6' with dims (207,)

Node 'permute_7' takes the following inputs:
	 Output #0 of node 'coupling_7' with dims (207,)

Node 'coupling_8' takes the following inputs:
	 Output #0 of node 'permute_7' with dims (207,)

Node 'permute_8' takes the following inputs:
	 Output #0 of node 'coupling_8' with dims (207,)

Node 'output' takes the following inputs:
	 Output #0 of node 'permute_8' with dims (207,)

ReversibleGraphNet(
  (module_list): ModuleList(
    (0): None
    (1): GLOWCouplingBlock(
      (s1): Sequential(
        (0): Linear(in_features=103, out_features=512, bias=True)
        (1): ReLU()
        (2): Linear(in_features=512, out_features=512, bias=True)
        (3): ReLU()
        (4): Linear(in_features=512, out_features=208, bias=True)
      )
      (s2): Sequential(
        (0): Linear(in_features=104, out_features=512, bias=True)
        (1): ReLU()
        (2): Linear(in_features=512, out_features=512, bias=True)
        (3): ReLU()
        (4): Linear(in_features=512, out_features=206, bias=True)
      )
    )
    (2): PermuteRandom()
    (3): GLOWCouplingBlock(
      (s1): Sequential(
        (0): Linear(in_features=103, out_features=512, bias=True)
        (1): ReLU()
        (2): Linear(in_features=512, out_features=512, bias=True)
        (3): ReLU()
        (4): Linear(in_features=512, out_features=208, bias=True)
      )
      (s2): Sequential(
        (0): Linear(in_features=104, out_features=512, bias=True)
        (1): ReLU()
        (2): Linear(in_features=512, out_features=512, bias=True)
        (3): ReLU()
        (4): Linear(in_features=512, out_features=206, bias=True)
      )
    )
    (4): PermuteRandom()
    (5): GLOWCouplingBlock(
      (s1): Sequential(
        (0): Linear(in_features=103, out_features=512, bias=True)
        (1): ReLU()
        (2): Linear(in_features=512, out_features=512, bias=True)
        (3): ReLU()
        (4): Linear(in_features=512, out_features=208, bias=True)
      )
      (s2): Sequential(
        (0): Linear(in_features=104, out_features=512, bias=True)
        (1): ReLU()
        (2): Linear(in_features=512, out_features=512, bias=True)
        (3): ReLU()
        (4): Linear(in_features=512, out_features=206, bias=True)
      )
    )
    (6): PermuteRandom()
    (7): GLOWCouplingBlock(
      (s1): Sequential(
        (0): Linear(in_features=103, out_features=512, bias=True)
        (1): ReLU()
        (2): Linear(in_features=512, out_features=512, bias=True)
        (3): ReLU()
        (4): Linear(in_features=512, out_features=208, bias=True)
      )
      (s2): Sequential(
        (0): Linear(in_features=104, out_features=512, bias=True)
        (1): ReLU()
        (2): Linear(in_features=512, out_features=512, bias=True)
        (3): ReLU()
        (4): Linear(in_features=512, out_features=206, bias=True)
      )
    )
    (8): PermuteRandom()
    (9): GLOWCouplingBlock(
      (s1): Sequential(
        (0): Linear(in_features=103, out_features=512, bias=True)
        (1): ReLU()
        (2): Linear(in_features=512, out_features=512, bias=True)
        (3): ReLU()
        (4): Linear(in_features=512, out_features=208, bias=True)
      )
      (s2): Sequential(
        (0): Linear(in_features=104, out_features=512, bias=True)
        (1): ReLU()
        (2): Linear(in_features=512, out_features=512, bias=True)
        (3): ReLU()
        (4): Linear(in_features=512, out_features=206, bias=True)
      )
    )
    (10): PermuteRandom()
    (11): GLOWCouplingBlock(
      (s1): Sequential(
        (0): Linear(in_features=103, out_features=512, bias=True)
        (1): ReLU()
        (2): Linear(in_features=512, out_features=512, bias=True)
        (3): ReLU()
        (4): Linear(in_features=512, out_features=208, bias=True)
      )
      (s2): Sequential(
        (0): Linear(in_features=104, out_features=512, bias=True)
        (1): ReLU()
        (2): Linear(in_features=512, out_features=512, bias=True)
        (3): ReLU()
        (4): Linear(in_features=512, out_features=206, bias=True)
      )
    )
    (12): PermuteRandom()
    (13): GLOWCouplingBlock(
      (s1): Sequential(
        (0): Linear(in_features=103, out_features=512, bias=True)
        (1): ReLU()
        (2): Linear(in_features=512, out_features=512, bias=True)
        (3): ReLU()
        (4): Linear(in_features=512, out_features=208, bias=True)
      )
      (s2): Sequential(
        (0): Linear(in_features=104, out_features=512, bias=True)
        (1): ReLU()
        (2): Linear(in_features=512, out_features=512, bias=True)
        (3): ReLU()
        (4): Linear(in_features=512, out_features=206, bias=True)
      )
    )
    (14): PermuteRandom()
    (15): GLOWCouplingBlock(
      (s1): Sequential(
        (0): Linear(in_features=103, out_features=512, bias=True)
        (1): ReLU()
        (2): Linear(in_features=512, out_features=512, bias=True)
        (3): ReLU()
        (4): Linear(in_features=512, out_features=208, bias=True)
      )
      (s2): Sequential(
        (0): Linear(in_features=104, out_features=512, bias=True)
        (1): ReLU()
        (2): Linear(in_features=512, out_features=512, bias=True)
        (3): ReLU()
        (4): Linear(in_features=512, out_features=206, bias=True)
      )
    )
    (16): PermuteRandom()
    (17): GLOWCouplingBlock(
      (s1): Sequential(
        (0): Linear(in_features=103, out_features=512, bias=True)
        (1): ReLU()
        (2): Linear(in_features=512, out_features=512, bias=True)
        (3): ReLU()
        (4): Linear(in_features=512, out_features=208, bias=True)
      )
      (s2): Sequential(
        (0): Linear(in_features=104, out_features=512, bias=True)
        (1): ReLU()
        (2): Linear(in_features=512, out_features=512, bias=True)
        (3): ReLU()
        (4): Linear(in_features=512, out_features=206, bias=True)
      )
    )
    (18): PermuteRandom()
    (19): dummy()
  )
)
/home/sr365/MM_Bench/INN_FrEIA/models/Peurifoy_layer_9/Peurifoycouple_layer_num9labmda_mse0.005_lr_0.001_dim_pad_5_dim_z_1
number of trainable parameters is :
7602318
Start eval now:
in compare truth pred function in eval_help package, your shape of pred file is (100, 201)
(Avg MSE=1.4741e-03)
…
Node 'coupling_7' takes the following inputs:
	 Output #0 of node 'permute_6' with dims (232,)

Node 'permute_7' takes the following inputs:
	 Output #0 of node 'coupling_7' with dims (232,)

Node 'coupling_8' takes the following inputs:
	 Output #0 of node 'permute_7' with dims (232,)

Node 'permute_8' takes the following inputs:
	 Output #0 of node 'coupling_8' with dims (232,)

Node 'output' takes the following inputs:
	 Output #0 of node 'permute_8' with dims (232,)

ReversibleGraphNet(
  (module_list): ModuleList(
    (0): None
    (1): GLOWCouplingBlock(
      (s1): Sequential(
        (0): Linear(in_features=116, out_features=512, bias=True)
        (1): ReLU()
        (2): Linear(in_features=512, out_features=512, bias=True)
        (3): ReLU()
        (4): Linear(in_features=512, out_features=232, bias=True)
      )
      (s2): Sequential(
        (0): Linear(in_features=116, out_features=512, bias=True)
        (1): ReLU()
        (2): Linear(in_features=512, out_features=512, bias=True)
        (3): ReLU()
        (4): Linear(in_features=512, out_features=232, bias=True)
      )
    )
    (2): PermuteRandom()
    (3): GLOWCouplingBlock(
      (s1): Sequential(
        (0): Linear(in_features=116, out_features=512, bias=True)
        (1): ReLU()
        (2): Linear(in_features=512, out_features=512, bias=True)
        (3): ReLU()
        (4): Linear(in_features=512, out_features=232, bias=True)
      )
      (s2): Sequential(
        (0): Linear(in_features=116, out_features=512, bias=True)
        (1): ReLU()
        (2): Linear(in_features=512, out_features=512, bias=True)
        (3): ReLU()
        (4): Linear(in_features=512, out_features=232, bias=True)
      )
    )
    (4): PermuteRandom()
    (5): GLOWCouplingBlock(
      (s1): Sequential(
        (0): Linear(in_features=116, out_features=512, bias=True)
        (1): ReLU()
        (2): Linear(in_features=512, out_features=512, bias=True)
        (3): ReLU()
        (4): Linear(in_features=512, out_features=232, bias=True)
      )
      (s2): Sequential(
        (0): Linear(in_features=116, out_features=512, bias=True)
        (1): ReLU()
        (2): Linear(in_features=512, out_features=512, bias=True)
        (3): ReLU()
        (4): Linear(in_features=512, out_features=232, bias=True)
      )
    )
    (6): PermuteRandom()
    (7): GLOWCouplingBlock(
      (s1): Sequential(
        (0): Linear(in_features=116, out_features=512, bias=True)
        (1): ReLU()
        (2): Linear(in_features=512, out_features=512, bias=True)
        (3): ReLU()
        (4): Linear(in_features=512, out_features=232, bias=True)
      )
      (s2): Sequential(
        (0): Linear(in_features=116, out_features=512, bias=True)
        (1): ReLU()
        (2): Linear(in_features=512, out_features=512, bias=True)
        (3): ReLU()
        (4): Linear(in_features=512, out_features=232, bias=True)
      )
    )
    (8): PermuteRandom()
    (9): GLOWCouplingBlock(
      (s1): Sequential(
        (0): Linear(in_features=116, out_features=512, bias=True)
        (1): ReLU()
        (2): Linear(in_features=512, out_features=512, bias=True)
        (3): ReLU()
        (4): Linear(in_features=512, out_features=232, bias=True)
      )
      (s2): Sequential(
        (0): Linear(in_features=116, out_features=512, bias=True)
        (1): ReLU()
        (2): Linear(in_features=512, out_features=512, bias=True)
        (3): ReLU()
        (4): Linear(in_features=512, out_features=232, bias=True)
      )
    )
    (10): PermuteRandom()
    (11): GLOWCouplingBlock(
      (s1): Sequential(
        (0): Linear(in_features=116, out_features=512, bias=True)
        (1): ReLU()
        (2): Linear(in_features=512, out_features=512, bias=True)
        (3): ReLU()
        (4): Linear(in_features=512, out_features=232, bias=True)
      )
      (s2): Sequential(
        (0): Linear(in_features=116, out_features=512, bias=True)
        (1): ReLU()
        (2): Linear(in_features=512, out_features=512, bias=True)
        (3): ReLU()
        (4): Linear(in_features=512, out_features=232, bias=True)
      )
    )
    (12): PermuteRandom()
    (13): GLOWCouplingBlock(
      (s1): Sequential(
        (0): Linear(in_features=116, out_features=512, bias=True)
        (1): ReLU()
        (2): Linear(in_features=512, out_features=512, bias=True)
        (3): ReLU()
        (4): Linear(in_features=512, out_features=232, bias=True)
      )
      (s2): Sequential(
        (0): Linear(in_features=116, out_features=512, bias=True)
        (1): ReLU()
        (2): Linear(in_features=512, out_features=512, bias=True)
        (3): ReLU()
        (4): Linear(in_features=512, out_features=232, bias=True)
      )
    )
    (14): PermuteRandom()
    (15): GLOWCouplingBlock(
      (s1): Sequential(
        (0): Linear(in_features=116, out_features=512, bias=True)
        (1): ReLU()
        (2): Linear(in_features=512, out_features=512, bias=True)
        (3): ReLU()
        (4): Linear(in_features=512, out_features=232, bias=True)
      )
      (s2): Sequential(
        (0): Linear(in_features=116, out_features=512, bias=True)
        (1): ReLU()
        (2): Linear(in_features=512, out_features=512, bias=True)
        (3): ReLU()
        (4): Linear(in_features=512, out_features=232, bias=True)
      )
    )
    (16): PermuteRandom()
    (17): GLOWCouplingBlock(
      (s1): Sequential(
        (0): Linear(in_features=116, out_features=512, bias=True)
        (1): ReLU()
        (2): Linear(in_features=512, out_features=512, bias=True)
        (3): ReLU()
        (4): Linear(in_features=512, out_features=232, bias=True)
      )
      (s2): Sequential(
        (0): Linear(in_features=116, out_features=512, bias=True)
        (1): ReLU()
        (2): Linear(in_features=512, out_features=512, bias=True)
        (3): ReLU()
        (4): Linear(in_features=512, out_features=232, bias=True)
      )
    )
    (18): PermuteRandom()
    (19): dummy()
  )
)
/home/sr365/MM_Bench/INN_FrEIA/models/Peurifoy_layer_9/Peurifoycouple_layer_num9labmda_mse0.001_lr_0.001_dim_pad_30_dim_z_1
number of trainable parameters is :
7948368
Start eval now:
in compare truth pred function in eval_help package, your shape of pred file is (100, 201)
(Avg MSE=1.8268e-04)
…
Node 'coupling_7' takes the following inputs:
	 Output #0 of node 'permute_6' with dims (217,)

Node 'permute_7' takes the following inputs:
	 Output #0 of node 'coupling_7' with dims (217,)

Node 'coupling_8' takes the following inputs:
	 Output #0 of node 'permute_7' with dims (217,)

Node 'permute_8' takes the following inputs:
	 Output #0 of node 'coupling_8' with dims (217,)

Node 'output' takes the following inputs:
	 Output #0 of node 'permute_8' with dims (217,)

ReversibleGraphNet(
  (module_list): ModuleList(
    (0): None
    (1): GLOWCouplingBlock(
      (s1): Sequential(
        (0): Linear(in_features=108, out_features=512, bias=True)
        (1): ReLU()
        (2): Linear(in_features=512, out_features=512, bias=True)
        (3): ReLU()
        (4): Linear(in_features=512, out_features=218, bias=True)
      )
      (s2): Sequential(
        (0): Linear(in_features=109, out_features=512, bias=True)
        (1): ReLU()
        (2): Linear(in_features=512, out_features=512, bias=True)
        (3): ReLU()
        (4): Linear(in_features=512, out_features=216, bias=True)
      )
    )
    (2): PermuteRandom()
    (3): GLOWCouplingBlock(
      (s1): Sequential(
        (0): Linear(in_features=108, out_features=512, bias=True)
        (1): ReLU()
        (2): Linear(in_features=512, out_features=512, bias=True)
        (3): ReLU()
        (4): Linear(in_features=512, out_features=218, bias=True)
      )
      (s2): Sequential(
        (0): Linear(in_features=109, out_features=512, bias=True)
        (1): ReLU()
        (2): Linear(in_features=512, out_features=512, bias=True)
        (3): ReLU()
        (4): Linear(in_features=512, out_features=216, bias=True)
      )
    )
    (4): PermuteRandom()
    (5): GLOWCouplingBlock(
      (s1): Sequential(
        (0): Linear(in_features=108, out_features=512, bias=True)
        (1): ReLU()
        (2): Linear(in_features=512, out_features=512, bias=True)
        (3): ReLU()
        (4): Linear(in_features=512, out_features=218, bias=True)
      )
      (s2): Sequential(
        (0): Linear(in_features=109, out_features=512, bias=True)
        (1): ReLU()
        (2): Linear(in_features=512, out_features=512, bias=True)
        (3): ReLU()
        (4): Linear(in_features=512, out_features=216, bias=True)
      )
    )
    (6): PermuteRandom()
    (7): GLOWCouplingBlock(
      (s1): Sequential(
        (0): Linear(in_features=108, out_features=512, bias=True)
        (1): ReLU()
        (2): Linear(in_features=512, out_features=512, bias=True)
        (3): ReLU()
        (4): Linear(in_features=512, out_features=218, bias=True)
      )
      (s2): Sequential(
        (0): Linear(in_features=109, out_features=512, bias=True)
        (1): ReLU()
        (2): Linear(in_features=512, out_features=512, bias=True)
        (3): ReLU()
        (4): Linear(in_features=512, out_features=216, bias=True)
      )
    )
    (8): PermuteRandom()
    (9): GLOWCouplingBlock(
      (s1): Sequential(
        (0): Linear(in_features=108, out_features=512, bias=True)
        (1): ReLU()
        (2): Linear(in_features=512, out_features=512, bias=True)
        (3): ReLU()
        (4): Linear(in_features=512, out_features=218, bias=True)
      )
      (s2): Sequential(
        (0): Linear(in_features=109, out_features=512, bias=True)
        (1): ReLU()
        (2): Linear(in_features=512, out_features=512, bias=True)
        (3): ReLU()
        (4): Linear(in_features=512, out_features=216, bias=True)
      )
    )
    (10): PermuteRandom()
    (11): GLOWCouplingBlock(
      (s1): Sequential(
        (0): Linear(in_features=108, out_features=512, bias=True)
        (1): ReLU()
        (2): Linear(in_features=512, out_features=512, bias=True)
        (3): ReLU()
        (4): Linear(in_features=512, out_features=218, bias=True)
      )
      (s2): Sequential(
        (0): Linear(in_features=109, out_features=512, bias=True)
        (1): ReLU()
        (2): Linear(in_features=512, out_features=512, bias=True)
        (3): ReLU()
        (4): Linear(in_features=512, out_features=216, bias=True)
      )
    )
    (12): PermuteRandom()
    (13): GLOWCouplingBlock(
      (s1): Sequential(
        (0): Linear(in_features=108, out_features=512, bias=True)
        (1): ReLU()
        (2): Linear(in_features=512, out_features=512, bias=True)
        (3): ReLU()
        (4): Linear(in_features=512, out_features=218, bias=True)
      )
      (s2): Sequential(
        (0): Linear(in_features=109, out_features=512, bias=True)
        (1): ReLU()
        (2): Linear(in_features=512, out_features=512, bias=True)
        (3): ReLU()
        (4): Linear(in_features=512, out_features=216, bias=True)
      )
    )
    (14): PermuteRandom()
    (15): GLOWCouplingBlock(
      (s1): Sequential(
        (0): Linear(in_features=108, out_features=512, bias=True)
        (1): ReLU()
        (2): Linear(in_features=512, out_features=512, bias=True)
        (3): ReLU()
        (4): Linear(in_features=512, out_features=218, bias=True)
      )
      (s2): Sequential(
        (0): Linear(in_features=109, out_features=512, bias=True)
        (1): ReLU()
        (2): Linear(in_features=512, out_features=512, bias=True)
        (3): ReLU()
        (4): Linear(in_features=512, out_features=216, bias=True)
      )
    )
    (16): PermuteRandom()
    (17): GLOWCouplingBlock(
      (s1): Sequential(
        (0): Linear(in_features=108, out_features=512, bias=True)
        (1): ReLU()
        (2): Linear(in_features=512, out_features=512, bias=True)
        (3): ReLU()
        (4): Linear(in_features=512, out_features=218, bias=True)
      )
      (s2): Sequential(
        (0): Linear(in_features=109, out_features=512, bias=True)
        (1): ReLU()
        (2): Linear(in_features=512, out_features=512, bias=True)
        (3): ReLU()
        (4): Linear(in_features=512, out_features=216, bias=True)
      )
    )
    (18): PermuteRandom()
    (19): dummy()
  )
)
/home/sr365/MM_Bench/INN_FrEIA/models/Peurifoy_layer_9/Peurifoycouple_layer_num9labmda_mse0.001_lr_0.001_dim_pad_15_dim_z_1
number of trainable parameters is :
7740738
Start eval now:
in compare truth pred function in eval_help package, your shape of pred file is (100, 201)
(Avg MSE=1.6484e-04)
…
