…
eta_material
Retrieving flag object for parameters
after removing prefix models/, now model_dir is: Chen/Chen_gaussian_10_layer_num_8_unit_1000_lr_0.0001_reg_scale_0.0001
In read_data, flags.data_set = Chen
flgas.data_dir =  /home/sr365/MM_Bench/Data/
data_dir =  /home/sr365/MM_Bench/Data/Chen
total number of training sample is 49900, the dimension of the feature is 5
total number of test sample is 100
Making network now
This is inference mode, the ckpt is /home/sr365/MM_Bench/MDN/models/Chen/Chen_gaussian_10_layer_num_8_unit_1000_lr_0.0001_reg_scale_0.0001
MDN(
  (linears): ModuleList(
    (0): Linear(in_features=256, out_features=1000, bias=True)
    (1): Linear(in_features=1000, out_features=1000, bias=True)
    (2): Linear(in_features=1000, out_features=1000, bias=True)
    (3): Linear(in_features=1000, out_features=1000, bias=True)
    (4): Linear(in_features=1000, out_features=1000, bias=True)
    (5): Linear(in_features=1000, out_features=1000, bias=True)
  )
  (bn_linears): ModuleList(
    (0): BatchNorm1d(1000, eps=1e-05, momentum=0.1, affine=True, track_running_stats=True)
    (1): BatchNorm1d(1000, eps=1e-05, momentum=0.1, affine=True, track_running_stats=True)
    (2): BatchNorm1d(1000, eps=1e-05, momentum=0.1, affine=True, track_running_stats=True)
    (3): BatchNorm1d(1000, eps=1e-05, momentum=0.1, affine=True, track_running_stats=True)
    (4): BatchNorm1d(1000, eps=1e-05, momentum=0.1, affine=True, track_running_stats=True)
    (5): BatchNorm1d(1000, eps=1e-05, momentum=0.1, affine=True, track_running_stats=True)
  )
  (mdn): MDN(
    (pi): Sequential(
      (0): Linear(in_features=1000, out_features=10, bias=True)
      (1): Softmax(dim=1)
    )
    (sigma): Linear(in_features=1000, out_features=250, bias=True)
    (mu): Linear(in_features=1000, out_features=50, bias=True)
  )
)
Chen/Chen_gaussian_10_layer_num_8_unit_1000_lr_0.0001_reg_scale_0.0001
number of trainable parameters is :
5584310
Start eval now:
model in eval: MDN(
  (linears): ModuleList(
    (0): Linear(in_features=256, out_features=1000, bias=True)
    (1): Linear(in_features=1000, out_features=1000, bias=True)
    (2): Linear(in_features=1000, out_features=1000, bias=True)
    (3): Linear(in_features=1000, out_features=1000, bias=True)
    (4): Linear(in_features=1000, out_features=1000, bias=True)
    (5): Linear(in_features=1000, out_features=1000, bias=True)
  )
  (bn_linears): ModuleList(
    (0): BatchNorm1d(1000, eps=1e-05, momentum=0.1, affine=True, track_running_stats=True)
    (1): BatchNorm1d(1000, eps=1e-05, momentum=0.1, affine=True, track_running_stats=True)
    (2): BatchNorm1d(1000, eps=1e-05, momentum=0.1, affine=True, track_running_stats=True)
    (3): BatchNorm1d(1000, eps=1e-05, momentum=0.1, affine=True, track_running_stats=True)
    (4): BatchNorm1d(1000, eps=1e-05, momentum=0.1, affine=True, track_running_stats=True)
    (5): BatchNorm1d(1000, eps=1e-05, momentum=0.1, affine=True, track_running_stats=True)
  )
  (mdn): MDN(
    (pi): Sequential(
      (0): Linear(in_features=1000, out_features=10, bias=True)
      (1): Softmax(dim=1)
    )
    (sigma): Linear(in_features=1000, out_features=250, bias=True)
    (mu): Linear(in_features=1000, out_features=50, bias=True)
  )
)
size of sigma =  torch.Size([100, 10, 5, 5])
size of mu =  torch.Size([100, 10, 5])
Si3N4@@@/home/sr365/MM_Bench/Data/Chen/Si3N4_310nm-14280nm.txt shape=(1552, 3)
   lenda    re   im
0    310  2.18  0.0
1    360  2.12  0.0
2    410  2.09  0.0
3    470  2.07  0.0
4    520  2.06  0.0
Graphene@@@/home/sr365/MM_Bench/Data/Chen/Graphene_240nm-30000nm.txt shape=(28001, 3)
…
Evaluation finished
Retrieving flag object for parameters
after removing prefix models/, now model_dir is: Chen/Chen_gaussian_5_layer_num_8_unit_1000_lr_0.0001_reg_scale_0.0001
In read_data, flags.data_set = Chen
flgas.data_dir =  /home/sr365/MM_Bench/Data/
data_dir =  /home/sr365/MM_Bench/Data/Chen
total number of training sample is 49900, the dimension of the feature is 5
total number of test sample is 100
Making network now
This is inference mode, the ckpt is /home/sr365/MM_Bench/MDN/models/Chen/Chen_gaussian_5_layer_num_8_unit_1000_lr_0.0001_reg_scale_0.0001
MDN(
  (linears): ModuleList(
    (0): Linear(in_features=256, out_features=1000, bias=True)
    (1): Linear(in_features=1000, out_features=1000, bias=True)
    (2): Linear(in_features=1000, out_features=1000, bias=True)
    (3): Linear(in_features=1000, out_features=1000, bias=True)
    (4): Linear(in_features=1000, out_features=1000, bias=True)
    (5): Linear(in_features=1000, out_features=1000, bias=True)
  )
  (bn_linears): ModuleList(
    (0): BatchNorm1d(1000, eps=1e-05, momentum=0.1, affine=True, track_running_stats=True)
    (1): BatchNorm1d(1000, eps=1e-05, momentum=0.1, affine=True, track_running_stats=True)
    (2): BatchNorm1d(1000, eps=1e-05, momentum=0.1, affine=True, track_running_stats=True)
    (3): BatchNorm1d(1000, eps=1e-05, momentum=0.1, affine=True, track_running_stats=True)
    (4): BatchNorm1d(1000, eps=1e-05, momentum=0.1, affine=True, track_running_stats=True)
    (5): BatchNorm1d(1000, eps=1e-05, momentum=0.1, affine=True, track_running_stats=True)
  )
  (mdn): MDN(
    (pi): Sequential(
      (0): Linear(in_features=1000, out_features=5, bias=True)
      (1): Softmax(dim=1)
    )
    (sigma): Linear(in_features=1000, out_features=125, bias=True)
    (mu): Linear(in_features=1000, out_features=25, bias=True)
  )
)
Chen/Chen_gaussian_5_layer_num_8_unit_1000_lr_0.0001_reg_scale_0.0001
number of trainable parameters is :
5429155
Start eval now:
model in eval: MDN(
  (linears): ModuleList(
    (0): Linear(in_features=256, out_features=1000, bias=True)
    (1): Linear(in_features=1000, out_features=1000, bias=True)
    (2): Linear(in_features=1000, out_features=1000, bias=True)
    (3): Linear(in_features=1000, out_features=1000, bias=True)
    (4): Linear(in_features=1000, out_features=1000, bias=True)
    (5): Linear(in_features=1000, out_features=1000, bias=True)
  )
  (bn_linears): ModuleList(
    (0): BatchNorm1d(1000, eps=1e-05, momentum=0.1, affine=True, track_running_stats=True)
    (1): BatchNorm1d(1000, eps=1e-05, momentum=0.1, affine=True, track_running_stats=True)
    (2): BatchNorm1d(1000, eps=1e-05, momentum=0.1, affine=True, track_running_stats=True)
    (3): BatchNorm1d(1000, eps=1e-05, momentum=0.1, affine=True, track_running_stats=True)
    (4): BatchNorm1d(1000, eps=1e-05, momentum=0.1, affine=True, track_running_stats=True)
    (5): BatchNorm1d(1000, eps=1e-05, momentum=0.1, affine=True, track_running_stats=True)
  )
  (mdn): MDN(
    (pi): Sequential(
      (0): Linear(in_features=1000, out_features=5, bias=True)
      (1): Softmax(dim=1)
    )
    (sigma): Linear(in_features=1000, out_features=125, bias=True)
    (mu): Linear(in_features=1000, out_features=25, bias=True)
  )
)
size of sigma =  torch.Size([100, 5, 5, 5])
size of mu =  torch.Size([100, 5, 5])
Si3N4@@@/home/sr365/MM_Bench/Data/Chen/Si3N4_310nm-14280nm.txt shape=(1552, 3)
   lenda    re   im
0    310  2.18  0.0
1    360  2.12  0.0
2    410  2.09  0.0
3    470  2.07  0.0
4    520  2.06  0.0
Graphene@@@/home/sr365/MM_Bench/Data/Chen/Graphene_240nm-30000nm.txt shape=(28001, 3)
…
(Avg MSE=3.0865e-06)
Evaluation finished
Retrieving flag object for parameters
after removing prefix models/, now model_dir is: Chen/Chen_gaussian_10_layer_num_5_unit_1000_lr_0.0001_reg_scale_0
In read_data, flags.data_set = Chen
flgas.data_dir =  /home/sr365/MM_Bench/Data/
data_dir =  /home/sr365/MM_Bench/Data/Chen
total number of training sample is 49900, the dimension of the feature is 5
total number of test sample is 100
Making network now
This is inference mode, the ckpt is /home/sr365/MM_Bench/MDN/models/Chen/Chen_gaussian_10_layer_num_5_unit_1000_lr_0.0001_reg_scale_0
MDN(
  (linears): ModuleList(
    (0): Linear(in_features=256, out_features=1000, bias=True)
    (1): Linear(in_features=1000, out_features=1000, bias=True)
    (2): Linear(in_features=1000, out_features=1000, bias=True)
  )
  (bn_linears): ModuleList(
    (0): BatchNorm1d(1000, eps=1e-05, momentum=0.1, affine=True, track_running_stats=True)
    (1): BatchNorm1d(1000, eps=1e-05, momentum=0.1, affine=True, track_running_stats=True)
    (2): BatchNorm1d(1000, eps=1e-05, momentum=0.1, affine=True, track_running_stats=True)
  )
  (mdn): MDN(
    (pi): Sequential(
      (0): Linear(in_features=1000, out_features=10, bias=True)
      (1): Softmax(dim=1)
    )
    (sigma): Linear(in_features=1000, out_features=250, bias=True)
    (mu): Linear(in_features=1000, out_features=50, bias=True)
  )
)
Chen/Chen_gaussian_10_layer_num_5_unit_1000_lr_0.0001_reg_scale_0
number of trainable parameters is :
2575310
Start eval now:
model in eval: MDN(
  (linears): ModuleList(
    (0): Linear(in_features=256, out_features=1000, bias=True)
    (1): Linear(in_features=1000, out_features=1000, bias=True)
    (2): Linear(in_features=1000, out_features=1000, bias=True)
  )
  (bn_linears): ModuleList(
    (0): BatchNorm1d(1000, eps=1e-05, momentum=0.1, affine=True, track_running_stats=True)
    (1): BatchNorm1d(1000, eps=1e-05, momentum=0.1, affine=True, track_running_stats=True)
    (2): BatchNorm1d(1000, eps=1e-05, momentum=0.1, affine=True, track_running_stats=True)
  )
  (mdn): MDN(
    (pi): Sequential(
      (0): Linear(in_features=1000, out_features=10, bias=True)
      (1): Softmax(dim=1)
    )
    (sigma): Linear(in_features=1000, out_features=250, bias=True)
    (mu): Linear(in_features=1000, out_features=50, bias=True)
  )
)
size of sigma =  torch.Size([100, 10, 5, 5])
size of mu =  torch.Size([100, 10, 5])
Si3N4@@@/home/sr365/MM_Bench/Data/Chen/Si3N4_310nm-14280nm.txt shape=(1552, 3)
   lenda    re   im
0    310  2.18  0.0
1    360  2.12  0.0
2    410  2.09  0.0
3    470  2.07  0.0
4    520  2.06  0.0
Graphene@@@/home/sr365/MM_Bench/Data/Chen/Graphene_240nm-30000nm.txt shape=(28001, 3)
…
(Avg MSE=6.4573e-06)
Evaluation finished
Retrieving flag object for parameters
after removing prefix models/, now model_dir is: Chen/Chen_gaussian_5_layer_num_6_unit_500_lr_0.0001_reg_scale_0
In read_data, flags.data_set = Chen
flgas.data_dir =  /home/sr365/MM_Bench/Data/
data_dir =  /home/sr365/MM_Bench/Data/Chen
total number of training sample is 49900, the dimension of the feature is 5
total number of test sample is 100
Making network now
This is inference mode, the ckpt is /home/sr365/MM_Bench/MDN/models/Chen/Chen_gaussian_5_layer_num_6_unit_500_lr_0.0001_reg_scale_0
MDN(
  (linears): ModuleList(
    (0): Linear(in_features=256, out_features=500, bias=True)
    (1): Linear(in_features=500, out_features=500, bias=True)
    (2): Linear(in_features=500, out_features=500, bias=True)
    (3): Linear(in_features=500, out_features=500, bias=True)
  )
  (bn_linears): ModuleList(
    (0): BatchNorm1d(500, eps=1e-05, momentum=0.1, affine=True, track_running_stats=True)
    (1): BatchNorm1d(500, eps=1e-05, momentum=0.1, affine=True, track_running_stats=True)
    (2): BatchNorm1d(500, eps=1e-05, momentum=0.1, affine=True, track_running_stats=True)
    (3): BatchNorm1d(500, eps=1e-05, momentum=0.1, affine=True, track_running_stats=True)
  )
  (mdn): MDN(
    (pi): Sequential(
      (0): Linear(in_features=500, out_features=5, bias=True)
      (1): Softmax(dim=1)
    )
    (sigma): Linear(in_features=500, out_features=125, bias=True)
    (mu): Linear(in_features=500, out_features=25, bias=True)
  )
)
Chen/Chen_gaussian_5_layer_num_6_unit_500_lr_0.0001_reg_scale_0
number of trainable parameters is :
961655
Start eval now:
model in eval: MDN(
  (linears): ModuleList(
    (0): Linear(in_features=256, out_features=500, bias=True)
    (1): Linear(in_features=500, out_features=500, bias=True)
    (2): Linear(in_features=500, out_features=500, bias=True)
    (3): Linear(in_features=500, out_features=500, bias=True)
  )
  (bn_linears): ModuleList(
    (0): BatchNorm1d(500, eps=1e-05, momentum=0.1, affine=True, track_running_stats=True)
    (1): BatchNorm1d(500, eps=1e-05, momentum=0.1, affine=True, track_running_stats=True)
    (2): BatchNorm1d(500, eps=1e-05, momentum=0.1, affine=True, track_running_stats=True)
    (3): BatchNorm1d(500, eps=1e-05, momentum=0.1, affine=True, track_running_stats=True)
  )
  (mdn): MDN(
    (pi): Sequential(
      (0): Linear(in_features=500, out_features=5, bias=True)
      (1): Softmax(dim=1)
    )
    (sigma): Linear(in_features=500, out_features=125, bias=True)
    (mu): Linear(in_features=500, out_features=25, bias=True)
  )
)
size of sigma =  torch.Size([100, 5, 5, 5])
size of mu =  torch.Size([100, 5, 5])
Si3N4@@@/home/sr365/MM_Bench/Data/Chen/Si3N4_310nm-14280nm.txt shape=(1552, 3)
   lenda    re   im
0    310  2.18  0.0
1    360  2.12  0.0
2    410  2.09  0.0
3    470  2.07  0.0
4    520  2.06  0.0
Graphene@@@/home/sr365/MM_Bench/Data/Chen/Graphene_240nm-30000nm.txt shape=(28001, 3)
…
(Avg MSE=3.7510e-06)
Evaluation finished
Retrieving flag object for parameters
after removing prefix models/, now model_dir is: Chen/Chen_gaussian_5_layer_num_8_unit_500_lr_0.0001_reg_scale_0
In read_data, flags.data_set = Chen
flgas.data_dir =  /home/sr365/MM_Bench/Data/
data_dir =  /home/sr365/MM_Bench/Data/Chen
total number of training sample is 49900, the dimension of the feature is 5
total number of test sample is 100
Making network now
This is inference mode, the ckpt is /home/sr365/MM_Bench/MDN/models/Chen/Chen_gaussian_5_layer_num_8_unit_500_lr_0.0001_reg_scale_0
MDN(
  (linears): ModuleList(
    (0): Linear(in_features=256, out_features=500, bias=True)
    (1): Linear(in_features=500, out_features=500, bias=True)
    (2): Linear(in_features=500, out_features=500, bias=True)
    (3): Linear(in_features=500, out_features=500, bias=True)
    (4): Linear(in_features=500, out_features=500, bias=True)
    (5): Linear(in_features=500, out_features=500, bias=True)
  )
  (bn_linears): ModuleList(
    (0): BatchNorm1d(500, eps=1e-05, momentum=0.1, affine=True, track_running_stats=True)
    (1): BatchNorm1d(500, eps=1e-05, momentum=0.1, affine=True, track_running_stats=True)
    (2): BatchNorm1d(500, eps=1e-05, momentum=0.1, affine=True, track_running_stats=True)
    (3): BatchNorm1d(500, eps=1e-05, momentum=0.1, affine=True, track_running_stats=True)
    (4): BatchNorm1d(500, eps=1e-05, momentum=0.1, affine=True, track_running_stats=True)
    (5): BatchNorm1d(500, eps=1e-05, momentum=0.1, affine=True, track_running_stats=True)
  )
  (mdn): MDN(
    (pi): Sequential(
      (0): Linear(in_features=500, out_features=5, bias=True)
      (1): Softmax(dim=1)
    )
    (sigma): Linear(in_features=500, out_features=125, bias=True)
    (mu): Linear(in_features=500, out_features=25, bias=True)
  )
)
Chen/Chen_gaussian_5_layer_num_8_unit_500_lr_0.0001_reg_scale_0
number of trainable parameters is :
1464655
Start eval now:
model in eval: MDN(
  (linears): ModuleList(
    (0): Linear(in_features=256, out_features=500, bias=True)
    (1): Linear(in_features=500, out_features=500, bias=True)
    (2): Linear(in_features=500, out_features=500, bias=True)
    (3): Linear(in_features=500, out_features=500, bias=True)
    (4): Linear(in_features=500, out_features=500, bias=True)
    (5): Linear(in_features=500, out_features=500, bias=True)
  )
  (bn_linears): ModuleList(
    (0): BatchNorm1d(500, eps=1e-05, momentum=0.1, affine=True, track_running_stats=True)
    (1): BatchNorm1d(500, eps=1e-05, momentum=0.1, affine=True, track_running_stats=True)
    (2): BatchNorm1d(500, eps=1e-05, momentum=0.1, affine=True, track_running_stats=True)
    (3): BatchNorm1d(500, eps=1e-05, momentum=0.1, affine=True, track_running_stats=True)
    (4): BatchNorm1d(500, eps=1e-05, momentum=0.1, affine=True, track_running_stats=True)
    (5): BatchNorm1d(500, eps=1e-05, momentum=0.1, affine=True, track_running_stats=True)
  )
  (mdn): MDN(
    (pi): Sequential(
      (0): Linear(in_features=500, out_features=5, bias=True)
      (1): Softmax(dim=1)
    )
    (sigma): Linear(in_features=500, out_features=125, bias=True)
    (mu): Linear(in_features=500, out_features=25, bias=True)
  )
)
size of sigma =  torch.Size([100, 5, 5, 5])
size of mu =  torch.Size([100, 5, 5])
Si3N4@@@/home/sr365/MM_Bench/Data/Chen/Si3N4_310nm-14280nm.txt shape=(1552, 3)
   lenda    re   im
0    310  2.18  0.0
1    360  2.12  0.0
2    410  2.09  0.0
3    470  2.07  0.0
4    520  2.06  0.0
Graphene@@@/home/sr365/MM_Bench/Data/Chen/Graphene_240nm-30000nm.txt shape=(28001, 3)
…
Evaluation finished
Retrieving flag object for parameters
after removing prefix models/, now model_dir is: Chen/Chen_gaussian_20_layer_num_6_unit_1000_lr_0.0001_reg_scale_0.0001
In read_data, flags.data_set = Chen
flgas.data_dir =  /home/sr365/MM_Bench/Data/
data_dir =  /home/sr365/MM_Bench/Data/Chen
total number of training sample is 49900, the dimension of the feature is 5
total number of test sample is 100
Making network now
This is inference mode, the ckpt is /home/sr365/MM_Bench/MDN/models/Chen/Chen_gaussian_20_layer_num_6_unit_1000_lr_0.0001_reg_scale_0.0001
MDN(
  (linears): ModuleList(
    (0): Linear(in_features=256, out_features=1000, bias=True)
    (1): Linear(in_features=1000, out_features=1000, bias=True)
    (2): Linear(in_features=1000, out_features=1000, bias=True)
    (3): Linear(in_features=1000, out_features=1000, bias=True)
  )
  (bn_linears): ModuleList(
    (0): BatchNorm1d(1000, eps=1e-05, momentum=0.1, affine=True, track_running_stats=True)
    (1): BatchNorm1d(1000, eps=1e-05, momentum=0.1, affine=True, track_running_stats=True)
    (2): BatchNorm1d(1000, eps=1e-05, momentum=0.1, affine=True, track_running_stats=True)
    (3): BatchNorm1d(1000, eps=1e-05, momentum=0.1, affine=True, track_running_stats=True)
  )
  (mdn): MDN(
    (pi): Sequential(
      (0): Linear(in_features=1000, out_features=20, bias=True)
      (1): Softmax(dim=1)
    )
    (sigma): Linear(in_features=1000, out_features=500, bias=True)
    (mu): Linear(in_features=1000, out_features=100, bias=True)
  )
)
Chen/Chen_gaussian_20_layer_num_6_unit_1000_lr_0.0001_reg_scale_0.0001
number of trainable parameters is :
3888620
Start eval now:
model in eval: MDN(
  (linears): ModuleList(
    (0): Linear(in_features=256, out_features=1000, bias=True)
    (1): Linear(in_features=1000, out_features=1000, bias=True)
    (2): Linear(in_features=1000, out_features=1000, bias=True)
    (3): Linear(in_features=1000, out_features=1000, bias=True)
  )
  (bn_linears): ModuleList(
    (0): BatchNorm1d(1000, eps=1e-05, momentum=0.1, affine=True, track_running_stats=True)
    (1): BatchNorm1d(1000, eps=1e-05, momentum=0.1, affine=True, track_running_stats=True)
    (2): BatchNorm1d(1000, eps=1e-05, momentum=0.1, affine=True, track_running_stats=True)
    (3): BatchNorm1d(1000, eps=1e-05, momentum=0.1, affine=True, track_running_stats=True)
  )
  (mdn): MDN(
    (pi): Sequential(
      (0): Linear(in_features=1000, out_features=20, bias=True)
      (1): Softmax(dim=1)
    )
    (sigma): Linear(in_features=1000, out_features=500, bias=True)
    (mu): Linear(in_features=1000, out_features=100, bias=True)
  )
)
size of sigma =  torch.Size([100, 20, 5, 5])
size of mu =  torch.Size([100, 20, 5])
Si3N4@@@/home/sr365/MM_Bench/Data/Chen/Si3N4_310nm-14280nm.txt shape=(1552, 3)
   lenda    re   im
0    310  2.18  0.0
1    360  2.12  0.0
2    410  2.09  0.0
3    470  2.07  0.0
4    520  2.06  0.0
Graphene@@@/home/sr365/MM_Bench/Data/Chen/Graphene_240nm-30000nm.txt shape=(28001, 3)
…
(Avg MSE=5.3039e-06)
Evaluation finished
Retrieving flag object for parameters
after removing prefix models/, now model_dir is: Chen/Chen_gaussian_5_layer_num_7_unit_500_lr_0.0001_reg_scale_0
In read_data, flags.data_set = Chen
flgas.data_dir =  /home/sr365/MM_Bench/Data/
data_dir =  /home/sr365/MM_Bench/Data/Chen
total number of training sample is 49900, the dimension of the feature is 5
total number of test sample is 100
Making network now
This is inference mode, the ckpt is /home/sr365/MM_Bench/MDN/models/Chen/Chen_gaussian_5_layer_num_7_unit_500_lr_0.0001_reg_scale_0
MDN(
  (linears): ModuleList(
    (0): Linear(in_features=256, out_features=500, bias=True)
    (1): Linear(in_features=500, out_features=500, bias=True)
    (2): Linear(in_features=500, out_features=500, bias=True)
    (3): Linear(in_features=500, out_features=500, bias=True)
    (4): Linear(in_features=500, out_features=500, bias=True)
  )
  (bn_linears): ModuleList(
    (0): BatchNorm1d(500, eps=1e-05, momentum=0.1, affine=True, track_running_stats=True)
    (1): BatchNorm1d(500, eps=1e-05, momentum=0.1, affine=True, track_running_stats=True)
    (2): BatchNorm1d(500, eps=1e-05, momentum=0.1, affine=True, track_running_stats=True)
    (3): BatchNorm1d(500, eps=1e-05, momentum=0.1, affine=True, track_running_stats=True)
    (4): BatchNorm1d(500, eps=1e-05, momentum=0.1, affine=True, track_running_stats=True)
  )
  (mdn): MDN(
    (pi): Sequential(
      (0): Linear(in_features=500, out_features=5, bias=True)
      (1): Softmax(dim=1)
    )
    (sigma): Linear(in_features=500, out_features=125, bias=True)
    (mu): Linear(in_features=500, out_features=25, bias=True)
  )
)
Chen/Chen_gaussian_5_layer_num_7_unit_500_lr_0.0001_reg_scale_0
number of trainable parameters is :
1213155
Start eval now:
model in eval: MDN(
  (linears): ModuleList(
    (0): Linear(in_features=256, out_features=500, bias=True)
    (1): Linear(in_features=500, out_features=500, bias=True)
    (2): Linear(in_features=500, out_features=500, bias=True)
    (3): Linear(in_features=500, out_features=500, bias=True)
    (4): Linear(in_features=500, out_features=500, bias=True)
  )
  (bn_linears): ModuleList(
    (0): BatchNorm1d(500, eps=1e-05, momentum=0.1, affine=True, track_running_stats=True)
    (1): BatchNorm1d(500, eps=1e-05, momentum=0.1, affine=True, track_running_stats=True)
    (2): BatchNorm1d(500, eps=1e-05, momentum=0.1, affine=True, track_running_stats=True)
    (3): BatchNorm1d(500, eps=1e-05, momentum=0.1, affine=True, track_running_stats=True)
    (4): BatchNorm1d(500, eps=1e-05, momentum=0.1, affine=True, track_running_stats=True)
  )
  (mdn): MDN(
    (pi): Sequential(
      (0): Linear(in_features=500, out_features=5, bias=True)
      (1): Softmax(dim=1)
    )
    (sigma): Linear(in_features=500, out_features=125, bias=True)
    (mu): Linear(in_features=500, out_features=25, bias=True)
  )
)
size of sigma =  torch.Size([100, 5, 5, 5])
size of mu =  torch.Size([100, 5, 5])
Si3N4@@@/home/sr365/MM_Bench/Data/Chen/Si3N4_310nm-14280nm.txt shape=(1552, 3)
   lenda    re   im
0    310  2.18  0.0
1    360  2.12  0.0
2    410  2.09  0.0
3    470  2.07  0.0
4    520  2.06  0.0
Graphene@@@/home/sr365/MM_Bench/Data/Chen/Graphene_240nm-30000nm.txt shape=(28001, 3)
…
Evaluation finished
Retrieving flag object for parameters
after removing prefix models/, now model_dir is: Chen/Chen_gaussian_5_layer_num_7_unit_1000_lr_0.0001_reg_scale_0.0001
In read_data, flags.data_set = Chen
flgas.data_dir =  /home/sr365/MM_Bench/Data/
data_dir =  /home/sr365/MM_Bench/Data/Chen
total number of training sample is 49900, the dimension of the feature is 5
total number of test sample is 100
Making network now
This is inference mode, the ckpt is /home/sr365/MM_Bench/MDN/models/Chen/Chen_gaussian_5_layer_num_7_unit_1000_lr_0.0001_reg_scale_0.0001
MDN(
  (linears): ModuleList(
    (0): Linear(in_features=256, out_features=1000, bias=True)
    (1): Linear(in_features=1000, out_features=1000, bias=True)
    (2): Linear(in_features=1000, out_features=1000, bias=True)
    (3): Linear(in_features=1000, out_features=1000, bias=True)
    (4): Linear(in_features=1000, out_features=1000, bias=True)
  )
  (bn_linears): ModuleList(
    (0): BatchNorm1d(1000, eps=1e-05, momentum=0.1, affine=True, track_running_stats=True)
    (1): BatchNorm1d(1000, eps=1e-05, momentum=0.1, affine=True, track_running_stats=True)
    (2): BatchNorm1d(1000, eps=1e-05, momentum=0.1, affine=True, track_running_stats=True)
    (3): BatchNorm1d(1000, eps=1e-05, momentum=0.1, affine=True, track_running_stats=True)
    (4): BatchNorm1d(1000, eps=1e-05, momentum=0.1, affine=True, track_running_stats=True)
  )
  (mdn): MDN(
    (pi): Sequential(
      (0): Linear(in_features=1000, out_features=5, bias=True)
      (1): Softmax(dim=1)
    )
    (sigma): Linear(in_features=1000, out_features=125, bias=True)
    (mu): Linear(in_features=1000, out_features=25, bias=True)
  )
)
Chen/Chen_gaussian_5_layer_num_7_unit_1000_lr_0.0001_reg_scale_0.0001
number of trainable parameters is :
4426155
Start eval now:
model in eval: MDN(
  (linears): ModuleList(
    (0): Linear(in_features=256, out_features=1000, bias=True)
    (1): Linear(in_features=1000, out_features=1000, bias=True)
    (2): Linear(in_features=1000, out_features=1000, bias=True)
    (3): Linear(in_features=1000, out_features=1000, bias=True)
    (4): Linear(in_features=1000, out_features=1000, bias=True)
  )
  (bn_linears): ModuleList(
    (0): BatchNorm1d(1000, eps=1e-05, momentum=0.1, affine=True, track_running_stats=True)
    (1): BatchNorm1d(1000, eps=1e-05, momentum=0.1, affine=True, track_running_stats=True)
    (2): BatchNorm1d(1000, eps=1e-05, momentum=0.1, affine=True, track_running_stats=True)
    (3): BatchNorm1d(1000, eps=1e-05, momentum=0.1, affine=True, track_running_stats=True)
    (4): BatchNorm1d(1000, eps=1e-05, momentum=0.1, affine=True, track_running_stats=True)
  )
  (mdn): MDN(
    (pi): Sequential(
      (0): Linear(in_features=1000, out_features=5, bias=True)
      (1): Softmax(dim=1)
    )
    (sigma): Linear(in_features=1000, out_features=125, bias=True)
    (mu): Linear(in_features=1000, out_features=25, bias=True)
  )
)
size of sigma =  torch.Size([100, 5, 5, 5])
size of mu =  torch.Size([100, 5, 5])
Si3N4@@@/home/sr365/MM_Bench/Data/Chen/Si3N4_310nm-14280nm.txt shape=(1552, 3)
   lenda    re   im
0    310  2.18  0.0
1    360  2.12  0.0
2    410  2.09  0.0
3    470  2.07  0.0
4    520  2.06  0.0
Graphene@@@/home/sr365/MM_Bench/Data/Chen/Graphene_240nm-30000nm.txt shape=(28001, 3)
…
(Avg MSE=3.8895e-06)
Evaluation finished
Retrieving flag object for parameters
after removing prefix models/, now model_dir is: Chen/Chen_gaussian_10_layer_num_6_unit_1000_lr_0.0001_reg_scale_0
In read_data, flags.data_set = Chen
flgas.data_dir =  /home/sr365/MM_Bench/Data/
data_dir =  /home/sr365/MM_Bench/Data/Chen
total number of training sample is 49900, the dimension of the feature is 5
total number of test sample is 100
Making network now
This is inference mode, the ckpt is /home/sr365/MM_Bench/MDN/models/Chen/Chen_gaussian_10_layer_num_6_unit_1000_lr_0.0001_reg_scale_0
MDN(
  (linears): ModuleList(
    (0): Linear(in_features=256, out_features=1000, bias=True)
    (1): Linear(in_features=1000, out_features=1000, bias=True)
    (2): Linear(in_features=1000, out_features=1000, bias=True)
    (3): Linear(in_features=1000, out_features=1000, bias=True)
  )
  (bn_linears): ModuleList(
    (0): BatchNorm1d(1000, eps=1e-05, momentum=0.1, affine=True, track_running_stats=True)
    (1): BatchNorm1d(1000, eps=1e-05, momentum=0.1, affine=True, track_running_stats=True)
    (2): BatchNorm1d(1000, eps=1e-05, momentum=0.1, affine=True, track_running_stats=True)
    (3): BatchNorm1d(1000, eps=1e-05, momentum=0.1, affine=True, track_running_stats=True)
  )
  (mdn): MDN(
    (pi): Sequential(
      (0): Linear(in_features=1000, out_features=10, bias=True)
      (1): Softmax(dim=1)
    )
    (sigma): Linear(in_features=1000, out_features=250, bias=True)
    (mu): Linear(in_features=1000, out_features=50, bias=True)
  )
)
Chen/Chen_gaussian_10_layer_num_6_unit_1000_lr_0.0001_reg_scale_0
number of trainable parameters is :
3578310
Start eval now:
model in eval: MDN(
  (linears): ModuleList(
    (0): Linear(in_features=256, out_features=1000, bias=True)
    (1): Linear(in_features=1000, out_features=1000, bias=True)
    (2): Linear(in_features=1000, out_features=1000, bias=True)
    (3): Linear(in_features=1000, out_features=1000, bias=True)
  )
  (bn_linears): ModuleList(
    (0): BatchNorm1d(1000, eps=1e-05, momentum=0.1, affine=True, track_running_stats=True)
    (1): BatchNorm1d(1000, eps=1e-05, momentum=0.1, affine=True, track_running_stats=True)
    (2): BatchNorm1d(1000, eps=1e-05, momentum=0.1, affine=True, track_running_stats=True)
    (3): BatchNorm1d(1000, eps=1e-05, momentum=0.1, affine=True, track_running_stats=True)
  )
  (mdn): MDN(
    (pi): Sequential(
      (0): Linear(in_features=1000, out_features=10, bias=True)
      (1): Softmax(dim=1)
    )
    (sigma): Linear(in_features=1000, out_features=250, bias=True)
    (mu): Linear(in_features=1000, out_features=50, bias=True)
  )
)
size of sigma =  torch.Size([100, 10, 5, 5])
size of mu =  torch.Size([100, 10, 5])
Si3N4@@@/home/sr365/MM_Bench/Data/Chen/Si3N4_310nm-14280nm.txt shape=(1552, 3)
   lenda    re   im
0    310  2.18  0.0
1    360  2.12  0.0
2    410  2.09  0.0
3    470  2.07  0.0
4    520  2.06  0.0
Graphene@@@/home/sr365/MM_Bench/Data/Chen/Graphene_240nm-30000nm.txt shape=(28001, 3)
…
Evaluation finished
Retrieving flag object for parameters
after removing prefix models/, now model_dir is: Chen/Chen_gaussian_10_layer_num_9_unit_1000_lr_0.0001_reg_scale_0.0001
In read_data, flags.data_set = Chen
flgas.data_dir =  /home/sr365/MM_Bench/Data/
data_dir =  /home/sr365/MM_Bench/Data/Chen
total number of training sample is 49900, the dimension of the feature is 5
total number of test sample is 100
Making network now
This is inference mode, the ckpt is /home/sr365/MM_Bench/MDN/models/Chen/Chen_gaussian_10_layer_num_9_unit_1000_lr_0.0001_reg_scale_0.0001
MDN(
  (linears): ModuleList(
    (0): Linear(in_features=256, out_features=1000, bias=True)
    (1): Linear(in_features=1000, out_features=1000, bias=True)
    (2): Linear(in_features=1000, out_features=1000, bias=True)
    (3): Linear(in_features=1000, out_features=1000, bias=True)
    (4): Linear(in_features=1000, out_features=1000, bias=True)
    (5): Linear(in_features=1000, out_features=1000, bias=True)
    (6): Linear(in_features=1000, out_features=1000, bias=True)
  )
  (bn_linears): ModuleList(
    (0): BatchNorm1d(1000, eps=1e-05, momentum=0.1, affine=True, track_running_stats=True)
    (1): BatchNorm1d(1000, eps=1e-05, momentum=0.1, affine=True, track_running_stats=True)
    (2): BatchNorm1d(1000, eps=1e-05, momentum=0.1, affine=True, track_running_stats=True)
    (3): BatchNorm1d(1000, eps=1e-05, momentum=0.1, affine=True, track_running_stats=True)
    (4): BatchNorm1d(1000, eps=1e-05, momentum=0.1, affine=True, track_running_stats=True)
    (5): BatchNorm1d(1000, eps=1e-05, momentum=0.1, affine=True, track_running_stats=True)
    (6): BatchNorm1d(1000, eps=1e-05, momentum=0.1, affine=True, track_running_stats=True)
  )
  (mdn): MDN(
    (pi): Sequential(
      (0): Linear(in_features=1000, out_features=10, bias=True)
      (1): Softmax(dim=1)
    )
    (sigma): Linear(in_features=1000, out_features=250, bias=True)
    (mu): Linear(in_features=1000, out_features=50, bias=True)
  )
)
Chen/Chen_gaussian_10_layer_num_9_unit_1000_lr_0.0001_reg_scale_0.0001
number of trainable parameters is :
6587310
Start eval now:
model in eval: MDN(
  (linears): ModuleList(
    (0): Linear(in_features=256, out_features=1000, bias=True)
    (1): Linear(in_features=1000, out_features=1000, bias=True)
    (2): Linear(in_features=1000, out_features=1000, bias=True)
    (3): Linear(in_features=1000, out_features=1000, bias=True)
    (4): Linear(in_features=1000, out_features=1000, bias=True)
    (5): Linear(in_features=1000, out_features=1000, bias=True)
    (6): Linear(in_features=1000, out_features=1000, bias=True)
  )
  (bn_linears): ModuleList(
    (0): BatchNorm1d(1000, eps=1e-05, momentum=0.1, affine=True, track_running_stats=True)
    (1): BatchNorm1d(1000, eps=1e-05, momentum=0.1, affine=True, track_running_stats=True)
    (2): BatchNorm1d(1000, eps=1e-05, momentum=0.1, affine=True, track_running_stats=True)
    (3): BatchNorm1d(1000, eps=1e-05, momentum=0.1, affine=True, track_running_stats=True)
    (4): BatchNorm1d(1000, eps=1e-05, momentum=0.1, affine=True, track_running_stats=True)
    (5): BatchNorm1d(1000, eps=1e-05, momentum=0.1, affine=True, track_running_stats=True)
    (6): BatchNorm1d(1000, eps=1e-05, momentum=0.1, affine=True, track_running_stats=True)
  )
  (mdn): MDN(
    (pi): Sequential(
      (0): Linear(in_features=1000, out_features=10, bias=True)
      (1): Softmax(dim=1)
    )
    (sigma): Linear(in_features=1000, out_features=250, bias=True)
    (mu): Linear(in_features=1000, out_features=50, bias=True)
  )
)
size of sigma =  torch.Size([100, 10, 5, 5])
size of mu =  torch.Size([100, 10, 5])
Si3N4@@@/home/sr365/MM_Bench/Data/Chen/Si3N4_310nm-14280nm.txt shape=(1552, 3)
   lenda    re   im
0    310  2.18  0.0
1    360  2.12  0.0
2    410  2.09  0.0
3    470  2.07  0.0
4    520  2.06  0.0
Graphene@@@/home/sr365/MM_Bench/Data/Chen/Graphene_240nm-30000nm.txt shape=(28001, 3)
…
(Avg MSE=4.0450e-06)
Evaluation finished
Retrieving flag object for parameters
after removing prefix models/, now model_dir is: Chen/Chen_gaussian_20_layer_num_5_unit_500_lr_0.0001_reg_scale_0
In read_data, flags.data_set = Chen
flgas.data_dir =  /home/sr365/MM_Bench/Data/
data_dir =  /home/sr365/MM_Bench/Data/Chen
total number of training sample is 49900, the dimension of the feature is 5
total number of test sample is 100
Making network now
This is inference mode, the ckpt is /home/sr365/MM_Bench/MDN/models/Chen/Chen_gaussian_20_layer_num_5_unit_500_lr_0.0001_reg_scale_0
MDN(
  (linears): ModuleList(
    (0): Linear(in_features=256, out_features=500, bias=True)
    (1): Linear(in_features=500, out_features=500, bias=True)
    (2): Linear(in_features=500, out_features=500, bias=True)
  )
  (bn_linears): ModuleList(
    (0): BatchNorm1d(500, eps=1e-05, momentum=0.1, affine=True, track_running_stats=True)
    (1): BatchNorm1d(500, eps=1e-05, momentum=0.1, affine=True, track_running_stats=True)
    (2): BatchNorm1d(500, eps=1e-05, momentum=0.1, affine=True, track_running_stats=True)
  )
  (mdn): MDN(
    (pi): Sequential(
      (0): Linear(in_features=500, out_features=20, bias=True)
      (1): Softmax(dim=1)
    )
    (sigma): Linear(in_features=500, out_features=500, bias=True)
    (mu): Linear(in_features=500, out_features=100, bias=True)
  )
)
Chen/Chen_gaussian_20_layer_num_5_unit_500_lr_0.0001_reg_scale_0
number of trainable parameters is :
943120
Start eval now:
model in eval: MDN(
  (linears): ModuleList(
    (0): Linear(in_features=256, out_features=500, bias=True)
    (1): Linear(in_features=500, out_features=500, bias=True)
    (2): Linear(in_features=500, out_features=500, bias=True)
  )
  (bn_linears): ModuleList(
    (0): BatchNorm1d(500, eps=1e-05, momentum=0.1, affine=True, track_running_stats=True)
    (1): BatchNorm1d(500, eps=1e-05, momentum=0.1, affine=True, track_running_stats=True)
    (2): BatchNorm1d(500, eps=1e-05, momentum=0.1, affine=True, track_running_stats=True)
  )
  (mdn): MDN(
    (pi): Sequential(
      (0): Linear(in_features=500, out_features=20, bias=True)
      (1): Softmax(dim=1)
    )
    (sigma): Linear(in_features=500, out_features=500, bias=True)
    (mu): Linear(in_features=500, out_features=100, bias=True)
  )
)
size of sigma =  torch.Size([100, 20, 5, 5])
size of mu =  torch.Size([100, 20, 5])
Si3N4@@@/home/sr365/MM_Bench/Data/Chen/Si3N4_310nm-14280nm.txt shape=(1552, 3)
   lenda    re   im
0    310  2.18  0.0
1    360  2.12  0.0
2    410  2.09  0.0
3    470  2.07  0.0
4    520  2.06  0.0
Graphene@@@/home/sr365/MM_Bench/Data/Chen/Graphene_240nm-30000nm.txt shape=(28001, 3)
…
Evaluation finished
Retrieving flag object for parameters
after removing prefix models/, now model_dir is: Chen/Chen_gaussian_5_layer_num_4_unit_250_lr_0.0001_reg_scale_0.001
In read_data, flags.data_set = Chen
flgas.data_dir =  /home/sr365/MM_Bench/Data/
data_dir =  /home/sr365/MM_Bench/Data/Chen
total number of training sample is 49900, the dimension of the feature is 5
total number of test sample is 100
Making network now
This is inference mode, the ckpt is /home/sr365/MM_Bench/MDN/models/Chen/Chen_gaussian_5_layer_num_4_unit_250_lr_0.0001_reg_scale_0.001
MDN(
  (linears): ModuleList(
    (0): Linear(in_features=256, out_features=250, bias=True)
    (1): Linear(in_features=250, out_features=250, bias=True)
  )
  (bn_linears): ModuleList(
    (0): BatchNorm1d(250, eps=1e-05, momentum=0.1, affine=True, track_running_stats=True)
    (1): BatchNorm1d(250, eps=1e-05, momentum=0.1, affine=True, track_running_stats=True)
  )
  (mdn): MDN(
    (pi): Sequential(
      (0): Linear(in_features=250, out_features=5, bias=True)
      (1): Softmax(dim=1)
    )
    (sigma): Linear(in_features=250, out_features=125, bias=True)
    (mu): Linear(in_features=250, out_features=25, bias=True)
  )
)
Chen/Chen_gaussian_5_layer_num_4_unit_250_lr_0.0001_reg_scale_0.001
number of trainable parameters is :
166905
Start eval now:
model in eval: MDN(
  (linears): ModuleList(
    (0): Linear(in_features=256, out_features=250, bias=True)
    (1): Linear(in_features=250, out_features=250, bias=True)
  )
  (bn_linears): ModuleList(
    (0): BatchNorm1d(250, eps=1e-05, momentum=0.1, affine=True, track_running_stats=True)
    (1): BatchNorm1d(250, eps=1e-05, momentum=0.1, affine=True, track_running_stats=True)
  )
  (mdn): MDN(
    (pi): Sequential(
      (0): Linear(in_features=250, out_features=5, bias=True)
      (1): Softmax(dim=1)
    )
    (sigma): Linear(in_features=250, out_features=125, bias=True)
    (mu): Linear(in_features=250, out_features=25, bias=True)
  )
)
size of sigma =  torch.Size([100, 5, 5, 5])
size of mu =  torch.Size([100, 5, 5])
Si3N4@@@/home/sr365/MM_Bench/Data/Chen/Si3N4_310nm-14280nm.txt shape=(1552, 3)
   lenda    re   im
0    310  2.18  0.0
1    360  2.12  0.0
2    410  2.09  0.0
3    470  2.07  0.0
4    520  2.06  0.0
Graphene@@@/home/sr365/MM_Bench/Data/Chen/Graphene_240nm-30000nm.txt shape=(28001, 3)
…
Evaluation finished
Retrieving flag object for parameters
after removing prefix models/, now model_dir is: Chen/Chen_gaussian_10_layer_num_8_unit_500_lr_0.0001_reg_scale_0.0001
In read_data, flags.data_set = Chen
flgas.data_dir =  /home/sr365/MM_Bench/Data/
data_dir =  /home/sr365/MM_Bench/Data/Chen
total number of training sample is 49900, the dimension of the feature is 5
total number of test sample is 100
Making network now
This is inference mode, the ckpt is /home/sr365/MM_Bench/MDN/models/Chen/Chen_gaussian_10_layer_num_8_unit_500_lr_0.0001_reg_scale_0.0001
MDN(
  (linears): ModuleList(
    (0): Linear(in_features=256, out_features=500, bias=True)
    (1): Linear(in_features=500, out_features=500, bias=True)
    (2): Linear(in_features=500, out_features=500, bias=True)
    (3): Linear(in_features=500, out_features=500, bias=True)
    (4): Linear(in_features=500, out_features=500, bias=True)
    (5): Linear(in_features=500, out_features=500, bias=True)
  )
  (bn_linears): ModuleList(
    (0): BatchNorm1d(500, eps=1e-05, momentum=0.1, affine=True, track_running_stats=True)
    (1): BatchNorm1d(500, eps=1e-05, momentum=0.1, affine=True, track_running_stats=True)
    (2): BatchNorm1d(500, eps=1e-05, momentum=0.1, affine=True, track_running_stats=True)
    (3): BatchNorm1d(500, eps=1e-05, momentum=0.1, affine=True, track_running_stats=True)
    (4): BatchNorm1d(500, eps=1e-05, momentum=0.1, affine=True, track_running_stats=True)
    (5): BatchNorm1d(500, eps=1e-05, momentum=0.1, affine=True, track_running_stats=True)
  )
  (mdn): MDN(
    (pi): Sequential(
      (0): Linear(in_features=500, out_features=10, bias=True)
      (1): Softmax(dim=1)
    )
    (sigma): Linear(in_features=500, out_features=250, bias=True)
    (mu): Linear(in_features=500, out_features=50, bias=True)
  )
)
Chen/Chen_gaussian_10_layer_num_8_unit_500_lr_0.0001_reg_scale_0.0001
number of trainable parameters is :
1542310
Start eval now:
model in eval: MDN(
  (linears): ModuleList(
    (0): Linear(in_features=256, out_features=500, bias=True)
    (1): Linear(in_features=500, out_features=500, bias=True)
    (2): Linear(in_features=500, out_features=500, bias=True)
    (3): Linear(in_features=500, out_features=500, bias=True)
    (4): Linear(in_features=500, out_features=500, bias=True)
    (5): Linear(in_features=500, out_features=500, bias=True)
  )
  (bn_linears): ModuleList(
    (0): BatchNorm1d(500, eps=1e-05, momentum=0.1, affine=True, track_running_stats=True)
    (1): BatchNorm1d(500, eps=1e-05, momentum=0.1, affine=True, track_running_stats=True)
    (2): BatchNorm1d(500, eps=1e-05, momentum=0.1, affine=True, track_running_stats=True)
    (3): BatchNorm1d(500, eps=1e-05, momentum=0.1, affine=True, track_running_stats=True)
    (4): BatchNorm1d(500, eps=1e-05, momentum=0.1, affine=True, track_running_stats=True)
    (5): BatchNorm1d(500, eps=1e-05, momentum=0.1, affine=True, track_running_stats=True)
  )
  (mdn): MDN(
    (pi): Sequential(
      (0): Linear(in_features=500, out_features=10, bias=True)
      (1): Softmax(dim=1)
    )
    (sigma): Linear(in_features=500, out_features=250, bias=True)
    (mu): Linear(in_features=500, out_features=50, bias=True)
  )
)
size of sigma =  torch.Size([100, 10, 5, 5])
size of mu =  torch.Size([100, 10, 5])
Si3N4@@@/home/sr365/MM_Bench/Data/Chen/Si3N4_310nm-14280nm.txt shape=(1552, 3)
   lenda    re   im
0    310  2.18  0.0
1    360  2.12  0.0
2    410  2.09  0.0
3    470  2.07  0.0
4    520  2.06  0.0
Graphene@@@/home/sr365/MM_Bench/Data/Chen/Graphene_240nm-30000nm.txt shape=(28001, 3)
…
(Avg MSE=3.2145e-06)
Evaluation finished
Retrieving flag object for parameters
after removing prefix models/, now model_dir is: Chen/Chen_gaussian_20_layer_num_9_unit_1000_lr_0.0001_reg_scale_0
In read_data, flags.data_set = Chen
flgas.data_dir =  /home/sr365/MM_Bench/Data/
data_dir =  /home/sr365/MM_Bench/Data/Chen
total number of training sample is 49900, the dimension of the feature is 5
total number of test sample is 100
Making network now
This is inference mode, the ckpt is /home/sr365/MM_Bench/MDN/models/Chen/Chen_gaussian_20_layer_num_9_unit_1000_lr_0.0001_reg_scale_0
MDN(
  (linears): ModuleList(
    (0): Linear(in_features=256, out_features=1000, bias=True)
    (1): Linear(in_features=1000, out_features=1000, bias=True)
    (2): Linear(in_features=1000, out_features=1000, bias=True)
    (3): Linear(in_features=1000, out_features=1000, bias=True)
    (4): Linear(in_features=1000, out_features=1000, bias=True)
    (5): Linear(in_features=1000, out_features=1000, bias=True)
    (6): Linear(in_features=1000, out_features=1000, bias=True)
  )
  (bn_linears): ModuleList(
    (0): BatchNorm1d(1000, eps=1e-05, momentum=0.1, affine=True, track_running_stats=True)
    (1): BatchNorm1d(1000, eps=1e-05, momentum=0.1, affine=True, track_running_stats=True)
    (2): BatchNorm1d(1000, eps=1e-05, momentum=0.1, affine=True, track_running_stats=True)
    (3): BatchNorm1d(1000, eps=1e-05, momentum=0.1, affine=True, track_running_stats=True)
    (4): BatchNorm1d(1000, eps=1e-05, momentum=0.1, affine=True, track_running_stats=True)
    (5): BatchNorm1d(1000, eps=1e-05, momentum=0.1, affine=True, track_running_stats=True)
    (6): BatchNorm1d(1000, eps=1e-05, momentum=0.1, affine=True, track_running_stats=True)
  )
  (mdn): MDN(
    (pi): Sequential(
      (0): Linear(in_features=1000, out_features=20, bias=True)
      (1): Softmax(dim=1)
    )
    (sigma): Linear(in_features=1000, out_features=500, bias=True)
    (mu): Linear(in_features=1000, out_features=100, bias=True)
  )
)
Chen/Chen_gaussian_20_layer_num_9_unit_1000_lr_0.0001_reg_scale_0
number of trainable parameters is :
6897620
Start eval now:
model in eval: MDN(
  (linears): ModuleList(
    (0): Linear(in_features=256, out_features=1000, bias=True)
    (1): Linear(in_features=1000, out_features=1000, bias=True)
    (2): Linear(in_features=1000, out_features=1000, bias=True)
    (3): Linear(in_features=1000, out_features=1000, bias=True)
    (4): Linear(in_features=1000, out_features=1000, bias=True)
    (5): Linear(in_features=1000, out_features=1000, bias=True)
    (6): Linear(in_features=1000, out_features=1000, bias=True)
  )
  (bn_linears): ModuleList(
    (0): BatchNorm1d(1000, eps=1e-05, momentum=0.1, affine=True, track_running_stats=True)
    (1): BatchNorm1d(1000, eps=1e-05, momentum=0.1, affine=True, track_running_stats=True)
    (2): BatchNorm1d(1000, eps=1e-05, momentum=0.1, affine=True, track_running_stats=True)
    (3): BatchNorm1d(1000, eps=1e-05, momentum=0.1, affine=True, track_running_stats=True)
    (4): BatchNorm1d(1000, eps=1e-05, momentum=0.1, affine=True, track_running_stats=True)
    (5): BatchNorm1d(1000, eps=1e-05, momentum=0.1, affine=True, track_running_stats=True)
    (6): BatchNorm1d(1000, eps=1e-05, momentum=0.1, affine=True, track_running_stats=True)
  )
  (mdn): MDN(
    (pi): Sequential(
      (0): Linear(in_features=1000, out_features=20, bias=True)
      (1): Softmax(dim=1)
    )
    (sigma): Linear(in_features=1000, out_features=500, bias=True)
    (mu): Linear(in_features=1000, out_features=100, bias=True)
  )
)
size of sigma =  torch.Size([100, 20, 5, 5])
size of mu =  torch.Size([100, 20, 5])
Si3N4@@@/home/sr365/MM_Bench/Data/Chen/Si3N4_310nm-14280nm.txt shape=(1552, 3)
   lenda    re   im
0    310  2.18  0.0
1    360  2.12  0.0
2    410  2.09  0.0
3    470  2.07  0.0
4    520  2.06  0.0
Graphene@@@/home/sr365/MM_Bench/Data/Chen/Graphene_240nm-30000nm.txt shape=(28001, 3)
…
(Avg MSE=3.6675e-06)
Evaluation finished
Retrieving flag object for parameters
after removing prefix models/, now model_dir is: Chen/Chen_gaussian_10_layer_num_7_unit_500_lr_0.0001_reg_scale_0
In read_data, flags.data_set = Chen
flgas.data_dir =  /home/sr365/MM_Bench/Data/
data_dir =  /home/sr365/MM_Bench/Data/Chen
total number of training sample is 49900, the dimension of the feature is 5
total number of test sample is 100
Making network now
This is inference mode, the ckpt is /home/sr365/MM_Bench/MDN/models/Chen/Chen_gaussian_10_layer_num_7_unit_500_lr_0.0001_reg_scale_0
MDN(
  (linears): ModuleList(
    (0): Linear(in_features=256, out_features=500, bias=True)
    (1): Linear(in_features=500, out_features=500, bias=True)
    (2): Linear(in_features=500, out_features=500, bias=True)
    (3): Linear(in_features=500, out_features=500, bias=True)
    (4): Linear(in_features=500, out_features=500, bias=True)
  )
  (bn_linears): ModuleList(
    (0): BatchNorm1d(500, eps=1e-05, momentum=0.1, affine=True, track_running_stats=True)
    (1): BatchNorm1d(500, eps=1e-05, momentum=0.1, affine=True, track_running_stats=True)
    (2): BatchNorm1d(500, eps=1e-05, momentum=0.1, affine=True, track_running_stats=True)
    (3): BatchNorm1d(500, eps=1e-05, momentum=0.1, affine=True, track_running_stats=True)
    (4): BatchNorm1d(500, eps=1e-05, momentum=0.1, affine=True, track_running_stats=True)
  )
  (mdn): MDN(
    (pi): Sequential(
      (0): Linear(in_features=500, out_features=10, bias=True)
      (1): Softmax(dim=1)
    )
    (sigma): Linear(in_features=500, out_features=250, bias=True)
    (mu): Linear(in_features=500, out_features=50, bias=True)
  )
)
Chen/Chen_gaussian_10_layer_num_7_unit_500_lr_0.0001_reg_scale_0
number of trainable parameters is :
1290810
Start eval now:
model in eval: MDN(
  (linears): ModuleList(
    (0): Linear(in_features=256, out_features=500, bias=True)
    (1): Linear(in_features=500, out_features=500, bias=True)
    (2): Linear(in_features=500, out_features=500, bias=True)
    (3): Linear(in_features=500, out_features=500, bias=True)
    (4): Linear(in_features=500, out_features=500, bias=True)
  )
  (bn_linears): ModuleList(
    (0): BatchNorm1d(500, eps=1e-05, momentum=0.1, affine=True, track_running_stats=True)
    (1): BatchNorm1d(500, eps=1e-05, momentum=0.1, affine=True, track_running_stats=True)
    (2): BatchNorm1d(500, eps=1e-05, momentum=0.1, affine=True, track_running_stats=True)
    (3): BatchNorm1d(500, eps=1e-05, momentum=0.1, affine=True, track_running_stats=True)
    (4): BatchNorm1d(500, eps=1e-05, momentum=0.1, affine=True, track_running_stats=True)
  )
  (mdn): MDN(
    (pi): Sequential(
      (0): Linear(in_features=500, out_features=10, bias=True)
      (1): Softmax(dim=1)
    )
    (sigma): Linear(in_features=500, out_features=250, bias=True)
    (mu): Linear(in_features=500, out_features=50, bias=True)
  )
)
size of sigma =  torch.Size([100, 10, 5, 5])
size of mu =  torch.Size([100, 10, 5])
Si3N4@@@/home/sr365/MM_Bench/Data/Chen/Si3N4_310nm-14280nm.txt shape=(1552, 3)
   lenda    re   im
0    310  2.18  0.0
1    360  2.12  0.0
2    410  2.09  0.0
3    470  2.07  0.0
4    520  2.06  0.0
Graphene@@@/home/sr365/MM_Bench/Data/Chen/Graphene_240nm-30000nm.txt shape=(28001, 3)
…
(Avg MSE=9.8073e-06)
Evaluation finished
Retrieving flag object for parameters
after removing prefix models/, now model_dir is: Chen/Chen_gaussian_20_layer_num_8_unit_500_lr_0.0001_reg_scale_0
In read_data, flags.data_set = Chen
flgas.data_dir =  /home/sr365/MM_Bench/Data/
data_dir =  /home/sr365/MM_Bench/Data/Chen
total number of training sample is 49900, the dimension of the feature is 5
total number of test sample is 100
Making network now
This is inference mode, the ckpt is /home/sr365/MM_Bench/MDN/models/Chen/Chen_gaussian_20_layer_num_8_unit_500_lr_0.0001_reg_scale_0
MDN(
  (linears): ModuleList(
    (0): Linear(in_features=256, out_features=500, bias=True)
    (1): Linear(in_features=500, out_features=500, bias=True)
    (2): Linear(in_features=500, out_features=500, bias=True)
    (3): Linear(in_features=500, out_features=500, bias=True)
    (4): Linear(in_features=500, out_features=500, bias=True)
    (5): Linear(in_features=500, out_features=500, bias=True)
  )
  (bn_linears): ModuleList(
    (0): BatchNorm1d(500, eps=1e-05, momentum=0.1, affine=True, track_running_stats=True)
    (1): BatchNorm1d(500, eps=1e-05, momentum=0.1, affine=True, track_running_stats=True)
    (2): BatchNorm1d(500, eps=1e-05, momentum=0.1, affine=True, track_running_stats=True)
    (3): BatchNorm1d(500, eps=1e-05, momentum=0.1, affine=True, track_running_stats=True)
    (4): BatchNorm1d(500, eps=1e-05, momentum=0.1, affine=True, track_running_stats=True)
    (5): BatchNorm1d(500, eps=1e-05, momentum=0.1, affine=True, track_running_stats=True)
  )
  (mdn): MDN(
    (pi): Sequential(
      (0): Linear(in_features=500, out_features=20, bias=True)
      (1): Softmax(dim=1)
    )
    (sigma): Linear(in_features=500, out_features=500, bias=True)
    (mu): Linear(in_features=500, out_features=100, bias=True)
  )
)
Chen/Chen_gaussian_20_layer_num_8_unit_500_lr_0.0001_reg_scale_0
number of trainable parameters is :
1697620
Start eval now:
model in eval: MDN(
  (linears): ModuleList(
    (0): Linear(in_features=256, out_features=500, bias=True)
    (1): Linear(in_features=500, out_features=500, bias=True)
    (2): Linear(in_features=500, out_features=500, bias=True)
    (3): Linear(in_features=500, out_features=500, bias=True)
    (4): Linear(in_features=500, out_features=500, bias=True)
    (5): Linear(in_features=500, out_features=500, bias=True)
  )
  (bn_linears): ModuleList(
    (0): BatchNorm1d(500, eps=1e-05, momentum=0.1, affine=True, track_running_stats=True)
    (1): BatchNorm1d(500, eps=1e-05, momentum=0.1, affine=True, track_running_stats=True)
    (2): BatchNorm1d(500, eps=1e-05, momentum=0.1, affine=True, track_running_stats=True)
    (3): BatchNorm1d(500, eps=1e-05, momentum=0.1, affine=True, track_running_stats=True)
    (4): BatchNorm1d(500, eps=1e-05, momentum=0.1, affine=True, track_running_stats=True)
    (5): BatchNorm1d(500, eps=1e-05, momentum=0.1, affine=True, track_running_stats=True)
  )
  (mdn): MDN(
    (pi): Sequential(
      (0): Linear(in_features=500, out_features=20, bias=True)
      (1): Softmax(dim=1)
    )
    (sigma): Linear(in_features=500, out_features=500, bias=True)
    (mu): Linear(in_features=500, out_features=100, bias=True)
  )
)
size of sigma =  torch.Size([100, 20, 5, 5])
size of mu =  torch.Size([100, 20, 5])
Si3N4@@@/home/sr365/MM_Bench/Data/Chen/Si3N4_310nm-14280nm.txt shape=(1552, 3)
   lenda    re   im
0    310  2.18  0.0
1    360  2.12  0.0
2    410  2.09  0.0
3    470  2.07  0.0
4    520  2.06  0.0
Graphene@@@/home/sr365/MM_Bench/Data/Chen/Graphene_240nm-30000nm.txt shape=(28001, 3)
…
(Avg MSE=4.4083e-06)
Evaluation finished
Retrieving flag object for parameters
after removing prefix models/, now model_dir is: Chen/Chen_gaussian_10_layer_num_5_unit_500_lr_0.0001_reg_scale_0
In read_data, flags.data_set = Chen
flgas.data_dir =  /home/sr365/MM_Bench/Data/
data_dir =  /home/sr365/MM_Bench/Data/Chen
total number of training sample is 49900, the dimension of the feature is 5
total number of test sample is 100
Making network now
This is inference mode, the ckpt is /home/sr365/MM_Bench/MDN/models/Chen/Chen_gaussian_10_layer_num_5_unit_500_lr_0.0001_reg_scale_0
MDN(
  (linears): ModuleList(
    (0): Linear(in_features=256, out_features=500, bias=True)
    (1): Linear(in_features=500, out_features=500, bias=True)
    (2): Linear(in_features=500, out_features=500, bias=True)
  )
  (bn_linears): ModuleList(
    (0): BatchNorm1d(500, eps=1e-05, momentum=0.1, affine=True, track_running_stats=True)
    (1): BatchNorm1d(500, eps=1e-05, momentum=0.1, affine=True, track_running_stats=True)
    (2): BatchNorm1d(500, eps=1e-05, momentum=0.1, affine=True, track_running_stats=True)
  )
  (mdn): MDN(
    (pi): Sequential(
      (0): Linear(in_features=500, out_features=10, bias=True)
      (1): Softmax(dim=1)
    )
    (sigma): Linear(in_features=500, out_features=250, bias=True)
    (mu): Linear(in_features=500, out_features=50, bias=True)
  )
)
Chen/Chen_gaussian_10_layer_num_5_unit_500_lr_0.0001_reg_scale_0
number of trainable parameters is :
787810
Start eval now:
model in eval: MDN(
  (linears): ModuleList(
    (0): Linear(in_features=256, out_features=500, bias=True)
    (1): Linear(in_features=500, out_features=500, bias=True)
    (2): Linear(in_features=500, out_features=500, bias=True)
  )
  (bn_linears): ModuleList(
    (0): BatchNorm1d(500, eps=1e-05, momentum=0.1, affine=True, track_running_stats=True)
    (1): BatchNorm1d(500, eps=1e-05, momentum=0.1, affine=True, track_running_stats=True)
    (2): BatchNorm1d(500, eps=1e-05, momentum=0.1, affine=True, track_running_stats=True)
  )
  (mdn): MDN(
    (pi): Sequential(
      (0): Linear(in_features=500, out_features=10, bias=True)
      (1): Softmax(dim=1)
    )
    (sigma): Linear(in_features=500, out_features=250, bias=True)
    (mu): Linear(in_features=500, out_features=50, bias=True)
  )
)
size of sigma =  torch.Size([100, 10, 5, 5])
size of mu =  torch.Size([100, 10, 5])
Si3N4@@@/home/sr365/MM_Bench/Data/Chen/Si3N4_310nm-14280nm.txt shape=(1552, 3)
   lenda    re   im
0    310  2.18  0.0
1    360  2.12  0.0
2    410  2.09  0.0
3    470  2.07  0.0
4    520  2.06  0.0
Graphene@@@/home/sr365/MM_Bench/Data/Chen/Graphene_240nm-30000nm.txt shape=(28001, 3)
…
Evaluation finished
Retrieving flag object for parameters
after removing prefix models/, now model_dir is: Chen/Chen_gaussian_20_layer_num_9_unit_500_lr_0.0001_reg_scale_0.0001
In read_data, flags.data_set = Chen
flgas.data_dir =  /home/sr365/MM_Bench/Data/
data_dir =  /home/sr365/MM_Bench/Data/Chen
total number of training sample is 49900, the dimension of the feature is 5
total number of test sample is 100
Making network now
This is inference mode, the ckpt is /home/sr365/MM_Bench/MDN/models/Chen/Chen_gaussian_20_layer_num_9_unit_500_lr_0.0001_reg_scale_0.0001
MDN(
  (linears): ModuleList(
    (0): Linear(in_features=256, out_features=500, bias=True)
    (1): Linear(in_features=500, out_features=500, bias=True)
    (2): Linear(in_features=500, out_features=500, bias=True)
    (3): Linear(in_features=500, out_features=500, bias=True)
    (4): Linear(in_features=500, out_features=500, bias=True)
    (5): Linear(in_features=500, out_features=500, bias=True)
    (6): Linear(in_features=500, out_features=500, bias=True)
  )
  (bn_linears): ModuleList(
    (0): BatchNorm1d(500, eps=1e-05, momentum=0.1, affine=True, track_running_stats=True)
    (1): BatchNorm1d(500, eps=1e-05, momentum=0.1, affine=True, track_running_stats=True)
    (2): BatchNorm1d(500, eps=1e-05, momentum=0.1, affine=True, track_running_stats=True)
    (3): BatchNorm1d(500, eps=1e-05, momentum=0.1, affine=True, track_running_stats=True)
    (4): BatchNorm1d(500, eps=1e-05, momentum=0.1, affine=True, track_running_stats=True)
    (5): BatchNorm1d(500, eps=1e-05, momentum=0.1, affine=True, track_running_stats=True)
    (6): BatchNorm1d(500, eps=1e-05, momentum=0.1, affine=True, track_running_stats=True)
  )
  (mdn): MDN(
    (pi): Sequential(
      (0): Linear(in_features=500, out_features=20, bias=True)
      (1): Softmax(dim=1)
    )
    (sigma): Linear(in_features=500, out_features=500, bias=True)
    (mu): Linear(in_features=500, out_features=100, bias=True)
  )
)
Chen/Chen_gaussian_20_layer_num_9_unit_500_lr_0.0001_reg_scale_0.0001
number of trainable parameters is :
1949120
Start eval now:
model in eval: MDN(
  (linears): ModuleList(
    (0): Linear(in_features=256, out_features=500, bias=True)
    (1): Linear(in_features=500, out_features=500, bias=True)
    (2): Linear(in_features=500, out_features=500, bias=True)
    (3): Linear(in_features=500, out_features=500, bias=True)
    (4): Linear(in_features=500, out_features=500, bias=True)
    (5): Linear(in_features=500, out_features=500, bias=True)
    (6): Linear(in_features=500, out_features=500, bias=True)
  )
  (bn_linears): ModuleList(
    (0): BatchNorm1d(500, eps=1e-05, momentum=0.1, affine=True, track_running_stats=True)
    (1): BatchNorm1d(500, eps=1e-05, momentum=0.1, affine=True, track_running_stats=True)
    (2): BatchNorm1d(500, eps=1e-05, momentum=0.1, affine=True, track_running_stats=True)
    (3): BatchNorm1d(500, eps=1e-05, momentum=0.1, affine=True, track_running_stats=True)
    (4): BatchNorm1d(500, eps=1e-05, momentum=0.1, affine=True, track_running_stats=True)
    (5): BatchNorm1d(500, eps=1e-05, momentum=0.1, affine=True, track_running_stats=True)
    (6): BatchNorm1d(500, eps=1e-05, momentum=0.1, affine=True, track_running_stats=True)
  )
  (mdn): MDN(
    (pi): Sequential(
      (0): Linear(in_features=500, out_features=20, bias=True)
      (1): Softmax(dim=1)
    )
    (sigma): Linear(in_features=500, out_features=500, bias=True)
    (mu): Linear(in_features=500, out_features=100, bias=True)
  )
)
size of sigma =  torch.Size([100, 20, 5, 5])
size of mu =  torch.Size([100, 20, 5])
Si3N4@@@/home/sr365/MM_Bench/Data/Chen/Si3N4_310nm-14280nm.txt shape=(1552, 3)
   lenda    re   im
0    310  2.18  0.0
1    360  2.12  0.0
2    410  2.09  0.0
3    470  2.07  0.0
4    520  2.06  0.0
Graphene@@@/home/sr365/MM_Bench/Data/Chen/Graphene_240nm-30000nm.txt shape=(28001, 3)
…
(Avg MSE=4.1034e-06)
Evaluation finished
Retrieving flag object for parameters
after removing prefix models/, now model_dir is: Chen/Chen_gaussian_20_layer_num_6_unit_500_lr_0.0001_reg_scale_0
In read_data, flags.data_set = Chen
flgas.data_dir =  /home/sr365/MM_Bench/Data/
data_dir =  /home/sr365/MM_Bench/Data/Chen
total number of training sample is 49900, the dimension of the feature is 5
total number of test sample is 100
Making network now
This is inference mode, the ckpt is /home/sr365/MM_Bench/MDN/models/Chen/Chen_gaussian_20_layer_num_6_unit_500_lr_0.0001_reg_scale_0
MDN(
  (linears): ModuleList(
    (0): Linear(in_features=256, out_features=500, bias=True)
    (1): Linear(in_features=500, out_features=500, bias=True)
    (2): Linear(in_features=500, out_features=500, bias=True)
    (3): Linear(in_features=500, out_features=500, bias=True)
  )
  (bn_linears): ModuleList(
    (0): BatchNorm1d(500, eps=1e-05, momentum=0.1, affine=True, track_running_stats=True)
    (1): BatchNorm1d(500, eps=1e-05, momentum=0.1, affine=True, track_running_stats=True)
    (2): BatchNorm1d(500, eps=1e-05, momentum=0.1, affine=True, track_running_stats=True)
    (3): BatchNorm1d(500, eps=1e-05, momentum=0.1, affine=True, track_running_stats=True)
  )
  (mdn): MDN(
    (pi): Sequential(
      (0): Linear(in_features=500, out_features=20, bias=True)
      (1): Softmax(dim=1)
    )
    (sigma): Linear(in_features=500, out_features=500, bias=True)
    (mu): Linear(in_features=500, out_features=100, bias=True)
  )
)
Chen/Chen_gaussian_20_layer_num_6_unit_500_lr_0.0001_reg_scale_0
number of trainable parameters is :
1194620
Start eval now:
model in eval: MDN(
  (linears): ModuleList(
    (0): Linear(in_features=256, out_features=500, bias=True)
    (1): Linear(in_features=500, out_features=500, bias=True)
    (2): Linear(in_features=500, out_features=500, bias=True)
    (3): Linear(in_features=500, out_features=500, bias=True)
  )
  (bn_linears): ModuleList(
    (0): BatchNorm1d(500, eps=1e-05, momentum=0.1, affine=True, track_running_stats=True)
    (1): BatchNorm1d(500, eps=1e-05, momentum=0.1, affine=True, track_running_stats=True)
    (2): BatchNorm1d(500, eps=1e-05, momentum=0.1, affine=True, track_running_stats=True)
    (3): BatchNorm1d(500, eps=1e-05, momentum=0.1, affine=True, track_running_stats=True)
  )
  (mdn): MDN(
    (pi): Sequential(
      (0): Linear(in_features=500, out_features=20, bias=True)
      (1): Softmax(dim=1)
    )
    (sigma): Linear(in_features=500, out_features=500, bias=True)
    (mu): Linear(in_features=500, out_features=100, bias=True)
  )
)
size of sigma =  torch.Size([100, 20, 5, 5])
size of mu =  torch.Size([100, 20, 5])
Si3N4@@@/home/sr365/MM_Bench/Data/Chen/Si3N4_310nm-14280nm.txt shape=(1552, 3)
   lenda    re   im
0    310  2.18  0.0
1    360  2.12  0.0
2    410  2.09  0.0
3    470  2.07  0.0
4    520  2.06  0.0
Graphene@@@/home/sr365/MM_Bench/Data/Chen/Graphene_240nm-30000nm.txt shape=(28001, 3)
…
Evaluation finished
Retrieving flag object for parameters
after removing prefix models/, now model_dir is: Chen/Chen_gaussian_20_layer_num_7_unit_500_lr_0.0001_reg_scale_0.0001
In read_data, flags.data_set = Chen
flgas.data_dir =  /home/sr365/MM_Bench/Data/
data_dir =  /home/sr365/MM_Bench/Data/Chen
total number of training sample is 49900, the dimension of the feature is 5
total number of test sample is 100
Making network now
This is inference mode, the ckpt is /home/sr365/MM_Bench/MDN/models/Chen/Chen_gaussian_20_layer_num_7_unit_500_lr_0.0001_reg_scale_0.0001
MDN(
  (linears): ModuleList(
    (0): Linear(in_features=256, out_features=500, bias=True)
    (1): Linear(in_features=500, out_features=500, bias=True)
    (2): Linear(in_features=500, out_features=500, bias=True)
    (3): Linear(in_features=500, out_features=500, bias=True)
    (4): Linear(in_features=500, out_features=500, bias=True)
  )
  (bn_linears): ModuleList(
    (0): BatchNorm1d(500, eps=1e-05, momentum=0.1, affine=True, track_running_stats=True)
    (1): BatchNorm1d(500, eps=1e-05, momentum=0.1, affine=True, track_running_stats=True)
    (2): BatchNorm1d(500, eps=1e-05, momentum=0.1, affine=True, track_running_stats=True)
    (3): BatchNorm1d(500, eps=1e-05, momentum=0.1, affine=True, track_running_stats=True)
    (4): BatchNorm1d(500, eps=1e-05, momentum=0.1, affine=True, track_running_stats=True)
  )
  (mdn): MDN(
    (pi): Sequential(
      (0): Linear(in_features=500, out_features=20, bias=True)
      (1): Softmax(dim=1)
    )
    (sigma): Linear(in_features=500, out_features=500, bias=True)
    (mu): Linear(in_features=500, out_features=100, bias=True)
  )
)
Chen/Chen_gaussian_20_layer_num_7_unit_500_lr_0.0001_reg_scale_0.0001
number of trainable parameters is :
1446120
Start eval now:
model in eval: MDN(
  (linears): ModuleList(
    (0): Linear(in_features=256, out_features=500, bias=True)
    (1): Linear(in_features=500, out_features=500, bias=True)
    (2): Linear(in_features=500, out_features=500, bias=True)
    (3): Linear(in_features=500, out_features=500, bias=True)
    (4): Linear(in_features=500, out_features=500, bias=True)
  )
  (bn_linears): ModuleList(
    (0): BatchNorm1d(500, eps=1e-05, momentum=0.1, affine=True, track_running_stats=True)
    (1): BatchNorm1d(500, eps=1e-05, momentum=0.1, affine=True, track_running_stats=True)
    (2): BatchNorm1d(500, eps=1e-05, momentum=0.1, affine=True, track_running_stats=True)
    (3): BatchNorm1d(500, eps=1e-05, momentum=0.1, affine=True, track_running_stats=True)
    (4): BatchNorm1d(500, eps=1e-05, momentum=0.1, affine=True, track_running_stats=True)
  )
  (mdn): MDN(
    (pi): Sequential(
      (0): Linear(in_features=500, out_features=20, bias=True)
      (1): Softmax(dim=1)
    )
    (sigma): Linear(in_features=500, out_features=500, bias=True)
    (mu): Linear(in_features=500, out_features=100, bias=True)
  )
)
size of sigma =  torch.Size([100, 20, 5, 5])
size of mu =  torch.Size([100, 20, 5])
Si3N4@@@/home/sr365/MM_Bench/Data/Chen/Si3N4_310nm-14280nm.txt shape=(1552, 3)
   lenda    re   im
0    310  2.18  0.0
1    360  2.12  0.0
2    410  2.09  0.0
3    470  2.07  0.0
4    520  2.06  0.0
Graphene@@@/home/sr365/MM_Bench/Data/Chen/Graphene_240nm-30000nm.txt shape=(28001, 3)
…
(Avg MSE=4.4656e-06)
Evaluation finished
Retrieving flag object for parameters
after removing prefix models/, now model_dir is: Chen/Chen_gaussian_20_layer_num_5_unit_1000_lr_0.0001_reg_scale_0
In read_data, flags.data_set = Chen
flgas.data_dir =  /home/sr365/MM_Bench/Data/
data_dir =  /home/sr365/MM_Bench/Data/Chen
total number of training sample is 49900, the dimension of the feature is 5
total number of test sample is 100
Making network now
This is inference mode, the ckpt is /home/sr365/MM_Bench/MDN/models/Chen/Chen_gaussian_20_layer_num_5_unit_1000_lr_0.0001_reg_scale_0
MDN(
  (linears): ModuleList(
    (0): Linear(in_features=256, out_features=1000, bias=True)
    (1): Linear(in_features=1000, out_features=1000, bias=True)
    (2): Linear(in_features=1000, out_features=1000, bias=True)
  )
  (bn_linears): ModuleList(
    (0): BatchNorm1d(1000, eps=1e-05, momentum=0.1, affine=True, track_running_stats=True)
    (1): BatchNorm1d(1000, eps=1e-05, momentum=0.1, affine=True, track_running_stats=True)
    (2): BatchNorm1d(1000, eps=1e-05, momentum=0.1, affine=True, track_running_stats=True)
  )
  (mdn): MDN(
    (pi): Sequential(
      (0): Linear(in_features=1000, out_features=20, bias=True)
      (1): Softmax(dim=1)
    )
    (sigma): Linear(in_features=1000, out_features=500, bias=True)
    (mu): Linear(in_features=1000, out_features=100, bias=True)
  )
)
Chen/Chen_gaussian_20_layer_num_5_unit_1000_lr_0.0001_reg_scale_0
number of trainable parameters is :
2885620
Start eval now:
model in eval: MDN(
  (linears): ModuleList(
    (0): Linear(in_features=256, out_features=1000, bias=True)
    (1): Linear(in_features=1000, out_features=1000, bias=True)
    (2): Linear(in_features=1000, out_features=1000, bias=True)
  )
  (bn_linears): ModuleList(
    (0): BatchNorm1d(1000, eps=1e-05, momentum=0.1, affine=True, track_running_stats=True)
    (1): BatchNorm1d(1000, eps=1e-05, momentum=0.1, affine=True, track_running_stats=True)
    (2): BatchNorm1d(1000, eps=1e-05, momentum=0.1, affine=True, track_running_stats=True)
  )
  (mdn): MDN(
    (pi): Sequential(
      (0): Linear(in_features=1000, out_features=20, bias=True)
      (1): Softmax(dim=1)
    )
    (sigma): Linear(in_features=1000, out_features=500, bias=True)
    (mu): Linear(in_features=1000, out_features=100, bias=True)
  )
)
size of sigma =  torch.Size([100, 20, 5, 5])
size of mu =  torch.Size([100, 20, 5])
Si3N4@@@/home/sr365/MM_Bench/Data/Chen/Si3N4_310nm-14280nm.txt shape=(1552, 3)
   lenda    re   im
0    310  2.18  0.0
1    360  2.12  0.0
2    410  2.09  0.0
3    470  2.07  0.0
4    520  2.06  0.0
Graphene@@@/home/sr365/MM_Bench/Data/Chen/Graphene_240nm-30000nm.txt shape=(28001, 3)
…
(Avg MSE=3.4439e-06)
Evaluation finished
Retrieving flag object for parameters
after removing prefix models/, now model_dir is: Chen/Chen_gaussian_10_layer_num_9_unit_500_lr_0.0001_reg_scale_0
In read_data, flags.data_set = Chen
flgas.data_dir =  /home/sr365/MM_Bench/Data/
data_dir =  /home/sr365/MM_Bench/Data/Chen
total number of training sample is 49900, the dimension of the feature is 5
total number of test sample is 100
Making network now
This is inference mode, the ckpt is /home/sr365/MM_Bench/MDN/models/Chen/Chen_gaussian_10_layer_num_9_unit_500_lr_0.0001_reg_scale_0
MDN(
  (linears): ModuleList(
    (0): Linear(in_features=256, out_features=500, bias=True)
    (1): Linear(in_features=500, out_features=500, bias=True)
    (2): Linear(in_features=500, out_features=500, bias=True)
    (3): Linear(in_features=500, out_features=500, bias=True)
    (4): Linear(in_features=500, out_features=500, bias=True)
    (5): Linear(in_features=500, out_features=500, bias=True)
    (6): Linear(in_features=500, out_features=500, bias=True)
  )
  (bn_linears): ModuleList(
    (0): BatchNorm1d(500, eps=1e-05, momentum=0.1, affine=True, track_running_stats=True)
    (1): BatchNorm1d(500, eps=1e-05, momentum=0.1, affine=True, track_running_stats=True)
    (2): BatchNorm1d(500, eps=1e-05, momentum=0.1, affine=True, track_running_stats=True)
    (3): BatchNorm1d(500, eps=1e-05, momentum=0.1, affine=True, track_running_stats=True)
    (4): BatchNorm1d(500, eps=1e-05, momentum=0.1, affine=True, track_running_stats=True)
    (5): BatchNorm1d(500, eps=1e-05, momentum=0.1, affine=True, track_running_stats=True)
    (6): BatchNorm1d(500, eps=1e-05, momentum=0.1, affine=True, track_running_stats=True)
  )
  (mdn): MDN(
    (pi): Sequential(
      (0): Linear(in_features=500, out_features=10, bias=True)
      (1): Softmax(dim=1)
    )
    (sigma): Linear(in_features=500, out_features=250, bias=True)
    (mu): Linear(in_features=500, out_features=50, bias=True)
  )
)
Chen/Chen_gaussian_10_layer_num_9_unit_500_lr_0.0001_reg_scale_0
number of trainable parameters is :
1793810
Start eval now:
model in eval: MDN(
  (linears): ModuleList(
    (0): Linear(in_features=256, out_features=500, bias=True)
    (1): Linear(in_features=500, out_features=500, bias=True)
    (2): Linear(in_features=500, out_features=500, bias=True)
    (3): Linear(in_features=500, out_features=500, bias=True)
    (4): Linear(in_features=500, out_features=500, bias=True)
    (5): Linear(in_features=500, out_features=500, bias=True)
    (6): Linear(in_features=500, out_features=500, bias=True)
  )
  (bn_linears): ModuleList(
    (0): BatchNorm1d(500, eps=1e-05, momentum=0.1, affine=True, track_running_stats=True)
    (1): BatchNorm1d(500, eps=1e-05, momentum=0.1, affine=True, track_running_stats=True)
    (2): BatchNorm1d(500, eps=1e-05, momentum=0.1, affine=True, track_running_stats=True)
    (3): BatchNorm1d(500, eps=1e-05, momentum=0.1, affine=True, track_running_stats=True)
    (4): BatchNorm1d(500, eps=1e-05, momentum=0.1, affine=True, track_running_stats=True)
    (5): BatchNorm1d(500, eps=1e-05, momentum=0.1, affine=True, track_running_stats=True)
    (6): BatchNorm1d(500, eps=1e-05, momentum=0.1, affine=True, track_running_stats=True)
  )
  (mdn): MDN(
    (pi): Sequential(
      (0): Linear(in_features=500, out_features=10, bias=True)
      (1): Softmax(dim=1)
    )
    (sigma): Linear(in_features=500, out_features=250, bias=True)
    (mu): Linear(in_features=500, out_features=50, bias=True)
  )
)
size of sigma =  torch.Size([100, 10, 5, 5])
size of mu =  torch.Size([100, 10, 5])
Si3N4@@@/home/sr365/MM_Bench/Data/Chen/Si3N4_310nm-14280nm.txt shape=(1552, 3)
   lenda    re   im
0    310  2.18  0.0
1    360  2.12  0.0
2    410  2.09  0.0
3    470  2.07  0.0
4    520  2.06  0.0
Graphene@@@/home/sr365/MM_Bench/Data/Chen/Graphene_240nm-30000nm.txt shape=(28001, 3)
…
(Avg MSE=3.5680e-06)
Evaluation finished
Retrieving flag object for parameters
after removing prefix models/, now model_dir is: Chen/Chen_gaussian_20_layer_num_8_unit_1000_lr_0.0001_reg_scale_0
In read_data, flags.data_set = Chen
flgas.data_dir =  /home/sr365/MM_Bench/Data/
data_dir =  /home/sr365/MM_Bench/Data/Chen
total number of training sample is 49900, the dimension of the feature is 5
total number of test sample is 100
Making network now
This is inference mode, the ckpt is /home/sr365/MM_Bench/MDN/models/Chen/Chen_gaussian_20_layer_num_8_unit_1000_lr_0.0001_reg_scale_0
MDN(
  (linears): ModuleList(
    (0): Linear(in_features=256, out_features=1000, bias=True)
    (1): Linear(in_features=1000, out_features=1000, bias=True)
    (2): Linear(in_features=1000, out_features=1000, bias=True)
    (3): Linear(in_features=1000, out_features=1000, bias=True)
    (4): Linear(in_features=1000, out_features=1000, bias=True)
    (5): Linear(in_features=1000, out_features=1000, bias=True)
  )
  (bn_linears): ModuleList(
    (0): BatchNorm1d(1000, eps=1e-05, momentum=0.1, affine=True, track_running_stats=True)
    (1): BatchNorm1d(1000, eps=1e-05, momentum=0.1, affine=True, track_running_stats=True)
    (2): BatchNorm1d(1000, eps=1e-05, momentum=0.1, affine=True, track_running_stats=True)
    (3): BatchNorm1d(1000, eps=1e-05, momentum=0.1, affine=True, track_running_stats=True)
    (4): BatchNorm1d(1000, eps=1e-05, momentum=0.1, affine=True, track_running_stats=True)
    (5): BatchNorm1d(1000, eps=1e-05, momentum=0.1, affine=True, track_running_stats=True)
  )
  (mdn): MDN(
    (pi): Sequential(
      (0): Linear(in_features=1000, out_features=20, bias=True)
      (1): Softmax(dim=1)
    )
    (sigma): Linear(in_features=1000, out_features=500, bias=True)
    (mu): Linear(in_features=1000, out_features=100, bias=True)
  )
)
Chen/Chen_gaussian_20_layer_num_8_unit_1000_lr_0.0001_reg_scale_0
number of trainable parameters is :
5894620
Start eval now:
model in eval: MDN(
  (linears): ModuleList(
    (0): Linear(in_features=256, out_features=1000, bias=True)
    (1): Linear(in_features=1000, out_features=1000, bias=True)
    (2): Linear(in_features=1000, out_features=1000, bias=True)
    (3): Linear(in_features=1000, out_features=1000, bias=True)
    (4): Linear(in_features=1000, out_features=1000, bias=True)
    (5): Linear(in_features=1000, out_features=1000, bias=True)
  )
  (bn_linears): ModuleList(
    (0): BatchNorm1d(1000, eps=1e-05, momentum=0.1, affine=True, track_running_stats=True)
    (1): BatchNorm1d(1000, eps=1e-05, momentum=0.1, affine=True, track_running_stats=True)
    (2): BatchNorm1d(1000, eps=1e-05, momentum=0.1, affine=True, track_running_stats=True)
    (3): BatchNorm1d(1000, eps=1e-05, momentum=0.1, affine=True, track_running_stats=True)
    (4): BatchNorm1d(1000, eps=1e-05, momentum=0.1, affine=True, track_running_stats=True)
    (5): BatchNorm1d(1000, eps=1e-05, momentum=0.1, affine=True, track_running_stats=True)
  )
  (mdn): MDN(
    (pi): Sequential(
      (0): Linear(in_features=1000, out_features=20, bias=True)
      (1): Softmax(dim=1)
    )
    (sigma): Linear(in_features=1000, out_features=500, bias=True)
    (mu): Linear(in_features=1000, out_features=100, bias=True)
  )
)
size of sigma =  torch.Size([100, 20, 5, 5])
size of mu =  torch.Size([100, 20, 5])
Si3N4@@@/home/sr365/MM_Bench/Data/Chen/Si3N4_310nm-14280nm.txt shape=(1552, 3)
   lenda    re   im
0    310  2.18  0.0
1    360  2.12  0.0
2    410  2.09  0.0
3    470  2.07  0.0
4    520  2.06  0.0
Graphene@@@/home/sr365/MM_Bench/Data/Chen/Graphene_240nm-30000nm.txt shape=(28001, 3)
…
(Avg MSE=3.5014e-06)
Evaluation finished
Retrieving flag object for parameters
after removing prefix models/, now model_dir is: Chen/Chen_gaussian_20_layer_num_7_unit_1000_lr_0.0001_reg_scale_0
In read_data, flags.data_set = Chen
flgas.data_dir =  /home/sr365/MM_Bench/Data/
data_dir =  /home/sr365/MM_Bench/Data/Chen
total number of training sample is 49900, the dimension of the feature is 5
total number of test sample is 100
Making network now
This is inference mode, the ckpt is /home/sr365/MM_Bench/MDN/models/Chen/Chen_gaussian_20_layer_num_7_unit_1000_lr_0.0001_reg_scale_0
MDN(
  (linears): ModuleList(
    (0): Linear(in_features=256, out_features=1000, bias=True)
    (1): Linear(in_features=1000, out_features=1000, bias=True)
    (2): Linear(in_features=1000, out_features=1000, bias=True)
    (3): Linear(in_features=1000, out_features=1000, bias=True)
    (4): Linear(in_features=1000, out_features=1000, bias=True)
  )
  (bn_linears): ModuleList(
    (0): BatchNorm1d(1000, eps=1e-05, momentum=0.1, affine=True, track_running_stats=True)
    (1): BatchNorm1d(1000, eps=1e-05, momentum=0.1, affine=True, track_running_stats=True)
    (2): BatchNorm1d(1000, eps=1e-05, momentum=0.1, affine=True, track_running_stats=True)
    (3): BatchNorm1d(1000, eps=1e-05, momentum=0.1, affine=True, track_running_stats=True)
    (4): BatchNorm1d(1000, eps=1e-05, momentum=0.1, affine=True, track_running_stats=True)
  )
  (mdn): MDN(
    (pi): Sequential(
      (0): Linear(in_features=1000, out_features=20, bias=True)
      (1): Softmax(dim=1)
    )
    (sigma): Linear(in_features=1000, out_features=500, bias=True)
    (mu): Linear(in_features=1000, out_features=100, bias=True)
  )
)
Chen/Chen_gaussian_20_layer_num_7_unit_1000_lr_0.0001_reg_scale_0
number of trainable parameters is :
4891620
Start eval now:
model in eval: MDN(
  (linears): ModuleList(
    (0): Linear(in_features=256, out_features=1000, bias=True)
    (1): Linear(in_features=1000, out_features=1000, bias=True)
    (2): Linear(in_features=1000, out_features=1000, bias=True)
    (3): Linear(in_features=1000, out_features=1000, bias=True)
    (4): Linear(in_features=1000, out_features=1000, bias=True)
  )
  (bn_linears): ModuleList(
    (0): BatchNorm1d(1000, eps=1e-05, momentum=0.1, affine=True, track_running_stats=True)
    (1): BatchNorm1d(1000, eps=1e-05, momentum=0.1, affine=True, track_running_stats=True)
    (2): BatchNorm1d(1000, eps=1e-05, momentum=0.1, affine=True, track_running_stats=True)
    (3): BatchNorm1d(1000, eps=1e-05, momentum=0.1, affine=True, track_running_stats=True)
    (4): BatchNorm1d(1000, eps=1e-05, momentum=0.1, affine=True, track_running_stats=True)
  )
  (mdn): MDN(
    (pi): Sequential(
      (0): Linear(in_features=1000, out_features=20, bias=True)
      (1): Softmax(dim=1)
    )
    (sigma): Linear(in_features=1000, out_features=500, bias=True)
    (mu): Linear(in_features=1000, out_features=100, bias=True)
  )
)
size of sigma =  torch.Size([100, 20, 5, 5])
size of mu =  torch.Size([100, 20, 5])
Si3N4@@@/home/sr365/MM_Bench/Data/Chen/Si3N4_310nm-14280nm.txt shape=(1552, 3)
   lenda    re   im
0    310  2.18  0.0
1    360  2.12  0.0
2    410  2.09  0.0
3    470  2.07  0.0
4    520  2.06  0.0
Graphene@@@/home/sr365/MM_Bench/Data/Chen/Graphene_240nm-30000nm.txt shape=(28001, 3)
…
(Avg MSE=3.4670e-06)
Evaluation finished
Retrieving flag object for parameters
after removing prefix models/, now model_dir is: Chen/Chen_gaussian_5_layer_num_5_unit_1000_lr_0.0001_reg_scale_0
In read_data, flags.data_set = Chen
flgas.data_dir =  /home/sr365/MM_Bench/Data/
data_dir =  /home/sr365/MM_Bench/Data/Chen
total number of training sample is 49900, the dimension of the feature is 5
total number of test sample is 100
Making network now
This is inference mode, the ckpt is /home/sr365/MM_Bench/MDN/models/Chen/Chen_gaussian_5_layer_num_5_unit_1000_lr_0.0001_reg_scale_0
MDN(
  (linears): ModuleList(
    (0): Linear(in_features=256, out_features=1000, bias=True)
    (1): Linear(in_features=1000, out_features=1000, bias=True)
    (2): Linear(in_features=1000, out_features=1000, bias=True)
  )
  (bn_linears): ModuleList(
    (0): BatchNorm1d(1000, eps=1e-05, momentum=0.1, affine=True, track_running_stats=True)
    (1): BatchNorm1d(1000, eps=1e-05, momentum=0.1, affine=True, track_running_stats=True)
    (2): BatchNorm1d(1000, eps=1e-05, momentum=0.1, affine=True, track_running_stats=True)
  )
  (mdn): MDN(
    (pi): Sequential(
      (0): Linear(in_features=1000, out_features=5, bias=True)
      (1): Softmax(dim=1)
    )
    (sigma): Linear(in_features=1000, out_features=125, bias=True)
    (mu): Linear(in_features=1000, out_features=25, bias=True)
  )
)
Chen/Chen_gaussian_5_layer_num_5_unit_1000_lr_0.0001_reg_scale_0
number of trainable parameters is :
2420155
Start eval now:
model in eval: MDN(
  (linears): ModuleList(
    (0): Linear(in_features=256, out_features=1000, bias=True)
    (1): Linear(in_features=1000, out_features=1000, bias=True)
    (2): Linear(in_features=1000, out_features=1000, bias=True)
  )
  (bn_linears): ModuleList(
    (0): BatchNorm1d(1000, eps=1e-05, momentum=0.1, affine=True, track_running_stats=True)
    (1): BatchNorm1d(1000, eps=1e-05, momentum=0.1, affine=True, track_running_stats=True)
    (2): BatchNorm1d(1000, eps=1e-05, momentum=0.1, affine=True, track_running_stats=True)
  )
  (mdn): MDN(
    (pi): Sequential(
      (0): Linear(in_features=1000, out_features=5, bias=True)
      (1): Softmax(dim=1)
    )
    (sigma): Linear(in_features=1000, out_features=125, bias=True)
    (mu): Linear(in_features=1000, out_features=25, bias=True)
  )
)
size of sigma =  torch.Size([100, 5, 5, 5])
size of mu =  torch.Size([100, 5, 5])
Si3N4@@@/home/sr365/MM_Bench/Data/Chen/Si3N4_310nm-14280nm.txt shape=(1552, 3)
   lenda    re   im
0    310  2.18  0.0
1    360  2.12  0.0
2    410  2.09  0.0
3    470  2.07  0.0
4    520  2.06  0.0
Graphene@@@/home/sr365/MM_Bench/Data/Chen/Graphene_240nm-30000nm.txt shape=(28001, 3)
…
(Avg MSE=5.7450e-06)
Evaluation finished
Retrieving flag object for parameters
after removing prefix models/, now model_dir is: Chen/Chen_gaussian_5_layer_num_6_unit_1000_lr_0.0001_reg_scale_0
In read_data, flags.data_set = Chen
flgas.data_dir =  /home/sr365/MM_Bench/Data/
data_dir =  /home/sr365/MM_Bench/Data/Chen
total number of training sample is 49900, the dimension of the feature is 5
total number of test sample is 100
Making network now
This is inference mode, the ckpt is /home/sr365/MM_Bench/MDN/models/Chen/Chen_gaussian_5_layer_num_6_unit_1000_lr_0.0001_reg_scale_0
MDN(
  (linears): ModuleList(
    (0): Linear(in_features=256, out_features=1000, bias=True)
    (1): Linear(in_features=1000, out_features=1000, bias=True)
    (2): Linear(in_features=1000, out_features=1000, bias=True)
    (3): Linear(in_features=1000, out_features=1000, bias=True)
  )
  (bn_linears): ModuleList(
    (0): BatchNorm1d(1000, eps=1e-05, momentum=0.1, affine=True, track_running_stats=True)
    (1): BatchNorm1d(1000, eps=1e-05, momentum=0.1, affine=True, track_running_stats=True)
    (2): BatchNorm1d(1000, eps=1e-05, momentum=0.1, affine=True, track_running_stats=True)
    (3): BatchNorm1d(1000, eps=1e-05, momentum=0.1, affine=True, track_running_stats=True)
  )
  (mdn): MDN(
    (pi): Sequential(
      (0): Linear(in_features=1000, out_features=5, bias=True)
      (1): Softmax(dim=1)
    )
    (sigma): Linear(in_features=1000, out_features=125, bias=True)
    (mu): Linear(in_features=1000, out_features=25, bias=True)
  )
)
Chen/Chen_gaussian_5_layer_num_6_unit_1000_lr_0.0001_reg_scale_0
number of trainable parameters is :
3423155
Start eval now:
model in eval: MDN(
  (linears): ModuleList(
    (0): Linear(in_features=256, out_features=1000, bias=True)
    (1): Linear(in_features=1000, out_features=1000, bias=True)
    (2): Linear(in_features=1000, out_features=1000, bias=True)
    (3): Linear(in_features=1000, out_features=1000, bias=True)
  )
  (bn_linears): ModuleList(
    (0): BatchNorm1d(1000, eps=1e-05, momentum=0.1, affine=True, track_running_stats=True)
    (1): BatchNorm1d(1000, eps=1e-05, momentum=0.1, affine=True, track_running_stats=True)
    (2): BatchNorm1d(1000, eps=1e-05, momentum=0.1, affine=True, track_running_stats=True)
    (3): BatchNorm1d(1000, eps=1e-05, momentum=0.1, affine=True, track_running_stats=True)
  )
  (mdn): MDN(
    (pi): Sequential(
      (0): Linear(in_features=1000, out_features=5, bias=True)
      (1): Softmax(dim=1)
    )
    (sigma): Linear(in_features=1000, out_features=125, bias=True)
    (mu): Linear(in_features=1000, out_features=25, bias=True)
  )
)
size of sigma =  torch.Size([100, 5, 5, 5])
size of mu =  torch.Size([100, 5, 5])
Si3N4@@@/home/sr365/MM_Bench/Data/Chen/Si3N4_310nm-14280nm.txt shape=(1552, 3)
   lenda    re   im
0    310  2.18  0.0
1    360  2.12  0.0
2    410  2.09  0.0
3    470  2.07  0.0
4    520  2.06  0.0
Graphene@@@/home/sr365/MM_Bench/Data/Chen/Graphene_240nm-30000nm.txt shape=(28001, 3)
…
Evaluation finished
Retrieving flag object for parameters
after removing prefix models/, now model_dir is: Chen/Chen_gaussian_10_layer_num_4_unit_250_lr_0.0001_reg_scale_0.001
In read_data, flags.data_set = Chen
flgas.data_dir =  /home/sr365/MM_Bench/Data/
data_dir =  /home/sr365/MM_Bench/Data/Chen
total number of training sample is 49900, the dimension of the feature is 5
total number of test sample is 100
Making network now
This is inference mode, the ckpt is /home/sr365/MM_Bench/MDN/models/Chen/Chen_gaussian_10_layer_num_4_unit_250_lr_0.0001_reg_scale_0.001
MDN(
  (linears): ModuleList(
    (0): Linear(in_features=256, out_features=250, bias=True)
    (1): Linear(in_features=250, out_features=250, bias=True)
  )
  (bn_linears): ModuleList(
    (0): BatchNorm1d(250, eps=1e-05, momentum=0.1, affine=True, track_running_stats=True)
    (1): BatchNorm1d(250, eps=1e-05, momentum=0.1, affine=True, track_running_stats=True)
  )
  (mdn): MDN(
    (pi): Sequential(
      (0): Linear(in_features=250, out_features=10, bias=True)
      (1): Softmax(dim=1)
    )
    (sigma): Linear(in_features=250, out_features=250, bias=True)
    (mu): Linear(in_features=250, out_features=50, bias=True)
  )
)
Chen/Chen_gaussian_10_layer_num_4_unit_250_lr_0.0001_reg_scale_0.001
number of trainable parameters is :
205810
Start eval now:
model in eval: MDN(
  (linears): ModuleList(
    (0): Linear(in_features=256, out_features=250, bias=True)
    (1): Linear(in_features=250, out_features=250, bias=True)
  )
  (bn_linears): ModuleList(
    (0): BatchNorm1d(250, eps=1e-05, momentum=0.1, affine=True, track_running_stats=True)
    (1): BatchNorm1d(250, eps=1e-05, momentum=0.1, affine=True, track_running_stats=True)
  )
  (mdn): MDN(
    (pi): Sequential(
      (0): Linear(in_features=250, out_features=10, bias=True)
      (1): Softmax(dim=1)
    )
    (sigma): Linear(in_features=250, out_features=250, bias=True)
    (mu): Linear(in_features=250, out_features=50, bias=True)
  )
)
size of sigma =  torch.Size([100, 10, 5, 5])
size of mu =  torch.Size([100, 10, 5])
Si3N4@@@/home/sr365/MM_Bench/Data/Chen/Si3N4_310nm-14280nm.txt shape=(1552, 3)
   lenda    re   im
0    310  2.18  0.0
1    360  2.12  0.0
2    410  2.09  0.0
3    470  2.07  0.0
4    520  2.06  0.0
Graphene@@@/home/sr365/MM_Bench/Data/Chen/Graphene_240nm-30000nm.txt shape=(28001, 3)
…
(Avg MSE=3.2581e-06)
Evaluation finished
Retrieving flag object for parameters
after removing prefix models/, now model_dir is: Chen/Chen_gaussian_10_layer_num_6_unit_500_lr_0.0001_reg_scale_0
In read_data, flags.data_set = Chen
flgas.data_dir =  /home/sr365/MM_Bench/Data/
data_dir =  /home/sr365/MM_Bench/Data/Chen
total number of training sample is 49900, the dimension of the feature is 5
total number of test sample is 100
Making network now
This is inference mode, the ckpt is /home/sr365/MM_Bench/MDN/models/Chen/Chen_gaussian_10_layer_num_6_unit_500_lr_0.0001_reg_scale_0
MDN(
  (linears): ModuleList(
    (0): Linear(in_features=256, out_features=500, bias=True)
    (1): Linear(in_features=500, out_features=500, bias=True)
    (2): Linear(in_features=500, out_features=500, bias=True)
    (3): Linear(in_features=500, out_features=500, bias=True)
  )
  (bn_linears): ModuleList(
    (0): BatchNorm1d(500, eps=1e-05, momentum=0.1, affine=True, track_running_stats=True)
    (1): BatchNorm1d(500, eps=1e-05, momentum=0.1, affine=True, track_running_stats=True)
    (2): BatchNorm1d(500, eps=1e-05, momentum=0.1, affine=True, track_running_stats=True)
    (3): BatchNorm1d(500, eps=1e-05, momentum=0.1, affine=True, track_running_stats=True)
  )
  (mdn): MDN(
    (pi): Sequential(
      (0): Linear(in_features=500, out_features=10, bias=True)
      (1): Softmax(dim=1)
    )
    (sigma): Linear(in_features=500, out_features=250, bias=True)
    (mu): Linear(in_features=500, out_features=50, bias=True)
  )
)
Chen/Chen_gaussian_10_layer_num_6_unit_500_lr_0.0001_reg_scale_0
number of trainable parameters is :
1039310
Start eval now:
model in eval: MDN(
  (linears): ModuleList(
    (0): Linear(in_features=256, out_features=500, bias=True)
    (1): Linear(in_features=500, out_features=500, bias=True)
    (2): Linear(in_features=500, out_features=500, bias=True)
    (3): Linear(in_features=500, out_features=500, bias=True)
  )
  (bn_linears): ModuleList(
    (0): BatchNorm1d(500, eps=1e-05, momentum=0.1, affine=True, track_running_stats=True)
    (1): BatchNorm1d(500, eps=1e-05, momentum=0.1, affine=True, track_running_stats=True)
    (2): BatchNorm1d(500, eps=1e-05, momentum=0.1, affine=True, track_running_stats=True)
    (3): BatchNorm1d(500, eps=1e-05, momentum=0.1, affine=True, track_running_stats=True)
  )
  (mdn): MDN(
    (pi): Sequential(
      (0): Linear(in_features=500, out_features=10, bias=True)
      (1): Softmax(dim=1)
    )
    (sigma): Linear(in_features=500, out_features=250, bias=True)
    (mu): Linear(in_features=500, out_features=50, bias=True)
  )
)
size of sigma =  torch.Size([100, 10, 5, 5])
size of mu =  torch.Size([100, 10, 5])
Si3N4@@@/home/sr365/MM_Bench/Data/Chen/Si3N4_310nm-14280nm.txt shape=(1552, 3)
   lenda    re   im
0    310  2.18  0.0
1    360  2.12  0.0
2    410  2.09  0.0
3    470  2.07  0.0
4    520  2.06  0.0
Graphene@@@/home/sr365/MM_Bench/Data/Chen/Graphene_240nm-30000nm.txt shape=(28001, 3)
…
(Avg MSE=8.2670e-06)
Evaluation finished
Retrieving flag object for parameters
after removing prefix models/, now model_dir is: Chen/Chen_gaussian_5_layer_num_9_unit_500_lr_0.0001_reg_scale_0
In read_data, flags.data_set = Chen
flgas.data_dir =  /home/sr365/MM_Bench/Data/
data_dir =  /home/sr365/MM_Bench/Data/Chen
total number of training sample is 49900, the dimension of the feature is 5
total number of test sample is 100
Making network now
This is inference mode, the ckpt is /home/sr365/MM_Bench/MDN/models/Chen/Chen_gaussian_5_layer_num_9_unit_500_lr_0.0001_reg_scale_0
MDN(
  (linears): ModuleList(
    (0): Linear(in_features=256, out_features=500, bias=True)
    (1): Linear(in_features=500, out_features=500, bias=True)
    (2): Linear(in_features=500, out_features=500, bias=True)
    (3): Linear(in_features=500, out_features=500, bias=True)
    (4): Linear(in_features=500, out_features=500, bias=True)
    (5): Linear(in_features=500, out_features=500, bias=True)
    (6): Linear(in_features=500, out_features=500, bias=True)
  )
  (bn_linears): ModuleList(
    (0): BatchNorm1d(500, eps=1e-05, momentum=0.1, affine=True, track_running_stats=True)
    (1): BatchNorm1d(500, eps=1e-05, momentum=0.1, affine=True, track_running_stats=True)
    (2): BatchNorm1d(500, eps=1e-05, momentum=0.1, affine=True, track_running_stats=True)
    (3): BatchNorm1d(500, eps=1e-05, momentum=0.1, affine=True, track_running_stats=True)
    (4): BatchNorm1d(500, eps=1e-05, momentum=0.1, affine=True, track_running_stats=True)
    (5): BatchNorm1d(500, eps=1e-05, momentum=0.1, affine=True, track_running_stats=True)
    (6): BatchNorm1d(500, eps=1e-05, momentum=0.1, affine=True, track_running_stats=True)
  )
  (mdn): MDN(
    (pi): Sequential(
      (0): Linear(in_features=500, out_features=5, bias=True)
      (1): Softmax(dim=1)
    )
    (sigma): Linear(in_features=500, out_features=125, bias=True)
    (mu): Linear(in_features=500, out_features=25, bias=True)
  )
)
Chen/Chen_gaussian_5_layer_num_9_unit_500_lr_0.0001_reg_scale_0
number of trainable parameters is :
1716155
Start eval now:
model in eval: MDN(
  (linears): ModuleList(
    (0): Linear(in_features=256, out_features=500, bias=True)
    (1): Linear(in_features=500, out_features=500, bias=True)
    (2): Linear(in_features=500, out_features=500, bias=True)
    (3): Linear(in_features=500, out_features=500, bias=True)
    (4): Linear(in_features=500, out_features=500, bias=True)
    (5): Linear(in_features=500, out_features=500, bias=True)
    (6): Linear(in_features=500, out_features=500, bias=True)
  )
  (bn_linears): ModuleList(
    (0): BatchNorm1d(500, eps=1e-05, momentum=0.1, affine=True, track_running_stats=True)
    (1): BatchNorm1d(500, eps=1e-05, momentum=0.1, affine=True, track_running_stats=True)
    (2): BatchNorm1d(500, eps=1e-05, momentum=0.1, affine=True, track_running_stats=True)
    (3): BatchNorm1d(500, eps=1e-05, momentum=0.1, affine=True, track_running_stats=True)
    (4): BatchNorm1d(500, eps=1e-05, momentum=0.1, affine=True, track_running_stats=True)
    (5): BatchNorm1d(500, eps=1e-05, momentum=0.1, affine=True, track_running_stats=True)
    (6): BatchNorm1d(500, eps=1e-05, momentum=0.1, affine=True, track_running_stats=True)
  )
  (mdn): MDN(
    (pi): Sequential(
      (0): Linear(in_features=500, out_features=5, bias=True)
      (1): Softmax(dim=1)
    )
    (sigma): Linear(in_features=500, out_features=125, bias=True)
    (mu): Linear(in_features=500, out_features=25, bias=True)
  )
)
size of sigma =  torch.Size([100, 5, 5, 5])
size of mu =  torch.Size([100, 5, 5])
Si3N4@@@/home/sr365/MM_Bench/Data/Chen/Si3N4_310nm-14280nm.txt shape=(1552, 3)
   lenda    re   im
0    310  2.18  0.0
1    360  2.12  0.0
2    410  2.09  0.0
3    470  2.07  0.0
4    520  2.06  0.0
Graphene@@@/home/sr365/MM_Bench/Data/Chen/Graphene_240nm-30000nm.txt shape=(28001, 3)
…
Evaluation finished
Retrieving flag object for parameters
after removing prefix models/, now model_dir is: Chen/Chen_gaussian_10_layer_num_7_unit_1000_lr_0.0001_reg_scale_0.0001
In read_data, flags.data_set = Chen
flgas.data_dir =  /home/sr365/MM_Bench/Data/
data_dir =  /home/sr365/MM_Bench/Data/Chen
total number of training sample is 49900, the dimension of the feature is 5
total number of test sample is 100
Making network now
This is inference mode, the ckpt is /home/sr365/MM_Bench/MDN/models/Chen/Chen_gaussian_10_layer_num_7_unit_1000_lr_0.0001_reg_scale_0.0001
MDN(
  (linears): ModuleList(
    (0): Linear(in_features=256, out_features=1000, bias=True)
    (1): Linear(in_features=1000, out_features=1000, bias=True)
    (2): Linear(in_features=1000, out_features=1000, bias=True)
    (3): Linear(in_features=1000, out_features=1000, bias=True)
    (4): Linear(in_features=1000, out_features=1000, bias=True)
  )
  (bn_linears): ModuleList(
    (0): BatchNorm1d(1000, eps=1e-05, momentum=0.1, affine=True, track_running_stats=True)
    (1): BatchNorm1d(1000, eps=1e-05, momentum=0.1, affine=True, track_running_stats=True)
    (2): BatchNorm1d(1000, eps=1e-05, momentum=0.1, affine=True, track_running_stats=True)
    (3): BatchNorm1d(1000, eps=1e-05, momentum=0.1, affine=True, track_running_stats=True)
    (4): BatchNorm1d(1000, eps=1e-05, momentum=0.1, affine=True, track_running_stats=True)
  )
  (mdn): MDN(
    (pi): Sequential(
      (0): Linear(in_features=1000, out_features=10, bias=True)
      (1): Softmax(dim=1)
    )
    (sigma): Linear(in_features=1000, out_features=250, bias=True)
    (mu): Linear(in_features=1000, out_features=50, bias=True)
  )
)
Chen/Chen_gaussian_10_layer_num_7_unit_1000_lr_0.0001_reg_scale_0.0001
number of trainable parameters is :
4581310
Start eval now:
model in eval: MDN(
  (linears): ModuleList(
    (0): Linear(in_features=256, out_features=1000, bias=True)
    (1): Linear(in_features=1000, out_features=1000, bias=True)
    (2): Linear(in_features=1000, out_features=1000, bias=True)
    (3): Linear(in_features=1000, out_features=1000, bias=True)
    (4): Linear(in_features=1000, out_features=1000, bias=True)
  )
  (bn_linears): ModuleList(
    (0): BatchNorm1d(1000, eps=1e-05, momentum=0.1, affine=True, track_running_stats=True)
    (1): BatchNorm1d(1000, eps=1e-05, momentum=0.1, affine=True, track_running_stats=True)
    (2): BatchNorm1d(1000, eps=1e-05, momentum=0.1, affine=True, track_running_stats=True)
    (3): BatchNorm1d(1000, eps=1e-05, momentum=0.1, affine=True, track_running_stats=True)
    (4): BatchNorm1d(1000, eps=1e-05, momentum=0.1, affine=True, track_running_stats=True)
  )
  (mdn): MDN(
    (pi): Sequential(
      (0): Linear(in_features=1000, out_features=10, bias=True)
      (1): Softmax(dim=1)
    )
    (sigma): Linear(in_features=1000, out_features=250, bias=True)
    (mu): Linear(in_features=1000, out_features=50, bias=True)
  )
)
size of sigma =  torch.Size([100, 10, 5, 5])
size of mu =  torch.Size([100, 10, 5])
Si3N4@@@/home/sr365/MM_Bench/Data/Chen/Si3N4_310nm-14280nm.txt shape=(1552, 3)
   lenda    re   im
0    310  2.18  0.0
1    360  2.12  0.0
2    410  2.09  0.0
3    470  2.07  0.0
4    520  2.06  0.0
Graphene@@@/home/sr365/MM_Bench/Data/Chen/Graphene_240nm-30000nm.txt shape=(28001, 3)
…
Evaluation finished
Retrieving flag object for parameters
after removing prefix models/, now model_dir is: Chen/Chen_gaussian_5_layer_num_5_unit_500_lr_0.0001_reg_scale_0.0001
In read_data, flags.data_set = Chen
flgas.data_dir =  /home/sr365/MM_Bench/Data/
data_dir =  /home/sr365/MM_Bench/Data/Chen
total number of training sample is 49900, the dimension of the feature is 5
total number of test sample is 100
Making network now
This is inference mode, the ckpt is /home/sr365/MM_Bench/MDN/models/Chen/Chen_gaussian_5_layer_num_5_unit_500_lr_0.0001_reg_scale_0.0001
MDN(
  (linears): ModuleList(
    (0): Linear(in_features=256, out_features=500, bias=True)
    (1): Linear(in_features=500, out_features=500, bias=True)
    (2): Linear(in_features=500, out_features=500, bias=True)
  )
  (bn_linears): ModuleList(
    (0): BatchNorm1d(500, eps=1e-05, momentum=0.1, affine=True, track_running_stats=True)
    (1): BatchNorm1d(500, eps=1e-05, momentum=0.1, affine=True, track_running_stats=True)
    (2): BatchNorm1d(500, eps=1e-05, momentum=0.1, affine=True, track_running_stats=True)
  )
  (mdn): MDN(
    (pi): Sequential(
      (0): Linear(in_features=500, out_features=5, bias=True)
      (1): Softmax(dim=1)
    )
    (sigma): Linear(in_features=500, out_features=125, bias=True)
    (mu): Linear(in_features=500, out_features=25, bias=True)
  )
)
Chen/Chen_gaussian_5_layer_num_5_unit_500_lr_0.0001_reg_scale_0.0001
number of trainable parameters is :
710155
Start eval now:
model in eval: MDN(
  (linears): ModuleList(
    (0): Linear(in_features=256, out_features=500, bias=True)
    (1): Linear(in_features=500, out_features=500, bias=True)
    (2): Linear(in_features=500, out_features=500, bias=True)
  )
  (bn_linears): ModuleList(
    (0): BatchNorm1d(500, eps=1e-05, momentum=0.1, affine=True, track_running_stats=True)
    (1): BatchNorm1d(500, eps=1e-05, momentum=0.1, affine=True, track_running_stats=True)
    (2): BatchNorm1d(500, eps=1e-05, momentum=0.1, affine=True, track_running_stats=True)
  )
  (mdn): MDN(
    (pi): Sequential(
      (0): Linear(in_features=500, out_features=5, bias=True)
      (1): Softmax(dim=1)
    )
    (sigma): Linear(in_features=500, out_features=125, bias=True)
    (mu): Linear(in_features=500, out_features=25, bias=True)
  )
)
size of sigma =  torch.Size([100, 5, 5, 5])
size of mu =  torch.Size([100, 5, 5])
Si3N4@@@/home/sr365/MM_Bench/Data/Chen/Si3N4_310nm-14280nm.txt shape=(1552, 3)
   lenda    re   im
0    310  2.18  0.0
1    360  2.12  0.0
2    410  2.09  0.0
3    470  2.07  0.0
4    520  2.06  0.0
Graphene@@@/home/sr365/MM_Bench/Data/Chen/Graphene_240nm-30000nm.txt shape=(28001, 3)
…
(Avg MSE=3.4679e-06)
Evaluation finished
Retrieving flag object for parameters
after removing prefix models/, now model_dir is: Chen/Chen_gaussian_5_layer_num_9_unit_1000_lr_0.0001_reg_scale_0
In read_data, flags.data_set = Chen
flgas.data_dir =  /home/sr365/MM_Bench/Data/
data_dir =  /home/sr365/MM_Bench/Data/Chen
total number of training sample is 49900, the dimension of the feature is 5
total number of test sample is 100
Making network now
This is inference mode, the ckpt is /home/sr365/MM_Bench/MDN/models/Chen/Chen_gaussian_5_layer_num_9_unit_1000_lr_0.0001_reg_scale_0
MDN(
  (linears): ModuleList(
    (0): Linear(in_features=256, out_features=1000, bias=True)
    (1): Linear(in_features=1000, out_features=1000, bias=True)
    (2): Linear(in_features=1000, out_features=1000, bias=True)
    (3): Linear(in_features=1000, out_features=1000, bias=True)
    (4): Linear(in_features=1000, out_features=1000, bias=True)
    (5): Linear(in_features=1000, out_features=1000, bias=True)
    (6): Linear(in_features=1000, out_features=1000, bias=True)
  )
  (bn_linears): ModuleList(
    (0): BatchNorm1d(1000, eps=1e-05, momentum=0.1, affine=True, track_running_stats=True)
    (1): BatchNorm1d(1000, eps=1e-05, momentum=0.1, affine=True, track_running_stats=True)
    (2): BatchNorm1d(1000, eps=1e-05, momentum=0.1, affine=True, track_running_stats=True)
    (3): BatchNorm1d(1000, eps=1e-05, momentum=0.1, affine=True, track_running_stats=True)
    (4): BatchNorm1d(1000, eps=1e-05, momentum=0.1, affine=True, track_running_stats=True)
    (5): BatchNorm1d(1000, eps=1e-05, momentum=0.1, affine=True, track_running_stats=True)
    (6): BatchNorm1d(1000, eps=1e-05, momentum=0.1, affine=True, track_running_stats=True)
  )
  (mdn): MDN(
    (pi): Sequential(
      (0): Linear(in_features=1000, out_features=5, bias=True)
      (1): Softmax(dim=1)
    )
    (sigma): Linear(in_features=1000, out_features=125, bias=True)
    (mu): Linear(in_features=1000, out_features=25, bias=True)
  )
)
Chen/Chen_gaussian_5_layer_num_9_unit_1000_lr_0.0001_reg_scale_0
number of trainable parameters is :
6432155
Start eval now:
model in eval: MDN(
  (linears): ModuleList(
    (0): Linear(in_features=256, out_features=1000, bias=True)
    (1): Linear(in_features=1000, out_features=1000, bias=True)
    (2): Linear(in_features=1000, out_features=1000, bias=True)
    (3): Linear(in_features=1000, out_features=1000, bias=True)
    (4): Linear(in_features=1000, out_features=1000, bias=True)
    (5): Linear(in_features=1000, out_features=1000, bias=True)
    (6): Linear(in_features=1000, out_features=1000, bias=True)
  )
  (bn_linears): ModuleList(
    (0): BatchNorm1d(1000, eps=1e-05, momentum=0.1, affine=True, track_running_stats=True)
    (1): BatchNorm1d(1000, eps=1e-05, momentum=0.1, affine=True, track_running_stats=True)
    (2): BatchNorm1d(1000, eps=1e-05, momentum=0.1, affine=True, track_running_stats=True)
    (3): BatchNorm1d(1000, eps=1e-05, momentum=0.1, affine=True, track_running_stats=True)
    (4): BatchNorm1d(1000, eps=1e-05, momentum=0.1, affine=True, track_running_stats=True)
    (5): BatchNorm1d(1000, eps=1e-05, momentum=0.1, affine=True, track_running_stats=True)
    (6): BatchNorm1d(1000, eps=1e-05, momentum=0.1, affine=True, track_running_stats=True)
  )
  (mdn): MDN(
    (pi): Sequential(
      (0): Linear(in_features=1000, out_features=5, bias=True)
      (1): Softmax(dim=1)
    )
    (sigma): Linear(in_features=1000, out_features=125, bias=True)
    (mu): Linear(in_features=1000, out_features=25, bias=True)
  )
)
size of sigma =  torch.Size([100, 5, 5, 5])
size of mu =  torch.Size([100, 5, 5])
Si3N4@@@/home/sr365/MM_Bench/Data/Chen/Si3N4_310nm-14280nm.txt shape=(1552, 3)
   lenda    re   im
0    310  2.18  0.0
1    360  2.12  0.0
2    410  2.09  0.0
3    470  2.07  0.0
4    520  2.06  0.0
Graphene@@@/home/sr365/MM_Bench/Data/Chen/Graphene_240nm-30000nm.txt shape=(28001, 3)
…
size of mu =  torch.Size([1024, 5, 3])
This is Epoch 260, training loss -11.04506, validation loss 0.00047
Saving the model down...
Doing Evaluation on the model now
size of sigma =  torch.Size([1024, 5, 3, 3])
size of mu =  torch.Size([1024, 5, 3])
This is Epoch 280, training loss -11.22796, validation loss 0.00041
Saving the model down...
In read_data, flags.data_set = Peurifoy
shape of data_x (50000, 3)
shape of data_y (50000, 201)
total number of training sample is 40000, the dimension of the feature is 3
total number of test sample is 10000
Making network now
MDN(
  (linears): ModuleList(
    (0): Linear(in_features=201, out_features=500, bias=True)
    (1): Linear(in_features=500, out_features=500, bias=True)
    (2): Linear(in_features=500, out_features=500, bias=True)
    (3): Linear(in_features=500, out_features=500, bias=True)
    (4): Linear(in_features=500, out_features=500, bias=True)
    (5): Linear(in_features=500, out_features=500, bias=True)
    (6): Linear(in_features=500, out_features=500, bias=True)
  )
  (bn_linears): ModuleList(
    (0): BatchNorm1d(500, eps=1e-05, momentum=0.1, affine=True, track_running_stats=True)
    (1): BatchNorm1d(500, eps=1e-05, momentum=0.1, affine=True, track_running_stats=True)
    (2): BatchNorm1d(500, eps=1e-05, momentum=0.1, affine=True, track_running_stats=True)
    (3): BatchNorm1d(500, eps=1e-05, momentum=0.1, affine=True, track_running_stats=True)
    (4): BatchNorm1d(500, eps=1e-05, momentum=0.1, affine=True, track_running_stats=True)
    (5): BatchNorm1d(500, eps=1e-05, momentum=0.1, affine=True, track_running_stats=True)
    (6): BatchNorm1d(500, eps=1e-05, momentum=0.1, affine=True, track_running_stats=True)
  )
  (mdn): MDN(
    (pi): Sequential(
      (0): Linear(in_features=500, out_features=10, bias=True)
      (1): Softmax(dim=1)
    )
    (sigma): Linear(in_features=500, out_features=90, bias=True)
    (mu): Linear(in_features=500, out_features=30, bias=True)
  )
)
Start training now...
Doing Evaluation on the model now
size of sigma =  torch.Size([1024, 10, 3, 3])
size of mu =  torch.Size([1024, 10, 3])
This is Epoch 0, training loss 0.04397, validation loss 0.29738
Saving the model down...
Doing Evaluation on the model now
size of sigma =  torch.Size([1024, 10, 3, 3])
size of mu =  torch.Size([1024, 10, 3])
…
size of mu =  torch.Size([1024, 10, 3])
This is Epoch 260, training loss -10.97115, validation loss 0.00051
Saving the model down...
Doing Evaluation on the model now
size of sigma =  torch.Size([1024, 10, 3, 3])
size of mu =  torch.Size([1024, 10, 3])
This is Epoch 280, training loss -11.17848, validation loss 0.00047
Saving the model down...
In read_data, flags.data_set = Peurifoy
shape of data_x (50000, 3)
shape of data_y (50000, 201)
total number of training sample is 40000, the dimension of the feature is 3
total number of test sample is 10000
Making network now
MDN(
  (linears): ModuleList(
    (0): Linear(in_features=201, out_features=500, bias=True)
    (1): Linear(in_features=500, out_features=500, bias=True)
    (2): Linear(in_features=500, out_features=500, bias=True)
    (3): Linear(in_features=500, out_features=500, bias=True)
    (4): Linear(in_features=500, out_features=500, bias=True)
    (5): Linear(in_features=500, out_features=500, bias=True)
    (6): Linear(in_features=500, out_features=500, bias=True)
  )
  (bn_linears): ModuleList(
    (0): BatchNorm1d(500, eps=1e-05, momentum=0.1, affine=True, track_running_stats=True)
    (1): BatchNorm1d(500, eps=1e-05, momentum=0.1, affine=True, track_running_stats=True)
    (2): BatchNorm1d(500, eps=1e-05, momentum=0.1, affine=True, track_running_stats=True)
    (3): BatchNorm1d(500, eps=1e-05, momentum=0.1, affine=True, track_running_stats=True)
    (4): BatchNorm1d(500, eps=1e-05, momentum=0.1, affine=True, track_running_stats=True)
    (5): BatchNorm1d(500, eps=1e-05, momentum=0.1, affine=True, track_running_stats=True)
    (6): BatchNorm1d(500, eps=1e-05, momentum=0.1, affine=True, track_running_stats=True)
  )
  (mdn): MDN(
    (pi): Sequential(
      (0): Linear(in_features=500, out_features=20, bias=True)
      (1): Softmax(dim=1)
    )
    (sigma): Linear(in_features=500, out_features=180, bias=True)
    (mu): Linear(in_features=500, out_features=60, bias=True)
  )
)
Start training now...
Doing Evaluation on the model now
size of sigma =  torch.Size([1024, 20, 3, 3])
size of mu =  torch.Size([1024, 20, 3])
This is Epoch 0, training loss 0.41593, validation loss 0.27774
Saving the model down...
Doing Evaluation on the model now
size of sigma =  torch.Size([1024, 20, 3, 3])
size of mu =  torch.Size([1024, 20, 3])
…
size of mu =  torch.Size([1024, 20, 3])
This is Epoch 260, training loss -10.82040, validation loss 0.00038
Saving the model down...
Doing Evaluation on the model now
size of sigma =  torch.Size([1024, 20, 3, 3])
size of mu =  torch.Size([1024, 20, 3])
This is Epoch 280, training loss -11.14701, validation loss 0.00032
Saving the model down...
In read_data, flags.data_set = Peurifoy
shape of data_x (50000, 3)
shape of data_y (50000, 201)
total number of training sample is 40000, the dimension of the feature is 3
total number of test sample is 10000
Making network now
MDN(
  (linears): ModuleList(
    (0): Linear(in_features=201, out_features=1000, bias=True)
    (1): Linear(in_features=1000, out_features=1000, bias=True)
    (2): Linear(in_features=1000, out_features=1000, bias=True)
    (3): Linear(in_features=1000, out_features=1000, bias=True)
    (4): Linear(in_features=1000, out_features=1000, bias=True)
    (5): Linear(in_features=1000, out_features=1000, bias=True)
    (6): Linear(in_features=1000, out_features=1000, bias=True)
  )
  (bn_linears): ModuleList(
    (0): BatchNorm1d(1000, eps=1e-05, momentum=0.1, affine=True, track_running_stats=True)
    (1): BatchNorm1d(1000, eps=1e-05, momentum=0.1, affine=True, track_running_stats=True)
    (2): BatchNorm1d(1000, eps=1e-05, momentum=0.1, affine=True, track_running_stats=True)
    (3): BatchNorm1d(1000, eps=1e-05, momentum=0.1, affine=True, track_running_stats=True)
    (4): BatchNorm1d(1000, eps=1e-05, momentum=0.1, affine=True, track_running_stats=True)
    (5): BatchNorm1d(1000, eps=1e-05, momentum=0.1, affine=True, track_running_stats=True)
    (6): BatchNorm1d(1000, eps=1e-05, momentum=0.1, affine=True, track_running_stats=True)
  )
  (mdn): MDN(
    (pi): Sequential(
      (0): Linear(in_features=1000, out_features=5, bias=True)
      (1): Softmax(dim=1)
    )
    (sigma): Linear(in_features=1000, out_features=45, bias=True)
    (mu): Linear(in_features=1000, out_features=15, bias=True)
  )
)
Start training now...
Doing Evaluation on the model now
size of sigma =  torch.Size([1024, 5, 3, 3])
size of mu =  torch.Size([1024, 5, 3])
This is Epoch 0, training loss -2.02523, validation loss 0.10280
Saving the model down...
Doing Evaluation on the model now
size of sigma =  torch.Size([1024, 5, 3, 3])
size of mu =  torch.Size([1024, 5, 3])
This is Epoch 20, training loss -7.50734, validation loss 0.00525
…
This is Epoch 260, training loss -11.08348, validation loss 0.00052
Epoch   270: reducing learning rate of group 0 to 1.6777e-05.
Doing Evaluation on the model now
size of sigma =  torch.Size([1024, 5, 3, 3])
size of mu =  torch.Size([1024, 5, 3])
This is Epoch 280, training loss -10.83699, validation loss 0.00037
Saving the model down...
Epoch   281: reducing learning rate of group 0 to 1.3422e-05.
In read_data, flags.data_set = Peurifoy
shape of data_x (50000, 3)
shape of data_y (50000, 201)
total number of training sample is 40000, the dimension of the feature is 3
total number of test sample is 10000
Making network now
MDN(
  (linears): ModuleList(
    (0): Linear(in_features=201, out_features=1000, bias=True)
    (1): Linear(in_features=1000, out_features=1000, bias=True)
    (2): Linear(in_features=1000, out_features=1000, bias=True)
    (3): Linear(in_features=1000, out_features=1000, bias=True)
    (4): Linear(in_features=1000, out_features=1000, bias=True)
    (5): Linear(in_features=1000, out_features=1000, bias=True)
    (6): Linear(in_features=1000, out_features=1000, bias=True)
  )
  (bn_linears): ModuleList(
    (0): BatchNorm1d(1000, eps=1e-05, momentum=0.1, affine=True, track_running_stats=True)
    (1): BatchNorm1d(1000, eps=1e-05, momentum=0.1, affine=True, track_running_stats=True)
    (2): BatchNorm1d(1000, eps=1e-05, momentum=0.1, affine=True, track_running_stats=True)
    (3): BatchNorm1d(1000, eps=1e-05, momentum=0.1, affine=True, track_running_stats=True)
    (4): BatchNorm1d(1000, eps=1e-05, momentum=0.1, affine=True, track_running_stats=True)
    (5): BatchNorm1d(1000, eps=1e-05, momentum=0.1, affine=True, track_running_stats=True)
    (6): BatchNorm1d(1000, eps=1e-05, momentum=0.1, affine=True, track_running_stats=True)
  )
  (mdn): MDN(
    (pi): Sequential(
      (0): Linear(in_features=1000, out_features=10, bias=True)
      (1): Softmax(dim=1)
    )
    (sigma): Linear(in_features=1000, out_features=90, bias=True)
    (mu): Linear(in_features=1000, out_features=30, bias=True)
  )
)
Start training now...
Doing Evaluation on the model now
size of sigma =  torch.Size([1024, 10, 3, 3])
size of mu =  torch.Size([1024, 10, 3])
This is Epoch 0, training loss -2.18642, validation loss 0.08278
Saving the model down...
Doing Evaluation on the model now
size of sigma =  torch.Size([1024, 10, 3, 3])
size of mu =  torch.Size([1024, 10, 3])
…
Doing Evaluation on the model now
size of sigma =  torch.Size([1024, 10, 3, 3])
size of mu =  torch.Size([1024, 10, 3])
This is Epoch 280, training loss -11.25991, validation loss 0.00032
Saving the model down...
Epoch   283: reducing learning rate of group 0 to 8.5899e-06.
Epoch   294: reducing learning rate of group 0 to 6.8719e-06.
In read_data, flags.data_set = Peurifoy
shape of data_x (50000, 3)
shape of data_y (50000, 201)
total number of training sample is 40000, the dimension of the feature is 3
total number of test sample is 10000
Making network now
MDN(
  (linears): ModuleList(
    (0): Linear(in_features=201, out_features=1000, bias=True)
    (1): Linear(in_features=1000, out_features=1000, bias=True)
    (2): Linear(in_features=1000, out_features=1000, bias=True)
    (3): Linear(in_features=1000, out_features=1000, bias=True)
    (4): Linear(in_features=1000, out_features=1000, bias=True)
    (5): Linear(in_features=1000, out_features=1000, bias=True)
    (6): Linear(in_features=1000, out_features=1000, bias=True)
  )
  (bn_linears): ModuleList(
    (0): BatchNorm1d(1000, eps=1e-05, momentum=0.1, affine=True, track_running_stats=True)
    (1): BatchNorm1d(1000, eps=1e-05, momentum=0.1, affine=True, track_running_stats=True)
    (2): BatchNorm1d(1000, eps=1e-05, momentum=0.1, affine=True, track_running_stats=True)
    (3): BatchNorm1d(1000, eps=1e-05, momentum=0.1, affine=True, track_running_stats=True)
    (4): BatchNorm1d(1000, eps=1e-05, momentum=0.1, affine=True, track_running_stats=True)
    (5): BatchNorm1d(1000, eps=1e-05, momentum=0.1, affine=True, track_running_stats=True)
    (6): BatchNorm1d(1000, eps=1e-05, momentum=0.1, affine=True, track_running_stats=True)
  )
  (mdn): MDN(
    (pi): Sequential(
      (0): Linear(in_features=1000, out_features=20, bias=True)
      (1): Softmax(dim=1)
    )
    (sigma): Linear(in_features=1000, out_features=180, bias=True)
    (mu): Linear(in_features=1000, out_features=60, bias=True)
  )
)
Start training now...
Doing Evaluation on the model now
size of sigma =  torch.Size([1024, 20, 3, 3])
size of mu =  torch.Size([1024, 20, 3])
This is Epoch 0, training loss -2.05534, validation loss 0.08885
Saving the model down...
Doing Evaluation on the model now
size of sigma =  torch.Size([1024, 20, 3, 3])
size of mu =  torch.Size([1024, 20, 3])
…
