In read_data, flags.data_set = Peurifoy
shape of data_x (50000, 3)
shape of data_y (50000, 201)
total number of training sample is 40000, the dimension of the feature is 3
total number of test sample is 10000
Making network now
MDN(
  (linears): ModuleList(
    (0): Linear(in_features=201, out_features=500, bias=True)
    (1): Linear(in_features=500, out_features=500, bias=True)
    (2): Linear(in_features=500, out_features=500, bias=True)
    (3): Linear(in_features=500, out_features=500, bias=True)
    (4): Linear(in_features=500, out_features=500, bias=True)
    (5): Linear(in_features=500, out_features=500, bias=True)
  )
  (bn_linears): ModuleList(
    (0): BatchNorm1d(500, eps=1e-05, momentum=0.1, affine=True, track_running_stats=True)
    (1): BatchNorm1d(500, eps=1e-05, momentum=0.1, affine=True, track_running_stats=True)
    (2): BatchNorm1d(500, eps=1e-05, momentum=0.1, affine=True, track_running_stats=True)
    (3): BatchNorm1d(500, eps=1e-05, momentum=0.1, affine=True, track_running_stats=True)
    (4): BatchNorm1d(500, eps=1e-05, momentum=0.1, affine=True, track_running_stats=True)
    (5): BatchNorm1d(500, eps=1e-05, momentum=0.1, affine=True, track_running_stats=True)
  )
  (mdn): MDN(
    (pi): Sequential(
      (0): Linear(in_features=500, out_features=12, bias=True)
      (1): Softmax(dim=1)
    )
    (sigma): Linear(in_features=500, out_features=108, bias=True)
    (mu): Linear(in_features=500, out_features=36, bias=True)
  )
)
Start training now...
Doing Evaluation on the model now
size of sigma =  torch.Size([1024, 12, 3, 3])
size of mu =  torch.Size([1024, 12, 3])
This is Epoch 0, training loss -0.01341, validation loss 0.29887
Saving the model down...
Doing Evaluation on the model now
size of sigma =  torch.Size([1024, 12, 3, 3])
size of mu =  torch.Size([1024, 12, 3])
…
Epoch   275: reducing learning rate of group 0 to 1.6777e-05.
Doing Evaluation on the model now
size of sigma =  torch.Size([1024, 12, 3, 3])
size of mu =  torch.Size([1024, 12, 3])
This is Epoch 280, training loss -10.74624, validation loss 0.00037
Saving the model down...
Epoch   286: reducing learning rate of group 0 to 1.3422e-05.
In read_data, flags.data_set = Peurifoy
shape of data_x (50000, 3)
shape of data_y (50000, 201)
total number of training sample is 40000, the dimension of the feature is 3
total number of test sample is 10000
Making network now
MDN(
  (linears): ModuleList(
    (0): Linear(in_features=201, out_features=500, bias=True)
    (1): Linear(in_features=500, out_features=500, bias=True)
    (2): Linear(in_features=500, out_features=500, bias=True)
    (3): Linear(in_features=500, out_features=500, bias=True)
    (4): Linear(in_features=500, out_features=500, bias=True)
    (5): Linear(in_features=500, out_features=500, bias=True)
  )
  (bn_linears): ModuleList(
    (0): BatchNorm1d(500, eps=1e-05, momentum=0.1, affine=True, track_running_stats=True)
    (1): BatchNorm1d(500, eps=1e-05, momentum=0.1, affine=True, track_running_stats=True)
    (2): BatchNorm1d(500, eps=1e-05, momentum=0.1, affine=True, track_running_stats=True)
    (3): BatchNorm1d(500, eps=1e-05, momentum=0.1, affine=True, track_running_stats=True)
    (4): BatchNorm1d(500, eps=1e-05, momentum=0.1, affine=True, track_running_stats=True)
    (5): BatchNorm1d(500, eps=1e-05, momentum=0.1, affine=True, track_running_stats=True)
  )
  (mdn): MDN(
    (pi): Sequential(
      (0): Linear(in_features=500, out_features=17, bias=True)
      (1): Softmax(dim=1)
    )
    (sigma): Linear(in_features=500, out_features=153, bias=True)
    (mu): Linear(in_features=500, out_features=51, bias=True)
  )
)
Start training now...
Doing Evaluation on the model now
size of sigma =  torch.Size([1024, 17, 3, 3])
size of mu =  torch.Size([1024, 17, 3])
This is Epoch 0, training loss 0.46879, validation loss 0.31619
Saving the model down...
Doing Evaluation on the model now
size of sigma =  torch.Size([1024, 17, 3, 3])
size of mu =  torch.Size([1024, 17, 3])
…
size of sigma =  torch.Size([1024, 17, 3, 3])
size of mu =  torch.Size([1024, 17, 3])
This is Epoch 260, training loss -10.74720, validation loss 0.00038
Saving the model down...
Doing Evaluation on the model now
size of sigma =  torch.Size([1024, 17, 3, 3])
size of mu =  torch.Size([1024, 17, 3])
This is Epoch 280, training loss -11.06992, validation loss 0.00107
In read_data, flags.data_set = Peurifoy
shape of data_x (50000, 3)
shape of data_y (50000, 201)
total number of training sample is 40000, the dimension of the feature is 3
total number of test sample is 10000
Making network now
MDN(
  (linears): ModuleList(
    (0): Linear(in_features=201, out_features=500, bias=True)
    (1): Linear(in_features=500, out_features=500, bias=True)
    (2): Linear(in_features=500, out_features=500, bias=True)
    (3): Linear(in_features=500, out_features=500, bias=True)
    (4): Linear(in_features=500, out_features=500, bias=True)
    (5): Linear(in_features=500, out_features=500, bias=True)
    (6): Linear(in_features=500, out_features=500, bias=True)
  )
  (bn_linears): ModuleList(
    (0): BatchNorm1d(500, eps=1e-05, momentum=0.1, affine=True, track_running_stats=True)
    (1): BatchNorm1d(500, eps=1e-05, momentum=0.1, affine=True, track_running_stats=True)
    (2): BatchNorm1d(500, eps=1e-05, momentum=0.1, affine=True, track_running_stats=True)
    (3): BatchNorm1d(500, eps=1e-05, momentum=0.1, affine=True, track_running_stats=True)
    (4): BatchNorm1d(500, eps=1e-05, momentum=0.1, affine=True, track_running_stats=True)
    (5): BatchNorm1d(500, eps=1e-05, momentum=0.1, affine=True, track_running_stats=True)
    (6): BatchNorm1d(500, eps=1e-05, momentum=0.1, affine=True, track_running_stats=True)
  )
  (mdn): MDN(
    (pi): Sequential(
      (0): Linear(in_features=500, out_features=12, bias=True)
      (1): Softmax(dim=1)
    )
    (sigma): Linear(in_features=500, out_features=108, bias=True)
    (mu): Linear(in_features=500, out_features=36, bias=True)
  )
)
Start training now...
Doing Evaluation on the model now
size of sigma =  torch.Size([1024, 12, 3, 3])
size of mu =  torch.Size([1024, 12, 3])
This is Epoch 0, training loss 0.34657, validation loss 0.32282
Saving the model down...
Doing Evaluation on the model now
size of sigma =  torch.Size([1024, 12, 3, 3])
size of mu =  torch.Size([1024, 12, 3])
…
Epoch   272: reducing learning rate of group 0 to 2.0972e-05.
Doing Evaluation on the model now
size of sigma =  torch.Size([1024, 12, 3, 3])
size of mu =  torch.Size([1024, 12, 3])
This is Epoch 280, training loss -10.56687, validation loss 0.00045
Epoch   283: reducing learning rate of group 0 to 1.6777e-05.
Epoch   294: reducing learning rate of group 0 to 1.3422e-05.
In read_data, flags.data_set = Peurifoy
shape of data_x (50000, 3)
shape of data_y (50000, 201)
total number of training sample is 40000, the dimension of the feature is 3
total number of test sample is 10000
Making network now
MDN(
  (linears): ModuleList(
    (0): Linear(in_features=201, out_features=500, bias=True)
    (1): Linear(in_features=500, out_features=500, bias=True)
    (2): Linear(in_features=500, out_features=500, bias=True)
    (3): Linear(in_features=500, out_features=500, bias=True)
    (4): Linear(in_features=500, out_features=500, bias=True)
    (5): Linear(in_features=500, out_features=500, bias=True)
    (6): Linear(in_features=500, out_features=500, bias=True)
  )
  (bn_linears): ModuleList(
    (0): BatchNorm1d(500, eps=1e-05, momentum=0.1, affine=True, track_running_stats=True)
    (1): BatchNorm1d(500, eps=1e-05, momentum=0.1, affine=True, track_running_stats=True)
    (2): BatchNorm1d(500, eps=1e-05, momentum=0.1, affine=True, track_running_stats=True)
    (3): BatchNorm1d(500, eps=1e-05, momentum=0.1, affine=True, track_running_stats=True)
    (4): BatchNorm1d(500, eps=1e-05, momentum=0.1, affine=True, track_running_stats=True)
    (5): BatchNorm1d(500, eps=1e-05, momentum=0.1, affine=True, track_running_stats=True)
    (6): BatchNorm1d(500, eps=1e-05, momentum=0.1, affine=True, track_running_stats=True)
  )
  (mdn): MDN(
    (pi): Sequential(
      (0): Linear(in_features=500, out_features=17, bias=True)
      (1): Softmax(dim=1)
    )
    (sigma): Linear(in_features=500, out_features=153, bias=True)
    (mu): Linear(in_features=500, out_features=51, bias=True)
  )
)
Start training now...
Doing Evaluation on the model now
size of sigma =  torch.Size([1024, 17, 3, 3])
size of mu =  torch.Size([1024, 17, 3])
This is Epoch 0, training loss 0.33028, validation loss 0.26927
Saving the model down...
Doing Evaluation on the model now
size of sigma =  torch.Size([1024, 17, 3, 3])
size of mu =  torch.Size([1024, 17, 3])
…
