None
Retrieving flag object for parameters
after removing prefix models/, now model_dir is: Chen/Chen_kl_coeff_0.005_layer_num_11_unit_1000_dim_z_15_reg_scale_0.005
In read_data, flags.data_set = Chen
flgas.data_dir =  /home/sr365/MM_Bench/Data/
data_dir =  /home/sr365/MM_Bench/Data/Chen
total number of training sample is 49900, the dimension of the feature is 5
total number of test sample is 100
Making network now
This is inference mode, the ckpt is /home/sr365/MM_Bench/VAE/models/Chen/Chen_kl_coeff_0.005_layer_num_11_unit_1000_dim_z_15_reg_scale_0.005
VAE(
  (linears_d): ModuleList(
    (0): Linear(in_features=271, out_features=1000, bias=True)
    (1): Linear(in_features=1000, out_features=1000, bias=True)
    (2): Linear(in_features=1000, out_features=1000, bias=True)
    (3): Linear(in_features=1000, out_features=1000, bias=True)
    (4): Linear(in_features=1000, out_features=1000, bias=True)
    (5): Linear(in_features=1000, out_features=1000, bias=True)
    (6): Linear(in_features=1000, out_features=1000, bias=True)
    (7): Linear(in_features=1000, out_features=1000, bias=True)
    (8): Linear(in_features=1000, out_features=1000, bias=True)
    (9): Linear(in_features=1000, out_features=5, bias=True)
  )
  (bn_linears_d): ModuleList(
    (0): BatchNorm1d(1000, eps=1e-05, momentum=0.1, affine=True, track_running_stats=True)
    (1): BatchNorm1d(1000, eps=1e-05, momentum=0.1, affine=True, track_running_stats=True)
    (2): BatchNorm1d(1000, eps=1e-05, momentum=0.1, affine=True, track_running_stats=True)
    (3): BatchNorm1d(1000, eps=1e-05, momentum=0.1, affine=True, track_running_stats=True)
    (4): BatchNorm1d(1000, eps=1e-05, momentum=0.1, affine=True, track_running_stats=True)
    (5): BatchNorm1d(1000, eps=1e-05, momentum=0.1, affine=True, track_running_stats=True)
    (6): BatchNorm1d(1000, eps=1e-05, momentum=0.1, affine=True, track_running_stats=True)
    (7): BatchNorm1d(1000, eps=1e-05, momentum=0.1, affine=True, track_running_stats=True)
    (8): BatchNorm1d(1000, eps=1e-05, momentum=0.1, affine=True, track_running_stats=True)
    (9): BatchNorm1d(5, eps=1e-05, momentum=0.1, affine=True, track_running_stats=True)
  )
  (linears_e): ModuleList(
    (0): Linear(in_features=261, out_features=1000, bias=True)
    (1): Linear(in_features=1000, out_features=1000, bias=True)
    (2): Linear(in_features=1000, out_features=1000, bias=True)
    (3): Linear(in_features=1000, out_features=1000, bias=True)
    (4): Linear(in_features=1000, out_features=1000, bias=True)
    (5): Linear(in_features=1000, out_features=1000, bias=True)
    (6): Linear(in_features=1000, out_features=1000, bias=True)
    (7): Linear(in_features=1000, out_features=1000, bias=True)
    (8): Linear(in_features=1000, out_features=1000, bias=True)
    (9): Linear(in_features=1000, out_features=30, bias=True)
  )
  (bn_linears_e): ModuleList(
    (0): BatchNorm1d(1000, eps=1e-05, momentum=0.1, affine=True, track_running_stats=True)
    (1): BatchNorm1d(1000, eps=1e-05, momentum=0.1, affine=True, track_running_stats=True)
    (2): BatchNorm1d(1000, eps=1e-05, momentum=0.1, affine=True, track_running_stats=True)
    (3): BatchNorm1d(1000, eps=1e-05, momentum=0.1, affine=True, track_running_stats=True)
    (4): BatchNorm1d(1000, eps=1e-05, momentum=0.1, affine=True, track_running_stats=True)
    (5): BatchNorm1d(1000, eps=1e-05, momentum=0.1, affine=True, track_running_stats=True)
    (6): BatchNorm1d(1000, eps=1e-05, momentum=0.1, affine=True, track_running_stats=True)
    (7): BatchNorm1d(1000, eps=1e-05, momentum=0.1, affine=True, track_running_stats=True)
    (8): BatchNorm1d(1000, eps=1e-05, momentum=0.1, affine=True, track_running_stats=True)
    (9): BatchNorm1d(30, eps=1e-05, momentum=0.1, affine=True, track_running_stats=True)
  )
  (linears_se): ModuleList()
  (bn_linears_se): ModuleList()
  (convs_se): ModuleList()
)
number of trainable parameters is :
16621105
Start eval now:
Si3N4@@@/home/sr365/MM_Bench/Data/Chen/Si3N4_310nm-14280nm.txt shape=(1552, 3)
   lenda    re   im
0    310  2.18  0.0
1    360  2.12  0.0
2    410  2.09  0.0
3    470  2.07  0.0
…
Evaluation finished
Retrieving flag object for parameters
after removing prefix models/, now model_dir is: Chen/Chen_kl_coeff_0.0001_layer_num_8_unit_1000_dim_z_25_reg_scale_0.005
In read_data, flags.data_set = Chen
flgas.data_dir =  /home/sr365/MM_Bench/Data/
data_dir =  /home/sr365/MM_Bench/Data/Chen
total number of training sample is 49900, the dimension of the feature is 5
total number of test sample is 100
Making network now
This is inference mode, the ckpt is /home/sr365/MM_Bench/VAE/models/Chen/Chen_kl_coeff_0.0001_layer_num_8_unit_1000_dim_z_25_reg_scale_0.005
VAE(
  (linears_d): ModuleList(
    (0): Linear(in_features=281, out_features=1000, bias=True)
    (1): Linear(in_features=1000, out_features=1000, bias=True)
    (2): Linear(in_features=1000, out_features=1000, bias=True)
    (3): Linear(in_features=1000, out_features=1000, bias=True)
    (4): Linear(in_features=1000, out_features=1000, bias=True)
    (5): Linear(in_features=1000, out_features=1000, bias=True)
    (6): Linear(in_features=1000, out_features=5, bias=True)
  )
  (bn_linears_d): ModuleList(
    (0): BatchNorm1d(1000, eps=1e-05, momentum=0.1, affine=True, track_running_stats=True)
    (1): BatchNorm1d(1000, eps=1e-05, momentum=0.1, affine=True, track_running_stats=True)
    (2): BatchNorm1d(1000, eps=1e-05, momentum=0.1, affine=True, track_running_stats=True)
    (3): BatchNorm1d(1000, eps=1e-05, momentum=0.1, affine=True, track_running_stats=True)
    (4): BatchNorm1d(1000, eps=1e-05, momentum=0.1, affine=True, track_running_stats=True)
    (5): BatchNorm1d(1000, eps=1e-05, momentum=0.1, affine=True, track_running_stats=True)
    (6): BatchNorm1d(5, eps=1e-05, momentum=0.1, affine=True, track_running_stats=True)
  )
  (linears_e): ModuleList(
    (0): Linear(in_features=261, out_features=1000, bias=True)
    (1): Linear(in_features=1000, out_features=1000, bias=True)
    (2): Linear(in_features=1000, out_features=1000, bias=True)
    (3): Linear(in_features=1000, out_features=1000, bias=True)
    (4): Linear(in_features=1000, out_features=1000, bias=True)
    (5): Linear(in_features=1000, out_features=1000, bias=True)
    (6): Linear(in_features=1000, out_features=50, bias=True)
  )
  (bn_linears_e): ModuleList(
    (0): BatchNorm1d(1000, eps=1e-05, momentum=0.1, affine=True, track_running_stats=True)
    (1): BatchNorm1d(1000, eps=1e-05, momentum=0.1, affine=True, track_running_stats=True)
    (2): BatchNorm1d(1000, eps=1e-05, momentum=0.1, affine=True, track_running_stats=True)
    (3): BatchNorm1d(1000, eps=1e-05, momentum=0.1, affine=True, track_running_stats=True)
    (4): BatchNorm1d(1000, eps=1e-05, momentum=0.1, affine=True, track_running_stats=True)
    (5): BatchNorm1d(1000, eps=1e-05, momentum=0.1, affine=True, track_running_stats=True)
    (6): BatchNorm1d(50, eps=1e-05, momentum=0.1, affine=True, track_running_stats=True)
  )
  (linears_se): ModuleList()
  (bn_linears_se): ModuleList()
  (convs_se): ModuleList()
)
number of trainable parameters is :
10633165
Start eval now:
Si3N4@@@/home/sr365/MM_Bench/Data/Chen/Si3N4_310nm-14280nm.txt shape=(1552, 3)
   lenda    re   im
0    310  2.18  0.0
1    360  2.12  0.0
2    410  2.09  0.0
3    470  2.07  0.0
…
Evaluation finished
Retrieving flag object for parameters
after removing prefix models/, now model_dir is: Chen/Chen_kl_coeff_5e-05_layer_num_7_unit_1000_dim_z_25_reg_scale_0.005
In read_data, flags.data_set = Chen
flgas.data_dir =  /home/sr365/MM_Bench/Data/
data_dir =  /home/sr365/MM_Bench/Data/Chen
total number of training sample is 49900, the dimension of the feature is 5
total number of test sample is 100
Making network now
This is inference mode, the ckpt is /home/sr365/MM_Bench/VAE/models/Chen/Chen_kl_coeff_5e-05_layer_num_7_unit_1000_dim_z_25_reg_scale_0.005
VAE(
  (linears_d): ModuleList(
    (0): Linear(in_features=281, out_features=1000, bias=True)
    (1): Linear(in_features=1000, out_features=1000, bias=True)
    (2): Linear(in_features=1000, out_features=1000, bias=True)
    (3): Linear(in_features=1000, out_features=1000, bias=True)
    (4): Linear(in_features=1000, out_features=1000, bias=True)
    (5): Linear(in_features=1000, out_features=5, bias=True)
  )
  (bn_linears_d): ModuleList(
    (0): BatchNorm1d(1000, eps=1e-05, momentum=0.1, affine=True, track_running_stats=True)
    (1): BatchNorm1d(1000, eps=1e-05, momentum=0.1, affine=True, track_running_stats=True)
    (2): BatchNorm1d(1000, eps=1e-05, momentum=0.1, affine=True, track_running_stats=True)
    (3): BatchNorm1d(1000, eps=1e-05, momentum=0.1, affine=True, track_running_stats=True)
    (4): BatchNorm1d(1000, eps=1e-05, momentum=0.1, affine=True, track_running_stats=True)
    (5): BatchNorm1d(5, eps=1e-05, momentum=0.1, affine=True, track_running_stats=True)
  )
  (linears_e): ModuleList(
    (0): Linear(in_features=261, out_features=1000, bias=True)
    (1): Linear(in_features=1000, out_features=1000, bias=True)
    (2): Linear(in_features=1000, out_features=1000, bias=True)
    (3): Linear(in_features=1000, out_features=1000, bias=True)
    (4): Linear(in_features=1000, out_features=1000, bias=True)
    (5): Linear(in_features=1000, out_features=50, bias=True)
  )
  (bn_linears_e): ModuleList(
    (0): BatchNorm1d(1000, eps=1e-05, momentum=0.1, affine=True, track_running_stats=True)
    (1): BatchNorm1d(1000, eps=1e-05, momentum=0.1, affine=True, track_running_stats=True)
    (2): BatchNorm1d(1000, eps=1e-05, momentum=0.1, affine=True, track_running_stats=True)
    (3): BatchNorm1d(1000, eps=1e-05, momentum=0.1, affine=True, track_running_stats=True)
    (4): BatchNorm1d(1000, eps=1e-05, momentum=0.1, affine=True, track_running_stats=True)
    (5): BatchNorm1d(50, eps=1e-05, momentum=0.1, affine=True, track_running_stats=True)
  )
  (linears_se): ModuleList()
  (bn_linears_se): ModuleList()
  (convs_se): ModuleList()
)
number of trainable parameters is :
8627165
Start eval now:
Si3N4@@@/home/sr365/MM_Bench/Data/Chen/Si3N4_310nm-14280nm.txt shape=(1552, 3)
   lenda    re   im
0    310  2.18  0.0
1    360  2.12  0.0
2    410  2.09  0.0
3    470  2.07  0.0
…
Evaluation finished
Retrieving flag object for parameters
after removing prefix models/, now model_dir is: Chen/Chen_kl_coeff_0.0005_layer_num_11_unit_500_dim_z_15_reg_scale_0.005
In read_data, flags.data_set = Chen
flgas.data_dir =  /home/sr365/MM_Bench/Data/
data_dir =  /home/sr365/MM_Bench/Data/Chen
total number of training sample is 49900, the dimension of the feature is 5
total number of test sample is 100
Making network now
This is inference mode, the ckpt is /home/sr365/MM_Bench/VAE/models/Chen/Chen_kl_coeff_0.0005_layer_num_11_unit_500_dim_z_15_reg_scale_0.005
VAE(
  (linears_d): ModuleList(
    (0): Linear(in_features=271, out_features=500, bias=True)
    (1): Linear(in_features=500, out_features=500, bias=True)
    (2): Linear(in_features=500, out_features=500, bias=True)
    (3): Linear(in_features=500, out_features=500, bias=True)
    (4): Linear(in_features=500, out_features=500, bias=True)
    (5): Linear(in_features=500, out_features=500, bias=True)
    (6): Linear(in_features=500, out_features=500, bias=True)
    (7): Linear(in_features=500, out_features=500, bias=True)
    (8): Linear(in_features=500, out_features=500, bias=True)
    (9): Linear(in_features=500, out_features=5, bias=True)
  )
  (bn_linears_d): ModuleList(
    (0): BatchNorm1d(500, eps=1e-05, momentum=0.1, affine=True, track_running_stats=True)
    (1): BatchNorm1d(500, eps=1e-05, momentum=0.1, affine=True, track_running_stats=True)
    (2): BatchNorm1d(500, eps=1e-05, momentum=0.1, affine=True, track_running_stats=True)
    (3): BatchNorm1d(500, eps=1e-05, momentum=0.1, affine=True, track_running_stats=True)
    (4): BatchNorm1d(500, eps=1e-05, momentum=0.1, affine=True, track_running_stats=True)
    (5): BatchNorm1d(500, eps=1e-05, momentum=0.1, affine=True, track_running_stats=True)
    (6): BatchNorm1d(500, eps=1e-05, momentum=0.1, affine=True, track_running_stats=True)
    (7): BatchNorm1d(500, eps=1e-05, momentum=0.1, affine=True, track_running_stats=True)
    (8): BatchNorm1d(500, eps=1e-05, momentum=0.1, affine=True, track_running_stats=True)
    (9): BatchNorm1d(5, eps=1e-05, momentum=0.1, affine=True, track_running_stats=True)
  )
  (linears_e): ModuleList(
    (0): Linear(in_features=261, out_features=500, bias=True)
    (1): Linear(in_features=500, out_features=500, bias=True)
    (2): Linear(in_features=500, out_features=500, bias=True)
    (3): Linear(in_features=500, out_features=500, bias=True)
    (4): Linear(in_features=500, out_features=500, bias=True)
    (5): Linear(in_features=500, out_features=500, bias=True)
    (6): Linear(in_features=500, out_features=500, bias=True)
    (7): Linear(in_features=500, out_features=500, bias=True)
    (8): Linear(in_features=500, out_features=500, bias=True)
    (9): Linear(in_features=500, out_features=30, bias=True)
  )
  (bn_linears_e): ModuleList(
    (0): BatchNorm1d(500, eps=1e-05, momentum=0.1, affine=True, track_running_stats=True)
    (1): BatchNorm1d(500, eps=1e-05, momentum=0.1, affine=True, track_running_stats=True)
    (2): BatchNorm1d(500, eps=1e-05, momentum=0.1, affine=True, track_running_stats=True)
    (3): BatchNorm1d(500, eps=1e-05, momentum=0.1, affine=True, track_running_stats=True)
    (4): BatchNorm1d(500, eps=1e-05, momentum=0.1, affine=True, track_running_stats=True)
    (5): BatchNorm1d(500, eps=1e-05, momentum=0.1, affine=True, track_running_stats=True)
    (6): BatchNorm1d(500, eps=1e-05, momentum=0.1, affine=True, track_running_stats=True)
    (7): BatchNorm1d(500, eps=1e-05, momentum=0.1, affine=True, track_running_stats=True)
    (8): BatchNorm1d(500, eps=1e-05, momentum=0.1, affine=True, track_running_stats=True)
    (9): BatchNorm1d(30, eps=1e-05, momentum=0.1, affine=True, track_running_stats=True)
  )
  (linears_se): ModuleList()
  (bn_linears_se): ModuleList()
  (convs_se): ModuleList()
)
number of trainable parameters is :
4310605
Start eval now:
Si3N4@@@/home/sr365/MM_Bench/Data/Chen/Si3N4_310nm-14280nm.txt shape=(1552, 3)
   lenda    re   im
0    310  2.18  0.0
1    360  2.12  0.0
2    410  2.09  0.0
3    470  2.07  0.0
…
Evaluation finished
Retrieving flag object for parameters
after removing prefix models/, now model_dir is: Chen/Chen_kl_coeff_0.0001_layer_num_10_unit_1000_dim_z_15_reg_scale_0.005
In read_data, flags.data_set = Chen
flgas.data_dir =  /home/sr365/MM_Bench/Data/
data_dir =  /home/sr365/MM_Bench/Data/Chen
total number of training sample is 49900, the dimension of the feature is 5
total number of test sample is 100
Making network now
This is inference mode, the ckpt is /home/sr365/MM_Bench/VAE/models/Chen/Chen_kl_coeff_0.0001_layer_num_10_unit_1000_dim_z_15_reg_scale_0.005
VAE(
  (linears_d): ModuleList(
    (0): Linear(in_features=271, out_features=1000, bias=True)
    (1): Linear(in_features=1000, out_features=1000, bias=True)
    (2): Linear(in_features=1000, out_features=1000, bias=True)
    (3): Linear(in_features=1000, out_features=1000, bias=True)
    (4): Linear(in_features=1000, out_features=1000, bias=True)
    (5): Linear(in_features=1000, out_features=1000, bias=True)
    (6): Linear(in_features=1000, out_features=1000, bias=True)
    (7): Linear(in_features=1000, out_features=1000, bias=True)
    (8): Linear(in_features=1000, out_features=5, bias=True)
  )
  (bn_linears_d): ModuleList(
    (0): BatchNorm1d(1000, eps=1e-05, momentum=0.1, affine=True, track_running_stats=True)
    (1): BatchNorm1d(1000, eps=1e-05, momentum=0.1, affine=True, track_running_stats=True)
    (2): BatchNorm1d(1000, eps=1e-05, momentum=0.1, affine=True, track_running_stats=True)
    (3): BatchNorm1d(1000, eps=1e-05, momentum=0.1, affine=True, track_running_stats=True)
    (4): BatchNorm1d(1000, eps=1e-05, momentum=0.1, affine=True, track_running_stats=True)
    (5): BatchNorm1d(1000, eps=1e-05, momentum=0.1, affine=True, track_running_stats=True)
    (6): BatchNorm1d(1000, eps=1e-05, momentum=0.1, affine=True, track_running_stats=True)
    (7): BatchNorm1d(1000, eps=1e-05, momentum=0.1, affine=True, track_running_stats=True)
    (8): BatchNorm1d(5, eps=1e-05, momentum=0.1, affine=True, track_running_stats=True)
  )
  (linears_e): ModuleList(
    (0): Linear(in_features=261, out_features=1000, bias=True)
    (1): Linear(in_features=1000, out_features=1000, bias=True)
    (2): Linear(in_features=1000, out_features=1000, bias=True)
    (3): Linear(in_features=1000, out_features=1000, bias=True)
    (4): Linear(in_features=1000, out_features=1000, bias=True)
    (5): Linear(in_features=1000, out_features=1000, bias=True)
    (6): Linear(in_features=1000, out_features=1000, bias=True)
    (7): Linear(in_features=1000, out_features=1000, bias=True)
    (8): Linear(in_features=1000, out_features=30, bias=True)
  )
  (bn_linears_e): ModuleList(
    (0): BatchNorm1d(1000, eps=1e-05, momentum=0.1, affine=True, track_running_stats=True)
    (1): BatchNorm1d(1000, eps=1e-05, momentum=0.1, affine=True, track_running_stats=True)
    (2): BatchNorm1d(1000, eps=1e-05, momentum=0.1, affine=True, track_running_stats=True)
    (3): BatchNorm1d(1000, eps=1e-05, momentum=0.1, affine=True, track_running_stats=True)
    (4): BatchNorm1d(1000, eps=1e-05, momentum=0.1, affine=True, track_running_stats=True)
    (5): BatchNorm1d(1000, eps=1e-05, momentum=0.1, affine=True, track_running_stats=True)
    (6): BatchNorm1d(1000, eps=1e-05, momentum=0.1, affine=True, track_running_stats=True)
    (7): BatchNorm1d(1000, eps=1e-05, momentum=0.1, affine=True, track_running_stats=True)
    (8): BatchNorm1d(30, eps=1e-05, momentum=0.1, affine=True, track_running_stats=True)
  )
  (linears_se): ModuleList()
  (bn_linears_se): ModuleList()
  (convs_se): ModuleList()
)
number of trainable parameters is :
14615105
Start eval now:
Si3N4@@@/home/sr365/MM_Bench/Data/Chen/Si3N4_310nm-14280nm.txt shape=(1552, 3)
   lenda    re   im
0    310  2.18  0.0
1    360  2.12  0.0
2    410  2.09  0.0
3    470  2.07  0.0
…
Evaluation finished
Retrieving flag object for parameters
after removing prefix models/, now model_dir is: Chen/Chen_kl_coeff_5e-05_layer_num_8_unit_1000_dim_z_5_reg_scale_0.005
In read_data, flags.data_set = Chen
flgas.data_dir =  /home/sr365/MM_Bench/Data/
data_dir =  /home/sr365/MM_Bench/Data/Chen
total number of training sample is 49900, the dimension of the feature is 5
total number of test sample is 100
Making network now
This is inference mode, the ckpt is /home/sr365/MM_Bench/VAE/models/Chen/Chen_kl_coeff_5e-05_layer_num_8_unit_1000_dim_z_5_reg_scale_0.005
VAE(
  (linears_d): ModuleList(
    (0): Linear(in_features=261, out_features=1000, bias=True)
    (1): Linear(in_features=1000, out_features=1000, bias=True)
    (2): Linear(in_features=1000, out_features=1000, bias=True)
    (3): Linear(in_features=1000, out_features=1000, bias=True)
    (4): Linear(in_features=1000, out_features=1000, bias=True)
    (5): Linear(in_features=1000, out_features=1000, bias=True)
    (6): Linear(in_features=1000, out_features=5, bias=True)
  )
  (bn_linears_d): ModuleList(
    (0): BatchNorm1d(1000, eps=1e-05, momentum=0.1, affine=True, track_running_stats=True)
    (1): BatchNorm1d(1000, eps=1e-05, momentum=0.1, affine=True, track_running_stats=True)
    (2): BatchNorm1d(1000, eps=1e-05, momentum=0.1, affine=True, track_running_stats=True)
    (3): BatchNorm1d(1000, eps=1e-05, momentum=0.1, affine=True, track_running_stats=True)
    (4): BatchNorm1d(1000, eps=1e-05, momentum=0.1, affine=True, track_running_stats=True)
    (5): BatchNorm1d(1000, eps=1e-05, momentum=0.1, affine=True, track_running_stats=True)
    (6): BatchNorm1d(5, eps=1e-05, momentum=0.1, affine=True, track_running_stats=True)
  )
  (linears_e): ModuleList(
    (0): Linear(in_features=261, out_features=1000, bias=True)
    (1): Linear(in_features=1000, out_features=1000, bias=True)
    (2): Linear(in_features=1000, out_features=1000, bias=True)
    (3): Linear(in_features=1000, out_features=1000, bias=True)
    (4): Linear(in_features=1000, out_features=1000, bias=True)
    (5): Linear(in_features=1000, out_features=1000, bias=True)
    (6): Linear(in_features=1000, out_features=10, bias=True)
  )
  (bn_linears_e): ModuleList(
    (0): BatchNorm1d(1000, eps=1e-05, momentum=0.1, affine=True, track_running_stats=True)
    (1): BatchNorm1d(1000, eps=1e-05, momentum=0.1, affine=True, track_running_stats=True)
    (2): BatchNorm1d(1000, eps=1e-05, momentum=0.1, affine=True, track_running_stats=True)
    (3): BatchNorm1d(1000, eps=1e-05, momentum=0.1, affine=True, track_running_stats=True)
    (4): BatchNorm1d(1000, eps=1e-05, momentum=0.1, affine=True, track_running_stats=True)
    (5): BatchNorm1d(1000, eps=1e-05, momentum=0.1, affine=True, track_running_stats=True)
    (6): BatchNorm1d(10, eps=1e-05, momentum=0.1, affine=True, track_running_stats=True)
  )
  (linears_se): ModuleList()
  (bn_linears_se): ModuleList()
  (convs_se): ModuleList()
)
number of trainable parameters is :
10573045
Start eval now:
Si3N4@@@/home/sr365/MM_Bench/Data/Chen/Si3N4_310nm-14280nm.txt shape=(1552, 3)
   lenda    re   im
0    310  2.18  0.0
1    360  2.12  0.0
2    410  2.09  0.0
3    470  2.07  0.0
…
Evaluation finished
Retrieving flag object for parameters
after removing prefix models/, now model_dir is: Chen/Chen_kl_coeff_0.001_layer_num_11_unit_500_dim_z_25_reg_scale_0.005
In read_data, flags.data_set = Chen
flgas.data_dir =  /home/sr365/MM_Bench/Data/
data_dir =  /home/sr365/MM_Bench/Data/Chen
total number of training sample is 49900, the dimension of the feature is 5
total number of test sample is 100
Making network now
This is inference mode, the ckpt is /home/sr365/MM_Bench/VAE/models/Chen/Chen_kl_coeff_0.001_layer_num_11_unit_500_dim_z_25_reg_scale_0.005
VAE(
  (linears_d): ModuleList(
    (0): Linear(in_features=281, out_features=500, bias=True)
    (1): Linear(in_features=500, out_features=500, bias=True)
    (2): Linear(in_features=500, out_features=500, bias=True)
    (3): Linear(in_features=500, out_features=500, bias=True)
    (4): Linear(in_features=500, out_features=500, bias=True)
    (5): Linear(in_features=500, out_features=500, bias=True)
    (6): Linear(in_features=500, out_features=500, bias=True)
    (7): Linear(in_features=500, out_features=500, bias=True)
    (8): Linear(in_features=500, out_features=500, bias=True)
    (9): Linear(in_features=500, out_features=5, bias=True)
  )
  (bn_linears_d): ModuleList(
    (0): BatchNorm1d(500, eps=1e-05, momentum=0.1, affine=True, track_running_stats=True)
    (1): BatchNorm1d(500, eps=1e-05, momentum=0.1, affine=True, track_running_stats=True)
    (2): BatchNorm1d(500, eps=1e-05, momentum=0.1, affine=True, track_running_stats=True)
    (3): BatchNorm1d(500, eps=1e-05, momentum=0.1, affine=True, track_running_stats=True)
    (4): BatchNorm1d(500, eps=1e-05, momentum=0.1, affine=True, track_running_stats=True)
    (5): BatchNorm1d(500, eps=1e-05, momentum=0.1, affine=True, track_running_stats=True)
    (6): BatchNorm1d(500, eps=1e-05, momentum=0.1, affine=True, track_running_stats=True)
    (7): BatchNorm1d(500, eps=1e-05, momentum=0.1, affine=True, track_running_stats=True)
    (8): BatchNorm1d(500, eps=1e-05, momentum=0.1, affine=True, track_running_stats=True)
    (9): BatchNorm1d(5, eps=1e-05, momentum=0.1, affine=True, track_running_stats=True)
  )
  (linears_e): ModuleList(
    (0): Linear(in_features=261, out_features=500, bias=True)
    (1): Linear(in_features=500, out_features=500, bias=True)
    (2): Linear(in_features=500, out_features=500, bias=True)
    (3): Linear(in_features=500, out_features=500, bias=True)
    (4): Linear(in_features=500, out_features=500, bias=True)
    (5): Linear(in_features=500, out_features=500, bias=True)
    (6): Linear(in_features=500, out_features=500, bias=True)
    (7): Linear(in_features=500, out_features=500, bias=True)
    (8): Linear(in_features=500, out_features=500, bias=True)
    (9): Linear(in_features=500, out_features=50, bias=True)
  )
  (bn_linears_e): ModuleList(
    (0): BatchNorm1d(500, eps=1e-05, momentum=0.1, affine=True, track_running_stats=True)
    (1): BatchNorm1d(500, eps=1e-05, momentum=0.1, affine=True, track_running_stats=True)
    (2): BatchNorm1d(500, eps=1e-05, momentum=0.1, affine=True, track_running_stats=True)
    (3): BatchNorm1d(500, eps=1e-05, momentum=0.1, affine=True, track_running_stats=True)
    (4): BatchNorm1d(500, eps=1e-05, momentum=0.1, affine=True, track_running_stats=True)
    (5): BatchNorm1d(500, eps=1e-05, momentum=0.1, affine=True, track_running_stats=True)
    (6): BatchNorm1d(500, eps=1e-05, momentum=0.1, affine=True, track_running_stats=True)
    (7): BatchNorm1d(500, eps=1e-05, momentum=0.1, affine=True, track_running_stats=True)
    (8): BatchNorm1d(500, eps=1e-05, momentum=0.1, affine=True, track_running_stats=True)
    (9): BatchNorm1d(50, eps=1e-05, momentum=0.1, affine=True, track_running_stats=True)
  )
  (linears_se): ModuleList()
  (bn_linears_se): ModuleList()
  (convs_se): ModuleList()
)
number of trainable parameters is :
4325665
Start eval now:
Si3N4@@@/home/sr365/MM_Bench/Data/Chen/Si3N4_310nm-14280nm.txt shape=(1552, 3)
   lenda    re   im
0    310  2.18  0.0
1    360  2.12  0.0
2    410  2.09  0.0
3    470  2.07  0.0
…
Evaluation finished
Retrieving flag object for parameters
after removing prefix models/, now model_dir is: Chen/Chen_kl_coeff_0.001_layer_num_9_unit_500_dim_z_5_reg_scale_0.005
In read_data, flags.data_set = Chen
flgas.data_dir =  /home/sr365/MM_Bench/Data/
data_dir =  /home/sr365/MM_Bench/Data/Chen
total number of training sample is 49900, the dimension of the feature is 5
total number of test sample is 100
Making network now
This is inference mode, the ckpt is /home/sr365/MM_Bench/VAE/models/Chen/Chen_kl_coeff_0.001_layer_num_9_unit_500_dim_z_5_reg_scale_0.005
VAE(
  (linears_d): ModuleList(
    (0): Linear(in_features=261, out_features=500, bias=True)
    (1): Linear(in_features=500, out_features=500, bias=True)
    (2): Linear(in_features=500, out_features=500, bias=True)
    (3): Linear(in_features=500, out_features=500, bias=True)
    (4): Linear(in_features=500, out_features=500, bias=True)
    (5): Linear(in_features=500, out_features=500, bias=True)
    (6): Linear(in_features=500, out_features=500, bias=True)
    (7): Linear(in_features=500, out_features=5, bias=True)
  )
  (bn_linears_d): ModuleList(
    (0): BatchNorm1d(500, eps=1e-05, momentum=0.1, affine=True, track_running_stats=True)
    (1): BatchNorm1d(500, eps=1e-05, momentum=0.1, affine=True, track_running_stats=True)
    (2): BatchNorm1d(500, eps=1e-05, momentum=0.1, affine=True, track_running_stats=True)
    (3): BatchNorm1d(500, eps=1e-05, momentum=0.1, affine=True, track_running_stats=True)
    (4): BatchNorm1d(500, eps=1e-05, momentum=0.1, affine=True, track_running_stats=True)
    (5): BatchNorm1d(500, eps=1e-05, momentum=0.1, affine=True, track_running_stats=True)
    (6): BatchNorm1d(500, eps=1e-05, momentum=0.1, affine=True, track_running_stats=True)
    (7): BatchNorm1d(5, eps=1e-05, momentum=0.1, affine=True, track_running_stats=True)
  )
  (linears_e): ModuleList(
    (0): Linear(in_features=261, out_features=500, bias=True)
    (1): Linear(in_features=500, out_features=500, bias=True)
    (2): Linear(in_features=500, out_features=500, bias=True)
    (3): Linear(in_features=500, out_features=500, bias=True)
    (4): Linear(in_features=500, out_features=500, bias=True)
    (5): Linear(in_features=500, out_features=500, bias=True)
    (6): Linear(in_features=500, out_features=500, bias=True)
    (7): Linear(in_features=500, out_features=10, bias=True)
  )
  (bn_linears_e): ModuleList(
    (0): BatchNorm1d(500, eps=1e-05, momentum=0.1, affine=True, track_running_stats=True)
    (1): BatchNorm1d(500, eps=1e-05, momentum=0.1, affine=True, track_running_stats=True)
    (2): BatchNorm1d(500, eps=1e-05, momentum=0.1, affine=True, track_running_stats=True)
    (3): BatchNorm1d(500, eps=1e-05, momentum=0.1, affine=True, track_running_stats=True)
    (4): BatchNorm1d(500, eps=1e-05, momentum=0.1, affine=True, track_running_stats=True)
    (5): BatchNorm1d(500, eps=1e-05, momentum=0.1, affine=True, track_running_stats=True)
    (6): BatchNorm1d(500, eps=1e-05, momentum=0.1, affine=True, track_running_stats=True)
    (7): BatchNorm1d(10, eps=1e-05, momentum=0.1, affine=True, track_running_stats=True)
  )
  (linears_se): ModuleList()
  (bn_linears_se): ModuleList()
  (convs_se): ModuleList()
)
number of trainable parameters is :
3289545
Start eval now:
Si3N4@@@/home/sr365/MM_Bench/Data/Chen/Si3N4_310nm-14280nm.txt shape=(1552, 3)
   lenda    re   im
0    310  2.18  0.0
1    360  2.12  0.0
2    410  2.09  0.0
3    470  2.07  0.0
…
Evaluation finished
Retrieving flag object for parameters
after removing prefix models/, now model_dir is: Chen/Chen_kl_coeff_0.0005_layer_num_11_unit_1000_dim_z_25_reg_scale_0.005
In read_data, flags.data_set = Chen
flgas.data_dir =  /home/sr365/MM_Bench/Data/
data_dir =  /home/sr365/MM_Bench/Data/Chen
total number of training sample is 49900, the dimension of the feature is 5
total number of test sample is 100
Making network now
This is inference mode, the ckpt is /home/sr365/MM_Bench/VAE/models/Chen/Chen_kl_coeff_0.0005_layer_num_11_unit_1000_dim_z_25_reg_scale_0.005
VAE(
  (linears_d): ModuleList(
    (0): Linear(in_features=281, out_features=1000, bias=True)
    (1): Linear(in_features=1000, out_features=1000, bias=True)
    (2): Linear(in_features=1000, out_features=1000, bias=True)
    (3): Linear(in_features=1000, out_features=1000, bias=True)
    (4): Linear(in_features=1000, out_features=1000, bias=True)
    (5): Linear(in_features=1000, out_features=1000, bias=True)
    (6): Linear(in_features=1000, out_features=1000, bias=True)
    (7): Linear(in_features=1000, out_features=1000, bias=True)
    (8): Linear(in_features=1000, out_features=1000, bias=True)
    (9): Linear(in_features=1000, out_features=5, bias=True)
  )
  (bn_linears_d): ModuleList(
    (0): BatchNorm1d(1000, eps=1e-05, momentum=0.1, affine=True, track_running_stats=True)
    (1): BatchNorm1d(1000, eps=1e-05, momentum=0.1, affine=True, track_running_stats=True)
    (2): BatchNorm1d(1000, eps=1e-05, momentum=0.1, affine=True, track_running_stats=True)
    (3): BatchNorm1d(1000, eps=1e-05, momentum=0.1, affine=True, track_running_stats=True)
    (4): BatchNorm1d(1000, eps=1e-05, momentum=0.1, affine=True, track_running_stats=True)
    (5): BatchNorm1d(1000, eps=1e-05, momentum=0.1, affine=True, track_running_stats=True)
    (6): BatchNorm1d(1000, eps=1e-05, momentum=0.1, affine=True, track_running_stats=True)
    (7): BatchNorm1d(1000, eps=1e-05, momentum=0.1, affine=True, track_running_stats=True)
    (8): BatchNorm1d(1000, eps=1e-05, momentum=0.1, affine=True, track_running_stats=True)
    (9): BatchNorm1d(5, eps=1e-05, momentum=0.1, affine=True, track_running_stats=True)
  )
  (linears_e): ModuleList(
    (0): Linear(in_features=261, out_features=1000, bias=True)
    (1): Linear(in_features=1000, out_features=1000, bias=True)
    (2): Linear(in_features=1000, out_features=1000, bias=True)
    (3): Linear(in_features=1000, out_features=1000, bias=True)
    (4): Linear(in_features=1000, out_features=1000, bias=True)
    (5): Linear(in_features=1000, out_features=1000, bias=True)
    (6): Linear(in_features=1000, out_features=1000, bias=True)
    (7): Linear(in_features=1000, out_features=1000, bias=True)
    (8): Linear(in_features=1000, out_features=1000, bias=True)
    (9): Linear(in_features=1000, out_features=50, bias=True)
  )
  (bn_linears_e): ModuleList(
    (0): BatchNorm1d(1000, eps=1e-05, momentum=0.1, affine=True, track_running_stats=True)
    (1): BatchNorm1d(1000, eps=1e-05, momentum=0.1, affine=True, track_running_stats=True)
    (2): BatchNorm1d(1000, eps=1e-05, momentum=0.1, affine=True, track_running_stats=True)
    (3): BatchNorm1d(1000, eps=1e-05, momentum=0.1, affine=True, track_running_stats=True)
    (4): BatchNorm1d(1000, eps=1e-05, momentum=0.1, affine=True, track_running_stats=True)
    (5): BatchNorm1d(1000, eps=1e-05, momentum=0.1, affine=True, track_running_stats=True)
    (6): BatchNorm1d(1000, eps=1e-05, momentum=0.1, affine=True, track_running_stats=True)
    (7): BatchNorm1d(1000, eps=1e-05, momentum=0.1, affine=True, track_running_stats=True)
    (8): BatchNorm1d(1000, eps=1e-05, momentum=0.1, affine=True, track_running_stats=True)
    (9): BatchNorm1d(50, eps=1e-05, momentum=0.1, affine=True, track_running_stats=True)
  )
  (linears_se): ModuleList()
  (bn_linears_se): ModuleList()
  (convs_se): ModuleList()
)
number of trainable parameters is :
16651165
Start eval now:
Si3N4@@@/home/sr365/MM_Bench/Data/Chen/Si3N4_310nm-14280nm.txt shape=(1552, 3)
   lenda    re   im
0    310  2.18  0.0
1    360  2.12  0.0
2    410  2.09  0.0
3    470  2.07  0.0
…
Evaluation finished
Retrieving flag object for parameters
after removing prefix models/, now model_dir is: Chen/Chen_kl_coeff_0.005_layer_num_7_unit_500_dim_z_15_reg_scale_0.005
In read_data, flags.data_set = Chen
flgas.data_dir =  /home/sr365/MM_Bench/Data/
data_dir =  /home/sr365/MM_Bench/Data/Chen
total number of training sample is 49900, the dimension of the feature is 5
total number of test sample is 100
Making network now
This is inference mode, the ckpt is /home/sr365/MM_Bench/VAE/models/Chen/Chen_kl_coeff_0.005_layer_num_7_unit_500_dim_z_15_reg_scale_0.005
VAE(
  (linears_d): ModuleList(
    (0): Linear(in_features=271, out_features=500, bias=True)
    (1): Linear(in_features=500, out_features=500, bias=True)
    (2): Linear(in_features=500, out_features=500, bias=True)
    (3): Linear(in_features=500, out_features=500, bias=True)
    (4): Linear(in_features=500, out_features=500, bias=True)
    (5): Linear(in_features=500, out_features=5, bias=True)
  )
  (bn_linears_d): ModuleList(
    (0): BatchNorm1d(500, eps=1e-05, momentum=0.1, affine=True, track_running_stats=True)
    (1): BatchNorm1d(500, eps=1e-05, momentum=0.1, affine=True, track_running_stats=True)
    (2): BatchNorm1d(500, eps=1e-05, momentum=0.1, affine=True, track_running_stats=True)
    (3): BatchNorm1d(500, eps=1e-05, momentum=0.1, affine=True, track_running_stats=True)
    (4): BatchNorm1d(500, eps=1e-05, momentum=0.1, affine=True, track_running_stats=True)
    (5): BatchNorm1d(5, eps=1e-05, momentum=0.1, affine=True, track_running_stats=True)
  )
  (linears_e): ModuleList(
    (0): Linear(in_features=261, out_features=500, bias=True)
    (1): Linear(in_features=500, out_features=500, bias=True)
    (2): Linear(in_features=500, out_features=500, bias=True)
    (3): Linear(in_features=500, out_features=500, bias=True)
    (4): Linear(in_features=500, out_features=500, bias=True)
    (5): Linear(in_features=500, out_features=30, bias=True)
  )
  (bn_linears_e): ModuleList(
    (0): BatchNorm1d(500, eps=1e-05, momentum=0.1, affine=True, track_running_stats=True)
    (1): BatchNorm1d(500, eps=1e-05, momentum=0.1, affine=True, track_running_stats=True)
    (2): BatchNorm1d(500, eps=1e-05, momentum=0.1, affine=True, track_running_stats=True)
    (3): BatchNorm1d(500, eps=1e-05, momentum=0.1, affine=True, track_running_stats=True)
    (4): BatchNorm1d(500, eps=1e-05, momentum=0.1, affine=True, track_running_stats=True)
    (5): BatchNorm1d(30, eps=1e-05, momentum=0.1, affine=True, track_running_stats=True)
  )
  (linears_se): ModuleList()
  (bn_linears_se): ModuleList()
  (convs_se): ModuleList()
)
number of trainable parameters is :
2298605
Start eval now:
Si3N4@@@/home/sr365/MM_Bench/Data/Chen/Si3N4_310nm-14280nm.txt shape=(1552, 3)
   lenda    re   im
0    310  2.18  0.0
1    360  2.12  0.0
2    410  2.09  0.0
3    470  2.07  0.0
…
Evaluation finished
Retrieving flag object for parameters
after removing prefix models/, now model_dir is: Chen/Chen_kl_coeff_0.005_layer_num_11_unit_500_dim_z_5_reg_scale_0.005
In read_data, flags.data_set = Chen
flgas.data_dir =  /home/sr365/MM_Bench/Data/
data_dir =  /home/sr365/MM_Bench/Data/Chen
total number of training sample is 49900, the dimension of the feature is 5
total number of test sample is 100
Making network now
This is inference mode, the ckpt is /home/sr365/MM_Bench/VAE/models/Chen/Chen_kl_coeff_0.005_layer_num_11_unit_500_dim_z_5_reg_scale_0.005
VAE(
  (linears_d): ModuleList(
    (0): Linear(in_features=261, out_features=500, bias=True)
    (1): Linear(in_features=500, out_features=500, bias=True)
    (2): Linear(in_features=500, out_features=500, bias=True)
    (3): Linear(in_features=500, out_features=500, bias=True)
    (4): Linear(in_features=500, out_features=500, bias=True)
    (5): Linear(in_features=500, out_features=500, bias=True)
    (6): Linear(in_features=500, out_features=500, bias=True)
    (7): Linear(in_features=500, out_features=500, bias=True)
    (8): Linear(in_features=500, out_features=500, bias=True)
    (9): Linear(in_features=500, out_features=5, bias=True)
  )
  (bn_linears_d): ModuleList(
    (0): BatchNorm1d(500, eps=1e-05, momentum=0.1, affine=True, track_running_stats=True)
    (1): BatchNorm1d(500, eps=1e-05, momentum=0.1, affine=True, track_running_stats=True)
    (2): BatchNorm1d(500, eps=1e-05, momentum=0.1, affine=True, track_running_stats=True)
    (3): BatchNorm1d(500, eps=1e-05, momentum=0.1, affine=True, track_running_stats=True)
    (4): BatchNorm1d(500, eps=1e-05, momentum=0.1, affine=True, track_running_stats=True)
    (5): BatchNorm1d(500, eps=1e-05, momentum=0.1, affine=True, track_running_stats=True)
    (6): BatchNorm1d(500, eps=1e-05, momentum=0.1, affine=True, track_running_stats=True)
    (7): BatchNorm1d(500, eps=1e-05, momentum=0.1, affine=True, track_running_stats=True)
    (8): BatchNorm1d(500, eps=1e-05, momentum=0.1, affine=True, track_running_stats=True)
    (9): BatchNorm1d(5, eps=1e-05, momentum=0.1, affine=True, track_running_stats=True)
  )
  (linears_e): ModuleList(
    (0): Linear(in_features=261, out_features=500, bias=True)
    (1): Linear(in_features=500, out_features=500, bias=True)
    (2): Linear(in_features=500, out_features=500, bias=True)
    (3): Linear(in_features=500, out_features=500, bias=True)
    (4): Linear(in_features=500, out_features=500, bias=True)
    (5): Linear(in_features=500, out_features=500, bias=True)
    (6): Linear(in_features=500, out_features=500, bias=True)
    (7): Linear(in_features=500, out_features=500, bias=True)
    (8): Linear(in_features=500, out_features=500, bias=True)
    (9): Linear(in_features=500, out_features=10, bias=True)
  )
  (bn_linears_e): ModuleList(
    (0): BatchNorm1d(500, eps=1e-05, momentum=0.1, affine=True, track_running_stats=True)
    (1): BatchNorm1d(500, eps=1e-05, momentum=0.1, affine=True, track_running_stats=True)
    (2): BatchNorm1d(500, eps=1e-05, momentum=0.1, affine=True, track_running_stats=True)
    (3): BatchNorm1d(500, eps=1e-05, momentum=0.1, affine=True, track_running_stats=True)
    (4): BatchNorm1d(500, eps=1e-05, momentum=0.1, affine=True, track_running_stats=True)
    (5): BatchNorm1d(500, eps=1e-05, momentum=0.1, affine=True, track_running_stats=True)
    (6): BatchNorm1d(500, eps=1e-05, momentum=0.1, affine=True, track_running_stats=True)
    (7): BatchNorm1d(500, eps=1e-05, momentum=0.1, affine=True, track_running_stats=True)
    (8): BatchNorm1d(500, eps=1e-05, momentum=0.1, affine=True, track_running_stats=True)
    (9): BatchNorm1d(10, eps=1e-05, momentum=0.1, affine=True, track_running_stats=True)
  )
  (linears_se): ModuleList()
  (bn_linears_se): ModuleList()
  (convs_se): ModuleList()
)
number of trainable parameters is :
4295545
Start eval now:
Si3N4@@@/home/sr365/MM_Bench/Data/Chen/Si3N4_310nm-14280nm.txt shape=(1552, 3)
   lenda    re   im
0    310  2.18  0.0
1    360  2.12  0.0
2    410  2.09  0.0
3    470  2.07  0.0
…
Evaluation finished
Retrieving flag object for parameters
after removing prefix models/, now model_dir is: Chen/Chen_kl_coeff_0.005_layer_num_9_unit_1000_dim_z_5_reg_scale_0.005
In read_data, flags.data_set = Chen
flgas.data_dir =  /home/sr365/MM_Bench/Data/
data_dir =  /home/sr365/MM_Bench/Data/Chen
total number of training sample is 49900, the dimension of the feature is 5
total number of test sample is 100
Making network now
This is inference mode, the ckpt is /home/sr365/MM_Bench/VAE/models/Chen/Chen_kl_coeff_0.005_layer_num_9_unit_1000_dim_z_5_reg_scale_0.005
VAE(
  (linears_d): ModuleList(
    (0): Linear(in_features=261, out_features=1000, bias=True)
    (1): Linear(in_features=1000, out_features=1000, bias=True)
    (2): Linear(in_features=1000, out_features=1000, bias=True)
    (3): Linear(in_features=1000, out_features=1000, bias=True)
    (4): Linear(in_features=1000, out_features=1000, bias=True)
    (5): Linear(in_features=1000, out_features=1000, bias=True)
    (6): Linear(in_features=1000, out_features=1000, bias=True)
    (7): Linear(in_features=1000, out_features=5, bias=True)
  )
  (bn_linears_d): ModuleList(
    (0): BatchNorm1d(1000, eps=1e-05, momentum=0.1, affine=True, track_running_stats=True)
    (1): BatchNorm1d(1000, eps=1e-05, momentum=0.1, affine=True, track_running_stats=True)
    (2): BatchNorm1d(1000, eps=1e-05, momentum=0.1, affine=True, track_running_stats=True)
    (3): BatchNorm1d(1000, eps=1e-05, momentum=0.1, affine=True, track_running_stats=True)
    (4): BatchNorm1d(1000, eps=1e-05, momentum=0.1, affine=True, track_running_stats=True)
    (5): BatchNorm1d(1000, eps=1e-05, momentum=0.1, affine=True, track_running_stats=True)
    (6): BatchNorm1d(1000, eps=1e-05, momentum=0.1, affine=True, track_running_stats=True)
    (7): BatchNorm1d(5, eps=1e-05, momentum=0.1, affine=True, track_running_stats=True)
  )
  (linears_e): ModuleList(
    (0): Linear(in_features=261, out_features=1000, bias=True)
    (1): Linear(in_features=1000, out_features=1000, bias=True)
    (2): Linear(in_features=1000, out_features=1000, bias=True)
    (3): Linear(in_features=1000, out_features=1000, bias=True)
    (4): Linear(in_features=1000, out_features=1000, bias=True)
    (5): Linear(in_features=1000, out_features=1000, bias=True)
    (6): Linear(in_features=1000, out_features=1000, bias=True)
    (7): Linear(in_features=1000, out_features=10, bias=True)
  )
  (bn_linears_e): ModuleList(
    (0): BatchNorm1d(1000, eps=1e-05, momentum=0.1, affine=True, track_running_stats=True)
    (1): BatchNorm1d(1000, eps=1e-05, momentum=0.1, affine=True, track_running_stats=True)
    (2): BatchNorm1d(1000, eps=1e-05, momentum=0.1, affine=True, track_running_stats=True)
    (3): BatchNorm1d(1000, eps=1e-05, momentum=0.1, affine=True, track_running_stats=True)
    (4): BatchNorm1d(1000, eps=1e-05, momentum=0.1, affine=True, track_running_stats=True)
    (5): BatchNorm1d(1000, eps=1e-05, momentum=0.1, affine=True, track_running_stats=True)
    (6): BatchNorm1d(1000, eps=1e-05, momentum=0.1, affine=True, track_running_stats=True)
    (7): BatchNorm1d(10, eps=1e-05, momentum=0.1, affine=True, track_running_stats=True)
  )
  (linears_se): ModuleList()
  (bn_linears_se): ModuleList()
  (convs_se): ModuleList()
)
number of trainable parameters is :
12579045
Start eval now:
Si3N4@@@/home/sr365/MM_Bench/Data/Chen/Si3N4_310nm-14280nm.txt shape=(1552, 3)
   lenda    re   im
0    310  2.18  0.0
1    360  2.12  0.0
2    410  2.09  0.0
3    470  2.07  0.0
…
Evaluation finished
Retrieving flag object for parameters
after removing prefix models/, now model_dir is: Chen/Chen_kl_coeff_0.005_layer_num_9_unit_1000_dim_z_15_reg_scale_0.005
In read_data, flags.data_set = Chen
flgas.data_dir =  /home/sr365/MM_Bench/Data/
data_dir =  /home/sr365/MM_Bench/Data/Chen
total number of training sample is 49900, the dimension of the feature is 5
total number of test sample is 100
Making network now
This is inference mode, the ckpt is /home/sr365/MM_Bench/VAE/models/Chen/Chen_kl_coeff_0.005_layer_num_9_unit_1000_dim_z_15_reg_scale_0.005
VAE(
  (linears_d): ModuleList(
    (0): Linear(in_features=271, out_features=1000, bias=True)
    (1): Linear(in_features=1000, out_features=1000, bias=True)
    (2): Linear(in_features=1000, out_features=1000, bias=True)
    (3): Linear(in_features=1000, out_features=1000, bias=True)
    (4): Linear(in_features=1000, out_features=1000, bias=True)
    (5): Linear(in_features=1000, out_features=1000, bias=True)
    (6): Linear(in_features=1000, out_features=1000, bias=True)
    (7): Linear(in_features=1000, out_features=5, bias=True)
  )
  (bn_linears_d): ModuleList(
    (0): BatchNorm1d(1000, eps=1e-05, momentum=0.1, affine=True, track_running_stats=True)
    (1): BatchNorm1d(1000, eps=1e-05, momentum=0.1, affine=True, track_running_stats=True)
    (2): BatchNorm1d(1000, eps=1e-05, momentum=0.1, affine=True, track_running_stats=True)
    (3): BatchNorm1d(1000, eps=1e-05, momentum=0.1, affine=True, track_running_stats=True)
    (4): BatchNorm1d(1000, eps=1e-05, momentum=0.1, affine=True, track_running_stats=True)
    (5): BatchNorm1d(1000, eps=1e-05, momentum=0.1, affine=True, track_running_stats=True)
    (6): BatchNorm1d(1000, eps=1e-05, momentum=0.1, affine=True, track_running_stats=True)
    (7): BatchNorm1d(5, eps=1e-05, momentum=0.1, affine=True, track_running_stats=True)
  )
  (linears_e): ModuleList(
    (0): Linear(in_features=261, out_features=1000, bias=True)
    (1): Linear(in_features=1000, out_features=1000, bias=True)
    (2): Linear(in_features=1000, out_features=1000, bias=True)
    (3): Linear(in_features=1000, out_features=1000, bias=True)
    (4): Linear(in_features=1000, out_features=1000, bias=True)
    (5): Linear(in_features=1000, out_features=1000, bias=True)
    (6): Linear(in_features=1000, out_features=1000, bias=True)
    (7): Linear(in_features=1000, out_features=30, bias=True)
  )
  (bn_linears_e): ModuleList(
    (0): BatchNorm1d(1000, eps=1e-05, momentum=0.1, affine=True, track_running_stats=True)
    (1): BatchNorm1d(1000, eps=1e-05, momentum=0.1, affine=True, track_running_stats=True)
    (2): BatchNorm1d(1000, eps=1e-05, momentum=0.1, affine=True, track_running_stats=True)
    (3): BatchNorm1d(1000, eps=1e-05, momentum=0.1, affine=True, track_running_stats=True)
    (4): BatchNorm1d(1000, eps=1e-05, momentum=0.1, affine=True, track_running_stats=True)
    (5): BatchNorm1d(1000, eps=1e-05, momentum=0.1, affine=True, track_running_stats=True)
    (6): BatchNorm1d(1000, eps=1e-05, momentum=0.1, affine=True, track_running_stats=True)
    (7): BatchNorm1d(30, eps=1e-05, momentum=0.1, affine=True, track_running_stats=True)
  )
  (linears_se): ModuleList()
  (bn_linears_se): ModuleList()
  (convs_se): ModuleList()
)
number of trainable parameters is :
12609105
Start eval now:
Si3N4@@@/home/sr365/MM_Bench/Data/Chen/Si3N4_310nm-14280nm.txt shape=(1552, 3)
   lenda    re   im
0    310  2.18  0.0
1    360  2.12  0.0
2    410  2.09  0.0
3    470  2.07  0.0
…
Evaluation finished
Retrieving flag object for parameters
after removing prefix models/, now model_dir is: Chen/Chen_kl_coeff_5e-05_layer_num_10_unit_500_dim_z_15_reg_scale_0.005
In read_data, flags.data_set = Chen
flgas.data_dir =  /home/sr365/MM_Bench/Data/
data_dir =  /home/sr365/MM_Bench/Data/Chen
total number of training sample is 49900, the dimension of the feature is 5
total number of test sample is 100
Making network now
This is inference mode, the ckpt is /home/sr365/MM_Bench/VAE/models/Chen/Chen_kl_coeff_5e-05_layer_num_10_unit_500_dim_z_15_reg_scale_0.005
VAE(
  (linears_d): ModuleList(
    (0): Linear(in_features=271, out_features=500, bias=True)
    (1): Linear(in_features=500, out_features=500, bias=True)
    (2): Linear(in_features=500, out_features=500, bias=True)
    (3): Linear(in_features=500, out_features=500, bias=True)
    (4): Linear(in_features=500, out_features=500, bias=True)
    (5): Linear(in_features=500, out_features=500, bias=True)
    (6): Linear(in_features=500, out_features=500, bias=True)
    (7): Linear(in_features=500, out_features=500, bias=True)
    (8): Linear(in_features=500, out_features=5, bias=True)
  )
  (bn_linears_d): ModuleList(
    (0): BatchNorm1d(500, eps=1e-05, momentum=0.1, affine=True, track_running_stats=True)
    (1): BatchNorm1d(500, eps=1e-05, momentum=0.1, affine=True, track_running_stats=True)
    (2): BatchNorm1d(500, eps=1e-05, momentum=0.1, affine=True, track_running_stats=True)
    (3): BatchNorm1d(500, eps=1e-05, momentum=0.1, affine=True, track_running_stats=True)
    (4): BatchNorm1d(500, eps=1e-05, momentum=0.1, affine=True, track_running_stats=True)
    (5): BatchNorm1d(500, eps=1e-05, momentum=0.1, affine=True, track_running_stats=True)
    (6): BatchNorm1d(500, eps=1e-05, momentum=0.1, affine=True, track_running_stats=True)
    (7): BatchNorm1d(500, eps=1e-05, momentum=0.1, affine=True, track_running_stats=True)
    (8): BatchNorm1d(5, eps=1e-05, momentum=0.1, affine=True, track_running_stats=True)
  )
  (linears_e): ModuleList(
    (0): Linear(in_features=261, out_features=500, bias=True)
    (1): Linear(in_features=500, out_features=500, bias=True)
    (2): Linear(in_features=500, out_features=500, bias=True)
    (3): Linear(in_features=500, out_features=500, bias=True)
    (4): Linear(in_features=500, out_features=500, bias=True)
    (5): Linear(in_features=500, out_features=500, bias=True)
    (6): Linear(in_features=500, out_features=500, bias=True)
    (7): Linear(in_features=500, out_features=500, bias=True)
    (8): Linear(in_features=500, out_features=30, bias=True)
  )
  (bn_linears_e): ModuleList(
    (0): BatchNorm1d(500, eps=1e-05, momentum=0.1, affine=True, track_running_stats=True)
    (1): BatchNorm1d(500, eps=1e-05, momentum=0.1, affine=True, track_running_stats=True)
    (2): BatchNorm1d(500, eps=1e-05, momentum=0.1, affine=True, track_running_stats=True)
    (3): BatchNorm1d(500, eps=1e-05, momentum=0.1, affine=True, track_running_stats=True)
    (4): BatchNorm1d(500, eps=1e-05, momentum=0.1, affine=True, track_running_stats=True)
    (5): BatchNorm1d(500, eps=1e-05, momentum=0.1, affine=True, track_running_stats=True)
    (6): BatchNorm1d(500, eps=1e-05, momentum=0.1, affine=True, track_running_stats=True)
    (7): BatchNorm1d(500, eps=1e-05, momentum=0.1, affine=True, track_running_stats=True)
    (8): BatchNorm1d(30, eps=1e-05, momentum=0.1, affine=True, track_running_stats=True)
  )
  (linears_se): ModuleList()
  (bn_linears_se): ModuleList()
  (convs_se): ModuleList()
)
number of trainable parameters is :
3807605
Start eval now:
Si3N4@@@/home/sr365/MM_Bench/Data/Chen/Si3N4_310nm-14280nm.txt shape=(1552, 3)
   lenda    re   im
0    310  2.18  0.0
1    360  2.12  0.0
2    410  2.09  0.0
3    470  2.07  0.0
…
Evaluation finished
Retrieving flag object for parameters
after removing prefix models/, now model_dir is: Chen/Chen_kl_coeff_0.0005_layer_num_10_unit_1000_dim_z_25_reg_scale_0.005
In read_data, flags.data_set = Chen
flgas.data_dir =  /home/sr365/MM_Bench/Data/
data_dir =  /home/sr365/MM_Bench/Data/Chen
total number of training sample is 49900, the dimension of the feature is 5
total number of test sample is 100
Making network now
This is inference mode, the ckpt is /home/sr365/MM_Bench/VAE/models/Chen/Chen_kl_coeff_0.0005_layer_num_10_unit_1000_dim_z_25_reg_scale_0.005
VAE(
  (linears_d): ModuleList(
    (0): Linear(in_features=281, out_features=1000, bias=True)
    (1): Linear(in_features=1000, out_features=1000, bias=True)
    (2): Linear(in_features=1000, out_features=1000, bias=True)
    (3): Linear(in_features=1000, out_features=1000, bias=True)
    (4): Linear(in_features=1000, out_features=1000, bias=True)
    (5): Linear(in_features=1000, out_features=1000, bias=True)
    (6): Linear(in_features=1000, out_features=1000, bias=True)
    (7): Linear(in_features=1000, out_features=1000, bias=True)
    (8): Linear(in_features=1000, out_features=5, bias=True)
  )
  (bn_linears_d): ModuleList(
    (0): BatchNorm1d(1000, eps=1e-05, momentum=0.1, affine=True, track_running_stats=True)
    (1): BatchNorm1d(1000, eps=1e-05, momentum=0.1, affine=True, track_running_stats=True)
    (2): BatchNorm1d(1000, eps=1e-05, momentum=0.1, affine=True, track_running_stats=True)
    (3): BatchNorm1d(1000, eps=1e-05, momentum=0.1, affine=True, track_running_stats=True)
    (4): BatchNorm1d(1000, eps=1e-05, momentum=0.1, affine=True, track_running_stats=True)
    (5): BatchNorm1d(1000, eps=1e-05, momentum=0.1, affine=True, track_running_stats=True)
    (6): BatchNorm1d(1000, eps=1e-05, momentum=0.1, affine=True, track_running_stats=True)
    (7): BatchNorm1d(1000, eps=1e-05, momentum=0.1, affine=True, track_running_stats=True)
    (8): BatchNorm1d(5, eps=1e-05, momentum=0.1, affine=True, track_running_stats=True)
  )
  (linears_e): ModuleList(
    (0): Linear(in_features=261, out_features=1000, bias=True)
    (1): Linear(in_features=1000, out_features=1000, bias=True)
    (2): Linear(in_features=1000, out_features=1000, bias=True)
    (3): Linear(in_features=1000, out_features=1000, bias=True)
    (4): Linear(in_features=1000, out_features=1000, bias=True)
    (5): Linear(in_features=1000, out_features=1000, bias=True)
    (6): Linear(in_features=1000, out_features=1000, bias=True)
    (7): Linear(in_features=1000, out_features=1000, bias=True)
    (8): Linear(in_features=1000, out_features=50, bias=True)
  )
  (bn_linears_e): ModuleList(
    (0): BatchNorm1d(1000, eps=1e-05, momentum=0.1, affine=True, track_running_stats=True)
    (1): BatchNorm1d(1000, eps=1e-05, momentum=0.1, affine=True, track_running_stats=True)
    (2): BatchNorm1d(1000, eps=1e-05, momentum=0.1, affine=True, track_running_stats=True)
    (3): BatchNorm1d(1000, eps=1e-05, momentum=0.1, affine=True, track_running_stats=True)
    (4): BatchNorm1d(1000, eps=1e-05, momentum=0.1, affine=True, track_running_stats=True)
    (5): BatchNorm1d(1000, eps=1e-05, momentum=0.1, affine=True, track_running_stats=True)
    (6): BatchNorm1d(1000, eps=1e-05, momentum=0.1, affine=True, track_running_stats=True)
    (7): BatchNorm1d(1000, eps=1e-05, momentum=0.1, affine=True, track_running_stats=True)
    (8): BatchNorm1d(50, eps=1e-05, momentum=0.1, affine=True, track_running_stats=True)
  )
  (linears_se): ModuleList()
  (bn_linears_se): ModuleList()
  (convs_se): ModuleList()
)
number of trainable parameters is :
14645165
Start eval now:
Si3N4@@@/home/sr365/MM_Bench/Data/Chen/Si3N4_310nm-14280nm.txt shape=(1552, 3)
   lenda    re   im
0    310  2.18  0.0
1    360  2.12  0.0
2    410  2.09  0.0
3    470  2.07  0.0
…
Evaluation finished
Retrieving flag object for parameters
after removing prefix models/, now model_dir is: Chen/Chen_kl_coeff_0.001_layer_num_7_unit_1000_dim_z_5_reg_scale_0.005
In read_data, flags.data_set = Chen
flgas.data_dir =  /home/sr365/MM_Bench/Data/
data_dir =  /home/sr365/MM_Bench/Data/Chen
total number of training sample is 49900, the dimension of the feature is 5
total number of test sample is 100
Making network now
This is inference mode, the ckpt is /home/sr365/MM_Bench/VAE/models/Chen/Chen_kl_coeff_0.001_layer_num_7_unit_1000_dim_z_5_reg_scale_0.005
VAE(
  (linears_d): ModuleList(
    (0): Linear(in_features=261, out_features=1000, bias=True)
    (1): Linear(in_features=1000, out_features=1000, bias=True)
    (2): Linear(in_features=1000, out_features=1000, bias=True)
    (3): Linear(in_features=1000, out_features=1000, bias=True)
    (4): Linear(in_features=1000, out_features=1000, bias=True)
    (5): Linear(in_features=1000, out_features=5, bias=True)
  )
  (bn_linears_d): ModuleList(
    (0): BatchNorm1d(1000, eps=1e-05, momentum=0.1, affine=True, track_running_stats=True)
    (1): BatchNorm1d(1000, eps=1e-05, momentum=0.1, affine=True, track_running_stats=True)
    (2): BatchNorm1d(1000, eps=1e-05, momentum=0.1, affine=True, track_running_stats=True)
    (3): BatchNorm1d(1000, eps=1e-05, momentum=0.1, affine=True, track_running_stats=True)
    (4): BatchNorm1d(1000, eps=1e-05, momentum=0.1, affine=True, track_running_stats=True)
    (5): BatchNorm1d(5, eps=1e-05, momentum=0.1, affine=True, track_running_stats=True)
  )
  (linears_e): ModuleList(
    (0): Linear(in_features=261, out_features=1000, bias=True)
    (1): Linear(in_features=1000, out_features=1000, bias=True)
    (2): Linear(in_features=1000, out_features=1000, bias=True)
    (3): Linear(in_features=1000, out_features=1000, bias=True)
    (4): Linear(in_features=1000, out_features=1000, bias=True)
    (5): Linear(in_features=1000, out_features=10, bias=True)
  )
  (bn_linears_e): ModuleList(
    (0): BatchNorm1d(1000, eps=1e-05, momentum=0.1, affine=True, track_running_stats=True)
    (1): BatchNorm1d(1000, eps=1e-05, momentum=0.1, affine=True, track_running_stats=True)
    (2): BatchNorm1d(1000, eps=1e-05, momentum=0.1, affine=True, track_running_stats=True)
    (3): BatchNorm1d(1000, eps=1e-05, momentum=0.1, affine=True, track_running_stats=True)
    (4): BatchNorm1d(1000, eps=1e-05, momentum=0.1, affine=True, track_running_stats=True)
    (5): BatchNorm1d(10, eps=1e-05, momentum=0.1, affine=True, track_running_stats=True)
  )
  (linears_se): ModuleList()
  (bn_linears_se): ModuleList()
  (convs_se): ModuleList()
)
number of trainable parameters is :
8567045
Start eval now:
Si3N4@@@/home/sr365/MM_Bench/Data/Chen/Si3N4_310nm-14280nm.txt shape=(1552, 3)
   lenda    re   im
0    310  2.18  0.0
1    360  2.12  0.0
2    410  2.09  0.0
3    470  2.07  0.0
…
Evaluation finished
Retrieving flag object for parameters
after removing prefix models/, now model_dir is: Chen/Chen_kl_coeff_0.0001_layer_num_7_unit_1000_dim_z_15_reg_scale_0.005
In read_data, flags.data_set = Chen
flgas.data_dir =  /home/sr365/MM_Bench/Data/
data_dir =  /home/sr365/MM_Bench/Data/Chen
total number of training sample is 49900, the dimension of the feature is 5
total number of test sample is 100
Making network now
This is inference mode, the ckpt is /home/sr365/MM_Bench/VAE/models/Chen/Chen_kl_coeff_0.0001_layer_num_7_unit_1000_dim_z_15_reg_scale_0.005
VAE(
  (linears_d): ModuleList(
    (0): Linear(in_features=271, out_features=1000, bias=True)
    (1): Linear(in_features=1000, out_features=1000, bias=True)
    (2): Linear(in_features=1000, out_features=1000, bias=True)
    (3): Linear(in_features=1000, out_features=1000, bias=True)
    (4): Linear(in_features=1000, out_features=1000, bias=True)
    (5): Linear(in_features=1000, out_features=5, bias=True)
  )
  (bn_linears_d): ModuleList(
    (0): BatchNorm1d(1000, eps=1e-05, momentum=0.1, affine=True, track_running_stats=True)
    (1): BatchNorm1d(1000, eps=1e-05, momentum=0.1, affine=True, track_running_stats=True)
    (2): BatchNorm1d(1000, eps=1e-05, momentum=0.1, affine=True, track_running_stats=True)
    (3): BatchNorm1d(1000, eps=1e-05, momentum=0.1, affine=True, track_running_stats=True)
    (4): BatchNorm1d(1000, eps=1e-05, momentum=0.1, affine=True, track_running_stats=True)
    (5): BatchNorm1d(5, eps=1e-05, momentum=0.1, affine=True, track_running_stats=True)
  )
  (linears_e): ModuleList(
    (0): Linear(in_features=261, out_features=1000, bias=True)
    (1): Linear(in_features=1000, out_features=1000, bias=True)
    (2): Linear(in_features=1000, out_features=1000, bias=True)
    (3): Linear(in_features=1000, out_features=1000, bias=True)
    (4): Linear(in_features=1000, out_features=1000, bias=True)
    (5): Linear(in_features=1000, out_features=30, bias=True)
  )
  (bn_linears_e): ModuleList(
    (0): BatchNorm1d(1000, eps=1e-05, momentum=0.1, affine=True, track_running_stats=True)
    (1): BatchNorm1d(1000, eps=1e-05, momentum=0.1, affine=True, track_running_stats=True)
    (2): BatchNorm1d(1000, eps=1e-05, momentum=0.1, affine=True, track_running_stats=True)
    (3): BatchNorm1d(1000, eps=1e-05, momentum=0.1, affine=True, track_running_stats=True)
    (4): BatchNorm1d(1000, eps=1e-05, momentum=0.1, affine=True, track_running_stats=True)
    (5): BatchNorm1d(30, eps=1e-05, momentum=0.1, affine=True, track_running_stats=True)
  )
  (linears_se): ModuleList()
  (bn_linears_se): ModuleList()
  (convs_se): ModuleList()
)
number of trainable parameters is :
8597105
Start eval now:
Si3N4@@@/home/sr365/MM_Bench/Data/Chen/Si3N4_310nm-14280nm.txt shape=(1552, 3)
   lenda    re   im
0    310  2.18  0.0
1    360  2.12  0.0
2    410  2.09  0.0
3    470  2.07  0.0
…
Evaluation finished
Retrieving flag object for parameters
after removing prefix models/, now model_dir is: Chen/Chen_kl_coeff_0.0005_layer_num_8_unit_500_dim_z_15_reg_scale_0.005
In read_data, flags.data_set = Chen
flgas.data_dir =  /home/sr365/MM_Bench/Data/
data_dir =  /home/sr365/MM_Bench/Data/Chen
total number of training sample is 49900, the dimension of the feature is 5
total number of test sample is 100
Making network now
This is inference mode, the ckpt is /home/sr365/MM_Bench/VAE/models/Chen/Chen_kl_coeff_0.0005_layer_num_8_unit_500_dim_z_15_reg_scale_0.005
VAE(
  (linears_d): ModuleList(
    (0): Linear(in_features=271, out_features=500, bias=True)
    (1): Linear(in_features=500, out_features=500, bias=True)
    (2): Linear(in_features=500, out_features=500, bias=True)
    (3): Linear(in_features=500, out_features=500, bias=True)
    (4): Linear(in_features=500, out_features=500, bias=True)
    (5): Linear(in_features=500, out_features=500, bias=True)
    (6): Linear(in_features=500, out_features=5, bias=True)
  )
  (bn_linears_d): ModuleList(
    (0): BatchNorm1d(500, eps=1e-05, momentum=0.1, affine=True, track_running_stats=True)
    (1): BatchNorm1d(500, eps=1e-05, momentum=0.1, affine=True, track_running_stats=True)
    (2): BatchNorm1d(500, eps=1e-05, momentum=0.1, affine=True, track_running_stats=True)
    (3): BatchNorm1d(500, eps=1e-05, momentum=0.1, affine=True, track_running_stats=True)
    (4): BatchNorm1d(500, eps=1e-05, momentum=0.1, affine=True, track_running_stats=True)
    (5): BatchNorm1d(500, eps=1e-05, momentum=0.1, affine=True, track_running_stats=True)
    (6): BatchNorm1d(5, eps=1e-05, momentum=0.1, affine=True, track_running_stats=True)
  )
  (linears_e): ModuleList(
    (0): Linear(in_features=261, out_features=500, bias=True)
    (1): Linear(in_features=500, out_features=500, bias=True)
    (2): Linear(in_features=500, out_features=500, bias=True)
    (3): Linear(in_features=500, out_features=500, bias=True)
    (4): Linear(in_features=500, out_features=500, bias=True)
    (5): Linear(in_features=500, out_features=500, bias=True)
    (6): Linear(in_features=500, out_features=30, bias=True)
  )
  (bn_linears_e): ModuleList(
    (0): BatchNorm1d(500, eps=1e-05, momentum=0.1, affine=True, track_running_stats=True)
    (1): BatchNorm1d(500, eps=1e-05, momentum=0.1, affine=True, track_running_stats=True)
    (2): BatchNorm1d(500, eps=1e-05, momentum=0.1, affine=True, track_running_stats=True)
    (3): BatchNorm1d(500, eps=1e-05, momentum=0.1, affine=True, track_running_stats=True)
    (4): BatchNorm1d(500, eps=1e-05, momentum=0.1, affine=True, track_running_stats=True)
    (5): BatchNorm1d(500, eps=1e-05, momentum=0.1, affine=True, track_running_stats=True)
    (6): BatchNorm1d(30, eps=1e-05, momentum=0.1, affine=True, track_running_stats=True)
  )
  (linears_se): ModuleList()
  (bn_linears_se): ModuleList()
  (convs_se): ModuleList()
)
number of trainable parameters is :
2801605
Start eval now:
Si3N4@@@/home/sr365/MM_Bench/Data/Chen/Si3N4_310nm-14280nm.txt shape=(1552, 3)
   lenda    re   im
0    310  2.18  0.0
1    360  2.12  0.0
2    410  2.09  0.0
3    470  2.07  0.0
…
Evaluation finished
Retrieving flag object for parameters
after removing prefix models/, now model_dir is: Chen/Chen_kl_coeff_5e-05_layer_num_9_unit_1000_dim_z_25_reg_scale_0.005
In read_data, flags.data_set = Chen
flgas.data_dir =  /home/sr365/MM_Bench/Data/
data_dir =  /home/sr365/MM_Bench/Data/Chen
total number of training sample is 49900, the dimension of the feature is 5
total number of test sample is 100
Making network now
This is inference mode, the ckpt is /home/sr365/MM_Bench/VAE/models/Chen/Chen_kl_coeff_5e-05_layer_num_9_unit_1000_dim_z_25_reg_scale_0.005
VAE(
  (linears_d): ModuleList(
    (0): Linear(in_features=281, out_features=1000, bias=True)
    (1): Linear(in_features=1000, out_features=1000, bias=True)
    (2): Linear(in_features=1000, out_features=1000, bias=True)
    (3): Linear(in_features=1000, out_features=1000, bias=True)
    (4): Linear(in_features=1000, out_features=1000, bias=True)
    (5): Linear(in_features=1000, out_features=1000, bias=True)
    (6): Linear(in_features=1000, out_features=1000, bias=True)
    (7): Linear(in_features=1000, out_features=5, bias=True)
  )
  (bn_linears_d): ModuleList(
    (0): BatchNorm1d(1000, eps=1e-05, momentum=0.1, affine=True, track_running_stats=True)
    (1): BatchNorm1d(1000, eps=1e-05, momentum=0.1, affine=True, track_running_stats=True)
    (2): BatchNorm1d(1000, eps=1e-05, momentum=0.1, affine=True, track_running_stats=True)
    (3): BatchNorm1d(1000, eps=1e-05, momentum=0.1, affine=True, track_running_stats=True)
    (4): BatchNorm1d(1000, eps=1e-05, momentum=0.1, affine=True, track_running_stats=True)
    (5): BatchNorm1d(1000, eps=1e-05, momentum=0.1, affine=True, track_running_stats=True)
    (6): BatchNorm1d(1000, eps=1e-05, momentum=0.1, affine=True, track_running_stats=True)
    (7): BatchNorm1d(5, eps=1e-05, momentum=0.1, affine=True, track_running_stats=True)
  )
  (linears_e): ModuleList(
    (0): Linear(in_features=261, out_features=1000, bias=True)
    (1): Linear(in_features=1000, out_features=1000, bias=True)
    (2): Linear(in_features=1000, out_features=1000, bias=True)
    (3): Linear(in_features=1000, out_features=1000, bias=True)
    (4): Linear(in_features=1000, out_features=1000, bias=True)
    (5): Linear(in_features=1000, out_features=1000, bias=True)
    (6): Linear(in_features=1000, out_features=1000, bias=True)
    (7): Linear(in_features=1000, out_features=50, bias=True)
  )
  (bn_linears_e): ModuleList(
    (0): BatchNorm1d(1000, eps=1e-05, momentum=0.1, affine=True, track_running_stats=True)
    (1): BatchNorm1d(1000, eps=1e-05, momentum=0.1, affine=True, track_running_stats=True)
    (2): BatchNorm1d(1000, eps=1e-05, momentum=0.1, affine=True, track_running_stats=True)
    (3): BatchNorm1d(1000, eps=1e-05, momentum=0.1, affine=True, track_running_stats=True)
    (4): BatchNorm1d(1000, eps=1e-05, momentum=0.1, affine=True, track_running_stats=True)
    (5): BatchNorm1d(1000, eps=1e-05, momentum=0.1, affine=True, track_running_stats=True)
    (6): BatchNorm1d(1000, eps=1e-05, momentum=0.1, affine=True, track_running_stats=True)
    (7): BatchNorm1d(50, eps=1e-05, momentum=0.1, affine=True, track_running_stats=True)
  )
  (linears_se): ModuleList()
  (bn_linears_se): ModuleList()
  (convs_se): ModuleList()
)
number of trainable parameters is :
12639165
Start eval now:
Si3N4@@@/home/sr365/MM_Bench/Data/Chen/Si3N4_310nm-14280nm.txt shape=(1552, 3)
   lenda    re   im
0    310  2.18  0.0
1    360  2.12  0.0
2    410  2.09  0.0
3    470  2.07  0.0
…
Evaluation finished
Retrieving flag object for parameters
after removing prefix models/, now model_dir is: Chen/Chen_kl_coeff_0.0001_layer_num_10_unit_500_dim_z_25_reg_scale_0.005
In read_data, flags.data_set = Chen
flgas.data_dir =  /home/sr365/MM_Bench/Data/
data_dir =  /home/sr365/MM_Bench/Data/Chen
total number of training sample is 49900, the dimension of the feature is 5
total number of test sample is 100
Making network now
This is inference mode, the ckpt is /home/sr365/MM_Bench/VAE/models/Chen/Chen_kl_coeff_0.0001_layer_num_10_unit_500_dim_z_25_reg_scale_0.005
VAE(
  (linears_d): ModuleList(
    (0): Linear(in_features=281, out_features=500, bias=True)
    (1): Linear(in_features=500, out_features=500, bias=True)
    (2): Linear(in_features=500, out_features=500, bias=True)
    (3): Linear(in_features=500, out_features=500, bias=True)
    (4): Linear(in_features=500, out_features=500, bias=True)
    (5): Linear(in_features=500, out_features=500, bias=True)
    (6): Linear(in_features=500, out_features=500, bias=True)
    (7): Linear(in_features=500, out_features=500, bias=True)
    (8): Linear(in_features=500, out_features=5, bias=True)
  )
  (bn_linears_d): ModuleList(
    (0): BatchNorm1d(500, eps=1e-05, momentum=0.1, affine=True, track_running_stats=True)
    (1): BatchNorm1d(500, eps=1e-05, momentum=0.1, affine=True, track_running_stats=True)
    (2): BatchNorm1d(500, eps=1e-05, momentum=0.1, affine=True, track_running_stats=True)
    (3): BatchNorm1d(500, eps=1e-05, momentum=0.1, affine=True, track_running_stats=True)
    (4): BatchNorm1d(500, eps=1e-05, momentum=0.1, affine=True, track_running_stats=True)
    (5): BatchNorm1d(500, eps=1e-05, momentum=0.1, affine=True, track_running_stats=True)
    (6): BatchNorm1d(500, eps=1e-05, momentum=0.1, affine=True, track_running_stats=True)
    (7): BatchNorm1d(500, eps=1e-05, momentum=0.1, affine=True, track_running_stats=True)
    (8): BatchNorm1d(5, eps=1e-05, momentum=0.1, affine=True, track_running_stats=True)
  )
  (linears_e): ModuleList(
    (0): Linear(in_features=261, out_features=500, bias=True)
    (1): Linear(in_features=500, out_features=500, bias=True)
    (2): Linear(in_features=500, out_features=500, bias=True)
    (3): Linear(in_features=500, out_features=500, bias=True)
    (4): Linear(in_features=500, out_features=500, bias=True)
    (5): Linear(in_features=500, out_features=500, bias=True)
    (6): Linear(in_features=500, out_features=500, bias=True)
    (7): Linear(in_features=500, out_features=500, bias=True)
    (8): Linear(in_features=500, out_features=50, bias=True)
  )
  (bn_linears_e): ModuleList(
    (0): BatchNorm1d(500, eps=1e-05, momentum=0.1, affine=True, track_running_stats=True)
    (1): BatchNorm1d(500, eps=1e-05, momentum=0.1, affine=True, track_running_stats=True)
    (2): BatchNorm1d(500, eps=1e-05, momentum=0.1, affine=True, track_running_stats=True)
    (3): BatchNorm1d(500, eps=1e-05, momentum=0.1, affine=True, track_running_stats=True)
    (4): BatchNorm1d(500, eps=1e-05, momentum=0.1, affine=True, track_running_stats=True)
    (5): BatchNorm1d(500, eps=1e-05, momentum=0.1, affine=True, track_running_stats=True)
    (6): BatchNorm1d(500, eps=1e-05, momentum=0.1, affine=True, track_running_stats=True)
    (7): BatchNorm1d(500, eps=1e-05, momentum=0.1, affine=True, track_running_stats=True)
    (8): BatchNorm1d(50, eps=1e-05, momentum=0.1, affine=True, track_running_stats=True)
  )
  (linears_se): ModuleList()
  (bn_linears_se): ModuleList()
  (convs_se): ModuleList()
)
number of trainable parameters is :
3822665
Start eval now:
Si3N4@@@/home/sr365/MM_Bench/Data/Chen/Si3N4_310nm-14280nm.txt shape=(1552, 3)
   lenda    re   im
0    310  2.18  0.0
1    360  2.12  0.0
2    410  2.09  0.0
3    470  2.07  0.0
…
Evaluation finished
Retrieving flag object for parameters
after removing prefix models/, now model_dir is: Chen/Chen_kl_coeff_5e-05_layer_num_10_unit_1000_dim_z_5_reg_scale_0.005
In read_data, flags.data_set = Chen
flgas.data_dir =  /home/sr365/MM_Bench/Data/
data_dir =  /home/sr365/MM_Bench/Data/Chen
total number of training sample is 49900, the dimension of the feature is 5
total number of test sample is 100
Making network now
This is inference mode, the ckpt is /home/sr365/MM_Bench/VAE/models/Chen/Chen_kl_coeff_5e-05_layer_num_10_unit_1000_dim_z_5_reg_scale_0.005
VAE(
  (linears_d): ModuleList(
    (0): Linear(in_features=261, out_features=1000, bias=True)
    (1): Linear(in_features=1000, out_features=1000, bias=True)
    (2): Linear(in_features=1000, out_features=1000, bias=True)
    (3): Linear(in_features=1000, out_features=1000, bias=True)
    (4): Linear(in_features=1000, out_features=1000, bias=True)
    (5): Linear(in_features=1000, out_features=1000, bias=True)
    (6): Linear(in_features=1000, out_features=1000, bias=True)
    (7): Linear(in_features=1000, out_features=1000, bias=True)
    (8): Linear(in_features=1000, out_features=5, bias=True)
  )
  (bn_linears_d): ModuleList(
    (0): BatchNorm1d(1000, eps=1e-05, momentum=0.1, affine=True, track_running_stats=True)
    (1): BatchNorm1d(1000, eps=1e-05, momentum=0.1, affine=True, track_running_stats=True)
    (2): BatchNorm1d(1000, eps=1e-05, momentum=0.1, affine=True, track_running_stats=True)
    (3): BatchNorm1d(1000, eps=1e-05, momentum=0.1, affine=True, track_running_stats=True)
    (4): BatchNorm1d(1000, eps=1e-05, momentum=0.1, affine=True, track_running_stats=True)
    (5): BatchNorm1d(1000, eps=1e-05, momentum=0.1, affine=True, track_running_stats=True)
    (6): BatchNorm1d(1000, eps=1e-05, momentum=0.1, affine=True, track_running_stats=True)
    (7): BatchNorm1d(1000, eps=1e-05, momentum=0.1, affine=True, track_running_stats=True)
    (8): BatchNorm1d(5, eps=1e-05, momentum=0.1, affine=True, track_running_stats=True)
  )
  (linears_e): ModuleList(
    (0): Linear(in_features=261, out_features=1000, bias=True)
    (1): Linear(in_features=1000, out_features=1000, bias=True)
    (2): Linear(in_features=1000, out_features=1000, bias=True)
    (3): Linear(in_features=1000, out_features=1000, bias=True)
    (4): Linear(in_features=1000, out_features=1000, bias=True)
    (5): Linear(in_features=1000, out_features=1000, bias=True)
    (6): Linear(in_features=1000, out_features=1000, bias=True)
    (7): Linear(in_features=1000, out_features=1000, bias=True)
    (8): Linear(in_features=1000, out_features=10, bias=True)
  )
  (bn_linears_e): ModuleList(
    (0): BatchNorm1d(1000, eps=1e-05, momentum=0.1, affine=True, track_running_stats=True)
    (1): BatchNorm1d(1000, eps=1e-05, momentum=0.1, affine=True, track_running_stats=True)
    (2): BatchNorm1d(1000, eps=1e-05, momentum=0.1, affine=True, track_running_stats=True)
    (3): BatchNorm1d(1000, eps=1e-05, momentum=0.1, affine=True, track_running_stats=True)
    (4): BatchNorm1d(1000, eps=1e-05, momentum=0.1, affine=True, track_running_stats=True)
    (5): BatchNorm1d(1000, eps=1e-05, momentum=0.1, affine=True, track_running_stats=True)
    (6): BatchNorm1d(1000, eps=1e-05, momentum=0.1, affine=True, track_running_stats=True)
    (7): BatchNorm1d(1000, eps=1e-05, momentum=0.1, affine=True, track_running_stats=True)
    (8): BatchNorm1d(10, eps=1e-05, momentum=0.1, affine=True, track_running_stats=True)
  )
  (linears_se): ModuleList()
  (bn_linears_se): ModuleList()
  (convs_se): ModuleList()
)
number of trainable parameters is :
14585045
Start eval now:
Si3N4@@@/home/sr365/MM_Bench/Data/Chen/Si3N4_310nm-14280nm.txt shape=(1552, 3)
   lenda    re   im
0    310  2.18  0.0
1    360  2.12  0.0
2    410  2.09  0.0
3    470  2.07  0.0
…
Evaluation finished
Retrieving flag object for parameters
after removing prefix models/, now model_dir is: Chen/Chen_kl_coeff_0.001_layer_num_8_unit_1000_dim_z_15_reg_scale_0.005
In read_data, flags.data_set = Chen
flgas.data_dir =  /home/sr365/MM_Bench/Data/
data_dir =  /home/sr365/MM_Bench/Data/Chen
total number of training sample is 49900, the dimension of the feature is 5
total number of test sample is 100
Making network now
This is inference mode, the ckpt is /home/sr365/MM_Bench/VAE/models/Chen/Chen_kl_coeff_0.001_layer_num_8_unit_1000_dim_z_15_reg_scale_0.005
VAE(
  (linears_d): ModuleList(
    (0): Linear(in_features=271, out_features=1000, bias=True)
    (1): Linear(in_features=1000, out_features=1000, bias=True)
    (2): Linear(in_features=1000, out_features=1000, bias=True)
    (3): Linear(in_features=1000, out_features=1000, bias=True)
    (4): Linear(in_features=1000, out_features=1000, bias=True)
    (5): Linear(in_features=1000, out_features=1000, bias=True)
    (6): Linear(in_features=1000, out_features=5, bias=True)
  )
  (bn_linears_d): ModuleList(
    (0): BatchNorm1d(1000, eps=1e-05, momentum=0.1, affine=True, track_running_stats=True)
    (1): BatchNorm1d(1000, eps=1e-05, momentum=0.1, affine=True, track_running_stats=True)
    (2): BatchNorm1d(1000, eps=1e-05, momentum=0.1, affine=True, track_running_stats=True)
    (3): BatchNorm1d(1000, eps=1e-05, momentum=0.1, affine=True, track_running_stats=True)
    (4): BatchNorm1d(1000, eps=1e-05, momentum=0.1, affine=True, track_running_stats=True)
    (5): BatchNorm1d(1000, eps=1e-05, momentum=0.1, affine=True, track_running_stats=True)
    (6): BatchNorm1d(5, eps=1e-05, momentum=0.1, affine=True, track_running_stats=True)
  )
  (linears_e): ModuleList(
    (0): Linear(in_features=261, out_features=1000, bias=True)
    (1): Linear(in_features=1000, out_features=1000, bias=True)
    (2): Linear(in_features=1000, out_features=1000, bias=True)
    (3): Linear(in_features=1000, out_features=1000, bias=True)
    (4): Linear(in_features=1000, out_features=1000, bias=True)
    (5): Linear(in_features=1000, out_features=1000, bias=True)
    (6): Linear(in_features=1000, out_features=30, bias=True)
  )
  (bn_linears_e): ModuleList(
    (0): BatchNorm1d(1000, eps=1e-05, momentum=0.1, affine=True, track_running_stats=True)
    (1): BatchNorm1d(1000, eps=1e-05, momentum=0.1, affine=True, track_running_stats=True)
    (2): BatchNorm1d(1000, eps=1e-05, momentum=0.1, affine=True, track_running_stats=True)
    (3): BatchNorm1d(1000, eps=1e-05, momentum=0.1, affine=True, track_running_stats=True)
    (4): BatchNorm1d(1000, eps=1e-05, momentum=0.1, affine=True, track_running_stats=True)
    (5): BatchNorm1d(1000, eps=1e-05, momentum=0.1, affine=True, track_running_stats=True)
    (6): BatchNorm1d(30, eps=1e-05, momentum=0.1, affine=True, track_running_stats=True)
  )
  (linears_se): ModuleList()
  (bn_linears_se): ModuleList()
  (convs_se): ModuleList()
)
number of trainable parameters is :
10603105
Start eval now:
Si3N4@@@/home/sr365/MM_Bench/Data/Chen/Si3N4_310nm-14280nm.txt shape=(1552, 3)
   lenda    re   im
0    310  2.18  0.0
1    360  2.12  0.0
2    410  2.09  0.0
3    470  2.07  0.0
…
Evaluation finished
Retrieving flag object for parameters
after removing prefix models/, now model_dir is: Chen/Chen_kl_coeff_0.0005_layer_num_9_unit_500_dim_z_25_reg_scale_0.005
In read_data, flags.data_set = Chen
flgas.data_dir =  /home/sr365/MM_Bench/Data/
data_dir =  /home/sr365/MM_Bench/Data/Chen
total number of training sample is 49900, the dimension of the feature is 5
total number of test sample is 100
Making network now
This is inference mode, the ckpt is /home/sr365/MM_Bench/VAE/models/Chen/Chen_kl_coeff_0.0005_layer_num_9_unit_500_dim_z_25_reg_scale_0.005
VAE(
  (linears_d): ModuleList(
    (0): Linear(in_features=281, out_features=500, bias=True)
    (1): Linear(in_features=500, out_features=500, bias=True)
    (2): Linear(in_features=500, out_features=500, bias=True)
    (3): Linear(in_features=500, out_features=500, bias=True)
    (4): Linear(in_features=500, out_features=500, bias=True)
    (5): Linear(in_features=500, out_features=500, bias=True)
    (6): Linear(in_features=500, out_features=500, bias=True)
    (7): Linear(in_features=500, out_features=5, bias=True)
  )
  (bn_linears_d): ModuleList(
    (0): BatchNorm1d(500, eps=1e-05, momentum=0.1, affine=True, track_running_stats=True)
    (1): BatchNorm1d(500, eps=1e-05, momentum=0.1, affine=True, track_running_stats=True)
    (2): BatchNorm1d(500, eps=1e-05, momentum=0.1, affine=True, track_running_stats=True)
    (3): BatchNorm1d(500, eps=1e-05, momentum=0.1, affine=True, track_running_stats=True)
    (4): BatchNorm1d(500, eps=1e-05, momentum=0.1, affine=True, track_running_stats=True)
    (5): BatchNorm1d(500, eps=1e-05, momentum=0.1, affine=True, track_running_stats=True)
    (6): BatchNorm1d(500, eps=1e-05, momentum=0.1, affine=True, track_running_stats=True)
    (7): BatchNorm1d(5, eps=1e-05, momentum=0.1, affine=True, track_running_stats=True)
  )
  (linears_e): ModuleList(
    (0): Linear(in_features=261, out_features=500, bias=True)
    (1): Linear(in_features=500, out_features=500, bias=True)
    (2): Linear(in_features=500, out_features=500, bias=True)
    (3): Linear(in_features=500, out_features=500, bias=True)
    (4): Linear(in_features=500, out_features=500, bias=True)
    (5): Linear(in_features=500, out_features=500, bias=True)
    (6): Linear(in_features=500, out_features=500, bias=True)
    (7): Linear(in_features=500, out_features=50, bias=True)
  )
  (bn_linears_e): ModuleList(
    (0): BatchNorm1d(500, eps=1e-05, momentum=0.1, affine=True, track_running_stats=True)
    (1): BatchNorm1d(500, eps=1e-05, momentum=0.1, affine=True, track_running_stats=True)
    (2): BatchNorm1d(500, eps=1e-05, momentum=0.1, affine=True, track_running_stats=True)
    (3): BatchNorm1d(500, eps=1e-05, momentum=0.1, affine=True, track_running_stats=True)
    (4): BatchNorm1d(500, eps=1e-05, momentum=0.1, affine=True, track_running_stats=True)
    (5): BatchNorm1d(500, eps=1e-05, momentum=0.1, affine=True, track_running_stats=True)
    (6): BatchNorm1d(500, eps=1e-05, momentum=0.1, affine=True, track_running_stats=True)
    (7): BatchNorm1d(50, eps=1e-05, momentum=0.1, affine=True, track_running_stats=True)
  )
  (linears_se): ModuleList()
  (bn_linears_se): ModuleList()
  (convs_se): ModuleList()
)
number of trainable parameters is :
3319665
Start eval now:
Si3N4@@@/home/sr365/MM_Bench/Data/Chen/Si3N4_310nm-14280nm.txt shape=(1552, 3)
   lenda    re   im
0    310  2.18  0.0
1    360  2.12  0.0
2    410  2.09  0.0
3    470  2.07  0.0
…
Evaluation finished
Retrieving flag object for parameters
after removing prefix models/, now model_dir is: Chen/Chen_kl_coeff_0.005_layer_num_8_unit_500_dim_z_25_reg_scale_0.005
In read_data, flags.data_set = Chen
flgas.data_dir =  /home/sr365/MM_Bench/Data/
data_dir =  /home/sr365/MM_Bench/Data/Chen
total number of training sample is 49900, the dimension of the feature is 5
total number of test sample is 100
Making network now
This is inference mode, the ckpt is /home/sr365/MM_Bench/VAE/models/Chen/Chen_kl_coeff_0.005_layer_num_8_unit_500_dim_z_25_reg_scale_0.005
VAE(
  (linears_d): ModuleList(
    (0): Linear(in_features=281, out_features=500, bias=True)
    (1): Linear(in_features=500, out_features=500, bias=True)
    (2): Linear(in_features=500, out_features=500, bias=True)
    (3): Linear(in_features=500, out_features=500, bias=True)
    (4): Linear(in_features=500, out_features=500, bias=True)
    (5): Linear(in_features=500, out_features=500, bias=True)
    (6): Linear(in_features=500, out_features=5, bias=True)
  )
  (bn_linears_d): ModuleList(
    (0): BatchNorm1d(500, eps=1e-05, momentum=0.1, affine=True, track_running_stats=True)
    (1): BatchNorm1d(500, eps=1e-05, momentum=0.1, affine=True, track_running_stats=True)
    (2): BatchNorm1d(500, eps=1e-05, momentum=0.1, affine=True, track_running_stats=True)
    (3): BatchNorm1d(500, eps=1e-05, momentum=0.1, affine=True, track_running_stats=True)
    (4): BatchNorm1d(500, eps=1e-05, momentum=0.1, affine=True, track_running_stats=True)
    (5): BatchNorm1d(500, eps=1e-05, momentum=0.1, affine=True, track_running_stats=True)
    (6): BatchNorm1d(5, eps=1e-05, momentum=0.1, affine=True, track_running_stats=True)
  )
  (linears_e): ModuleList(
    (0): Linear(in_features=261, out_features=500, bias=True)
    (1): Linear(in_features=500, out_features=500, bias=True)
    (2): Linear(in_features=500, out_features=500, bias=True)
    (3): Linear(in_features=500, out_features=500, bias=True)
    (4): Linear(in_features=500, out_features=500, bias=True)
    (5): Linear(in_features=500, out_features=500, bias=True)
    (6): Linear(in_features=500, out_features=50, bias=True)
  )
  (bn_linears_e): ModuleList(
    (0): BatchNorm1d(500, eps=1e-05, momentum=0.1, affine=True, track_running_stats=True)
    (1): BatchNorm1d(500, eps=1e-05, momentum=0.1, affine=True, track_running_stats=True)
    (2): BatchNorm1d(500, eps=1e-05, momentum=0.1, affine=True, track_running_stats=True)
    (3): BatchNorm1d(500, eps=1e-05, momentum=0.1, affine=True, track_running_stats=True)
    (4): BatchNorm1d(500, eps=1e-05, momentum=0.1, affine=True, track_running_stats=True)
    (5): BatchNorm1d(500, eps=1e-05, momentum=0.1, affine=True, track_running_stats=True)
    (6): BatchNorm1d(50, eps=1e-05, momentum=0.1, affine=True, track_running_stats=True)
  )
  (linears_se): ModuleList()
  (bn_linears_se): ModuleList()
  (convs_se): ModuleList()
)
number of trainable parameters is :
2816665
Start eval now:
Si3N4@@@/home/sr365/MM_Bench/Data/Chen/Si3N4_310nm-14280nm.txt shape=(1552, 3)
   lenda    re   im
0    310  2.18  0.0
1    360  2.12  0.0
2    410  2.09  0.0
3    470  2.07  0.0
…
Evaluation finished
Retrieving flag object for parameters
after removing prefix models/, now model_dir is: Chen/Chen_kl_coeff_0.0001_layer_num_11_unit_1000_dim_z_5_reg_scale_0.005
In read_data, flags.data_set = Chen
flgas.data_dir =  /home/sr365/MM_Bench/Data/
data_dir =  /home/sr365/MM_Bench/Data/Chen
total number of training sample is 49900, the dimension of the feature is 5
total number of test sample is 100
Making network now
This is inference mode, the ckpt is /home/sr365/MM_Bench/VAE/models/Chen/Chen_kl_coeff_0.0001_layer_num_11_unit_1000_dim_z_5_reg_scale_0.005
VAE(
  (linears_d): ModuleList(
    (0): Linear(in_features=261, out_features=1000, bias=True)
    (1): Linear(in_features=1000, out_features=1000, bias=True)
    (2): Linear(in_features=1000, out_features=1000, bias=True)
    (3): Linear(in_features=1000, out_features=1000, bias=True)
    (4): Linear(in_features=1000, out_features=1000, bias=True)
    (5): Linear(in_features=1000, out_features=1000, bias=True)
    (6): Linear(in_features=1000, out_features=1000, bias=True)
    (7): Linear(in_features=1000, out_features=1000, bias=True)
    (8): Linear(in_features=1000, out_features=1000, bias=True)
    (9): Linear(in_features=1000, out_features=5, bias=True)
  )
  (bn_linears_d): ModuleList(
    (0): BatchNorm1d(1000, eps=1e-05, momentum=0.1, affine=True, track_running_stats=True)
    (1): BatchNorm1d(1000, eps=1e-05, momentum=0.1, affine=True, track_running_stats=True)
    (2): BatchNorm1d(1000, eps=1e-05, momentum=0.1, affine=True, track_running_stats=True)
    (3): BatchNorm1d(1000, eps=1e-05, momentum=0.1, affine=True, track_running_stats=True)
    (4): BatchNorm1d(1000, eps=1e-05, momentum=0.1, affine=True, track_running_stats=True)
    (5): BatchNorm1d(1000, eps=1e-05, momentum=0.1, affine=True, track_running_stats=True)
    (6): BatchNorm1d(1000, eps=1e-05, momentum=0.1, affine=True, track_running_stats=True)
    (7): BatchNorm1d(1000, eps=1e-05, momentum=0.1, affine=True, track_running_stats=True)
    (8): BatchNorm1d(1000, eps=1e-05, momentum=0.1, affine=True, track_running_stats=True)
    (9): BatchNorm1d(5, eps=1e-05, momentum=0.1, affine=True, track_running_stats=True)
  )
  (linears_e): ModuleList(
    (0): Linear(in_features=261, out_features=1000, bias=True)
    (1): Linear(in_features=1000, out_features=1000, bias=True)
    (2): Linear(in_features=1000, out_features=1000, bias=True)
    (3): Linear(in_features=1000, out_features=1000, bias=True)
    (4): Linear(in_features=1000, out_features=1000, bias=True)
    (5): Linear(in_features=1000, out_features=1000, bias=True)
    (6): Linear(in_features=1000, out_features=1000, bias=True)
    (7): Linear(in_features=1000, out_features=1000, bias=True)
    (8): Linear(in_features=1000, out_features=1000, bias=True)
    (9): Linear(in_features=1000, out_features=10, bias=True)
  )
  (bn_linears_e): ModuleList(
    (0): BatchNorm1d(1000, eps=1e-05, momentum=0.1, affine=True, track_running_stats=True)
    (1): BatchNorm1d(1000, eps=1e-05, momentum=0.1, affine=True, track_running_stats=True)
    (2): BatchNorm1d(1000, eps=1e-05, momentum=0.1, affine=True, track_running_stats=True)
    (3): BatchNorm1d(1000, eps=1e-05, momentum=0.1, affine=True, track_running_stats=True)
    (4): BatchNorm1d(1000, eps=1e-05, momentum=0.1, affine=True, track_running_stats=True)
    (5): BatchNorm1d(1000, eps=1e-05, momentum=0.1, affine=True, track_running_stats=True)
    (6): BatchNorm1d(1000, eps=1e-05, momentum=0.1, affine=True, track_running_stats=True)
    (7): BatchNorm1d(1000, eps=1e-05, momentum=0.1, affine=True, track_running_stats=True)
    (8): BatchNorm1d(1000, eps=1e-05, momentum=0.1, affine=True, track_running_stats=True)
    (9): BatchNorm1d(10, eps=1e-05, momentum=0.1, affine=True, track_running_stats=True)
  )
  (linears_se): ModuleList()
  (bn_linears_se): ModuleList()
  (convs_se): ModuleList()
)
number of trainable parameters is :
16591045
Start eval now:
Si3N4@@@/home/sr365/MM_Bench/Data/Chen/Si3N4_310nm-14280nm.txt shape=(1552, 3)
   lenda    re   im
0    310  2.18  0.0
1    360  2.12  0.0
2    410  2.09  0.0
3    470  2.07  0.0
…
Evaluation finished
Retrieving flag object for parameters
after removing prefix models/, now model_dir is: Chen/Chen_kl_coeff_0.005_layer_num_9_unit_500_dim_z_15_reg_scale_0.005
In read_data, flags.data_set = Chen
flgas.data_dir =  /home/sr365/MM_Bench/Data/
data_dir =  /home/sr365/MM_Bench/Data/Chen
total number of training sample is 49900, the dimension of the feature is 5
total number of test sample is 100
Making network now
This is inference mode, the ckpt is /home/sr365/MM_Bench/VAE/models/Chen/Chen_kl_coeff_0.005_layer_num_9_unit_500_dim_z_15_reg_scale_0.005
VAE(
  (linears_d): ModuleList(
    (0): Linear(in_features=271, out_features=500, bias=True)
    (1): Linear(in_features=500, out_features=500, bias=True)
    (2): Linear(in_features=500, out_features=500, bias=True)
    (3): Linear(in_features=500, out_features=500, bias=True)
    (4): Linear(in_features=500, out_features=500, bias=True)
    (5): Linear(in_features=500, out_features=500, bias=True)
    (6): Linear(in_features=500, out_features=500, bias=True)
    (7): Linear(in_features=500, out_features=5, bias=True)
  )
  (bn_linears_d): ModuleList(
    (0): BatchNorm1d(500, eps=1e-05, momentum=0.1, affine=True, track_running_stats=True)
    (1): BatchNorm1d(500, eps=1e-05, momentum=0.1, affine=True, track_running_stats=True)
    (2): BatchNorm1d(500, eps=1e-05, momentum=0.1, affine=True, track_running_stats=True)
    (3): BatchNorm1d(500, eps=1e-05, momentum=0.1, affine=True, track_running_stats=True)
    (4): BatchNorm1d(500, eps=1e-05, momentum=0.1, affine=True, track_running_stats=True)
    (5): BatchNorm1d(500, eps=1e-05, momentum=0.1, affine=True, track_running_stats=True)
    (6): BatchNorm1d(500, eps=1e-05, momentum=0.1, affine=True, track_running_stats=True)
    (7): BatchNorm1d(5, eps=1e-05, momentum=0.1, affine=True, track_running_stats=True)
  )
  (linears_e): ModuleList(
    (0): Linear(in_features=261, out_features=500, bias=True)
    (1): Linear(in_features=500, out_features=500, bias=True)
    (2): Linear(in_features=500, out_features=500, bias=True)
    (3): Linear(in_features=500, out_features=500, bias=True)
    (4): Linear(in_features=500, out_features=500, bias=True)
    (5): Linear(in_features=500, out_features=500, bias=True)
    (6): Linear(in_features=500, out_features=500, bias=True)
    (7): Linear(in_features=500, out_features=30, bias=True)
  )
  (bn_linears_e): ModuleList(
    (0): BatchNorm1d(500, eps=1e-05, momentum=0.1, affine=True, track_running_stats=True)
    (1): BatchNorm1d(500, eps=1e-05, momentum=0.1, affine=True, track_running_stats=True)
    (2): BatchNorm1d(500, eps=1e-05, momentum=0.1, affine=True, track_running_stats=True)
    (3): BatchNorm1d(500, eps=1e-05, momentum=0.1, affine=True, track_running_stats=True)
    (4): BatchNorm1d(500, eps=1e-05, momentum=0.1, affine=True, track_running_stats=True)
    (5): BatchNorm1d(500, eps=1e-05, momentum=0.1, affine=True, track_running_stats=True)
    (6): BatchNorm1d(500, eps=1e-05, momentum=0.1, affine=True, track_running_stats=True)
    (7): BatchNorm1d(30, eps=1e-05, momentum=0.1, affine=True, track_running_stats=True)
  )
  (linears_se): ModuleList()
  (bn_linears_se): ModuleList()
  (convs_se): ModuleList()
)
number of trainable parameters is :
3304605
Start eval now:
Si3N4@@@/home/sr365/MM_Bench/Data/Chen/Si3N4_310nm-14280nm.txt shape=(1552, 3)
   lenda    re   im
0    310  2.18  0.0
1    360  2.12  0.0
2    410  2.09  0.0
3    470  2.07  0.0
…
Evaluation finished
Retrieving flag object for parameters
after removing prefix models/, now model_dir is: Chen/Chen_kl_coeff_0.0001_layer_num_10_unit_500_dim_z_5_reg_scale_0.005
In read_data, flags.data_set = Chen
flgas.data_dir =  /home/sr365/MM_Bench/Data/
data_dir =  /home/sr365/MM_Bench/Data/Chen
total number of training sample is 49900, the dimension of the feature is 5
total number of test sample is 100
Making network now
This is inference mode, the ckpt is /home/sr365/MM_Bench/VAE/models/Chen/Chen_kl_coeff_0.0001_layer_num_10_unit_500_dim_z_5_reg_scale_0.005
VAE(
  (linears_d): ModuleList(
    (0): Linear(in_features=261, out_features=500, bias=True)
    (1): Linear(in_features=500, out_features=500, bias=True)
    (2): Linear(in_features=500, out_features=500, bias=True)
    (3): Linear(in_features=500, out_features=500, bias=True)
    (4): Linear(in_features=500, out_features=500, bias=True)
    (5): Linear(in_features=500, out_features=500, bias=True)
    (6): Linear(in_features=500, out_features=500, bias=True)
    (7): Linear(in_features=500, out_features=500, bias=True)
    (8): Linear(in_features=500, out_features=5, bias=True)
  )
  (bn_linears_d): ModuleList(
    (0): BatchNorm1d(500, eps=1e-05, momentum=0.1, affine=True, track_running_stats=True)
    (1): BatchNorm1d(500, eps=1e-05, momentum=0.1, affine=True, track_running_stats=True)
    (2): BatchNorm1d(500, eps=1e-05, momentum=0.1, affine=True, track_running_stats=True)
    (3): BatchNorm1d(500, eps=1e-05, momentum=0.1, affine=True, track_running_stats=True)
    (4): BatchNorm1d(500, eps=1e-05, momentum=0.1, affine=True, track_running_stats=True)
    (5): BatchNorm1d(500, eps=1e-05, momentum=0.1, affine=True, track_running_stats=True)
    (6): BatchNorm1d(500, eps=1e-05, momentum=0.1, affine=True, track_running_stats=True)
    (7): BatchNorm1d(500, eps=1e-05, momentum=0.1, affine=True, track_running_stats=True)
    (8): BatchNorm1d(5, eps=1e-05, momentum=0.1, affine=True, track_running_stats=True)
  )
  (linears_e): ModuleList(
    (0): Linear(in_features=261, out_features=500, bias=True)
    (1): Linear(in_features=500, out_features=500, bias=True)
    (2): Linear(in_features=500, out_features=500, bias=True)
    (3): Linear(in_features=500, out_features=500, bias=True)
    (4): Linear(in_features=500, out_features=500, bias=True)
    (5): Linear(in_features=500, out_features=500, bias=True)
    (6): Linear(in_features=500, out_features=500, bias=True)
    (7): Linear(in_features=500, out_features=500, bias=True)
    (8): Linear(in_features=500, out_features=10, bias=True)
  )
  (bn_linears_e): ModuleList(
    (0): BatchNorm1d(500, eps=1e-05, momentum=0.1, affine=True, track_running_stats=True)
    (1): BatchNorm1d(500, eps=1e-05, momentum=0.1, affine=True, track_running_stats=True)
    (2): BatchNorm1d(500, eps=1e-05, momentum=0.1, affine=True, track_running_stats=True)
    (3): BatchNorm1d(500, eps=1e-05, momentum=0.1, affine=True, track_running_stats=True)
    (4): BatchNorm1d(500, eps=1e-05, momentum=0.1, affine=True, track_running_stats=True)
    (5): BatchNorm1d(500, eps=1e-05, momentum=0.1, affine=True, track_running_stats=True)
    (6): BatchNorm1d(500, eps=1e-05, momentum=0.1, affine=True, track_running_stats=True)
    (7): BatchNorm1d(500, eps=1e-05, momentum=0.1, affine=True, track_running_stats=True)
    (8): BatchNorm1d(10, eps=1e-05, momentum=0.1, affine=True, track_running_stats=True)
  )
  (linears_se): ModuleList()
  (bn_linears_se): ModuleList()
  (convs_se): ModuleList()
)
number of trainable parameters is :
3792545
Start eval now:
Si3N4@@@/home/sr365/MM_Bench/Data/Chen/Si3N4_310nm-14280nm.txt shape=(1552, 3)
   lenda    re   im
0    310  2.18  0.0
1    360  2.12  0.0
2    410  2.09  0.0
3    470  2.07  0.0
…
Evaluation finished
Retrieving flag object for parameters
after removing prefix models/, now model_dir is: Chen/Chen_kl_coeff_0.005_layer_num_8_unit_500_dim_z_5_reg_scale_0.005
In read_data, flags.data_set = Chen
flgas.data_dir =  /home/sr365/MM_Bench/Data/
data_dir =  /home/sr365/MM_Bench/Data/Chen
total number of training sample is 49900, the dimension of the feature is 5
total number of test sample is 100
Making network now
This is inference mode, the ckpt is /home/sr365/MM_Bench/VAE/models/Chen/Chen_kl_coeff_0.005_layer_num_8_unit_500_dim_z_5_reg_scale_0.005
VAE(
  (linears_d): ModuleList(
    (0): Linear(in_features=261, out_features=500, bias=True)
    (1): Linear(in_features=500, out_features=500, bias=True)
    (2): Linear(in_features=500, out_features=500, bias=True)
    (3): Linear(in_features=500, out_features=500, bias=True)
    (4): Linear(in_features=500, out_features=500, bias=True)
    (5): Linear(in_features=500, out_features=500, bias=True)
    (6): Linear(in_features=500, out_features=5, bias=True)
  )
  (bn_linears_d): ModuleList(
    (0): BatchNorm1d(500, eps=1e-05, momentum=0.1, affine=True, track_running_stats=True)
    (1): BatchNorm1d(500, eps=1e-05, momentum=0.1, affine=True, track_running_stats=True)
    (2): BatchNorm1d(500, eps=1e-05, momentum=0.1, affine=True, track_running_stats=True)
    (3): BatchNorm1d(500, eps=1e-05, momentum=0.1, affine=True, track_running_stats=True)
    (4): BatchNorm1d(500, eps=1e-05, momentum=0.1, affine=True, track_running_stats=True)
    (5): BatchNorm1d(500, eps=1e-05, momentum=0.1, affine=True, track_running_stats=True)
    (6): BatchNorm1d(5, eps=1e-05, momentum=0.1, affine=True, track_running_stats=True)
  )
  (linears_e): ModuleList(
    (0): Linear(in_features=261, out_features=500, bias=True)
    (1): Linear(in_features=500, out_features=500, bias=True)
    (2): Linear(in_features=500, out_features=500, bias=True)
    (3): Linear(in_features=500, out_features=500, bias=True)
    (4): Linear(in_features=500, out_features=500, bias=True)
    (5): Linear(in_features=500, out_features=500, bias=True)
    (6): Linear(in_features=500, out_features=10, bias=True)
  )
  (bn_linears_e): ModuleList(
    (0): BatchNorm1d(500, eps=1e-05, momentum=0.1, affine=True, track_running_stats=True)
    (1): BatchNorm1d(500, eps=1e-05, momentum=0.1, affine=True, track_running_stats=True)
    (2): BatchNorm1d(500, eps=1e-05, momentum=0.1, affine=True, track_running_stats=True)
    (3): BatchNorm1d(500, eps=1e-05, momentum=0.1, affine=True, track_running_stats=True)
    (4): BatchNorm1d(500, eps=1e-05, momentum=0.1, affine=True, track_running_stats=True)
    (5): BatchNorm1d(500, eps=1e-05, momentum=0.1, affine=True, track_running_stats=True)
    (6): BatchNorm1d(10, eps=1e-05, momentum=0.1, affine=True, track_running_stats=True)
  )
  (linears_se): ModuleList()
  (bn_linears_se): ModuleList()
  (convs_se): ModuleList()
)
number of trainable parameters is :
2786545
Start eval now:
Si3N4@@@/home/sr365/MM_Bench/Data/Chen/Si3N4_310nm-14280nm.txt shape=(1552, 3)
   lenda    re   im
0    310  2.18  0.0
1    360  2.12  0.0
2    410  2.09  0.0
3    470  2.07  0.0
…
Evaluation finished
Retrieving flag object for parameters
after removing prefix models/, now model_dir is: Chen/Chen_kl_coeff_0.0001_layer_num_7_unit_500_dim_z_5_reg_scale_0.005
In read_data, flags.data_set = Chen
flgas.data_dir =  /home/sr365/MM_Bench/Data/
data_dir =  /home/sr365/MM_Bench/Data/Chen
total number of training sample is 49900, the dimension of the feature is 5
total number of test sample is 100
Making network now
This is inference mode, the ckpt is /home/sr365/MM_Bench/VAE/models/Chen/Chen_kl_coeff_0.0001_layer_num_7_unit_500_dim_z_5_reg_scale_0.005
VAE(
  (linears_d): ModuleList(
    (0): Linear(in_features=261, out_features=500, bias=True)
    (1): Linear(in_features=500, out_features=500, bias=True)
    (2): Linear(in_features=500, out_features=500, bias=True)
    (3): Linear(in_features=500, out_features=500, bias=True)
    (4): Linear(in_features=500, out_features=500, bias=True)
    (5): Linear(in_features=500, out_features=5, bias=True)
  )
  (bn_linears_d): ModuleList(
    (0): BatchNorm1d(500, eps=1e-05, momentum=0.1, affine=True, track_running_stats=True)
    (1): BatchNorm1d(500, eps=1e-05, momentum=0.1, affine=True, track_running_stats=True)
    (2): BatchNorm1d(500, eps=1e-05, momentum=0.1, affine=True, track_running_stats=True)
    (3): BatchNorm1d(500, eps=1e-05, momentum=0.1, affine=True, track_running_stats=True)
    (4): BatchNorm1d(500, eps=1e-05, momentum=0.1, affine=True, track_running_stats=True)
    (5): BatchNorm1d(5, eps=1e-05, momentum=0.1, affine=True, track_running_stats=True)
  )
  (linears_e): ModuleList(
    (0): Linear(in_features=261, out_features=500, bias=True)
    (1): Linear(in_features=500, out_features=500, bias=True)
    (2): Linear(in_features=500, out_features=500, bias=True)
    (3): Linear(in_features=500, out_features=500, bias=True)
    (4): Linear(in_features=500, out_features=500, bias=True)
    (5): Linear(in_features=500, out_features=10, bias=True)
  )
  (bn_linears_e): ModuleList(
    (0): BatchNorm1d(500, eps=1e-05, momentum=0.1, affine=True, track_running_stats=True)
    (1): BatchNorm1d(500, eps=1e-05, momentum=0.1, affine=True, track_running_stats=True)
    (2): BatchNorm1d(500, eps=1e-05, momentum=0.1, affine=True, track_running_stats=True)
    (3): BatchNorm1d(500, eps=1e-05, momentum=0.1, affine=True, track_running_stats=True)
    (4): BatchNorm1d(500, eps=1e-05, momentum=0.1, affine=True, track_running_stats=True)
    (5): BatchNorm1d(10, eps=1e-05, momentum=0.1, affine=True, track_running_stats=True)
  )
  (linears_se): ModuleList()
  (bn_linears_se): ModuleList()
  (convs_se): ModuleList()
)
number of trainable parameters is :
2283545
Start eval now:
Si3N4@@@/home/sr365/MM_Bench/Data/Chen/Si3N4_310nm-14280nm.txt shape=(1552, 3)
   lenda    re   im
0    310  2.18  0.0
1    360  2.12  0.0
2    410  2.09  0.0
3    470  2.07  0.0
…
Evaluation finished
Retrieving flag object for parameters
after removing prefix models/, now model_dir is: Chen/Chen_kl_coeff_0.005_layer_num_7_unit_500_dim_z_25_reg_scale_0.005
In read_data, flags.data_set = Chen
flgas.data_dir =  /home/sr365/MM_Bench/Data/
data_dir =  /home/sr365/MM_Bench/Data/Chen
total number of training sample is 49900, the dimension of the feature is 5
total number of test sample is 100
Making network now
This is inference mode, the ckpt is /home/sr365/MM_Bench/VAE/models/Chen/Chen_kl_coeff_0.005_layer_num_7_unit_500_dim_z_25_reg_scale_0.005
VAE(
  (linears_d): ModuleList(
    (0): Linear(in_features=281, out_features=500, bias=True)
    (1): Linear(in_features=500, out_features=500, bias=True)
    (2): Linear(in_features=500, out_features=500, bias=True)
    (3): Linear(in_features=500, out_features=500, bias=True)
    (4): Linear(in_features=500, out_features=500, bias=True)
    (5): Linear(in_features=500, out_features=5, bias=True)
  )
  (bn_linears_d): ModuleList(
    (0): BatchNorm1d(500, eps=1e-05, momentum=0.1, affine=True, track_running_stats=True)
    (1): BatchNorm1d(500, eps=1e-05, momentum=0.1, affine=True, track_running_stats=True)
    (2): BatchNorm1d(500, eps=1e-05, momentum=0.1, affine=True, track_running_stats=True)
    (3): BatchNorm1d(500, eps=1e-05, momentum=0.1, affine=True, track_running_stats=True)
    (4): BatchNorm1d(500, eps=1e-05, momentum=0.1, affine=True, track_running_stats=True)
    (5): BatchNorm1d(5, eps=1e-05, momentum=0.1, affine=True, track_running_stats=True)
  )
  (linears_e): ModuleList(
    (0): Linear(in_features=261, out_features=500, bias=True)
    (1): Linear(in_features=500, out_features=500, bias=True)
    (2): Linear(in_features=500, out_features=500, bias=True)
    (3): Linear(in_features=500, out_features=500, bias=True)
    (4): Linear(in_features=500, out_features=500, bias=True)
    (5): Linear(in_features=500, out_features=50, bias=True)
  )
  (bn_linears_e): ModuleList(
    (0): BatchNorm1d(500, eps=1e-05, momentum=0.1, affine=True, track_running_stats=True)
    (1): BatchNorm1d(500, eps=1e-05, momentum=0.1, affine=True, track_running_stats=True)
    (2): BatchNorm1d(500, eps=1e-05, momentum=0.1, affine=True, track_running_stats=True)
    (3): BatchNorm1d(500, eps=1e-05, momentum=0.1, affine=True, track_running_stats=True)
    (4): BatchNorm1d(500, eps=1e-05, momentum=0.1, affine=True, track_running_stats=True)
    (5): BatchNorm1d(50, eps=1e-05, momentum=0.1, affine=True, track_running_stats=True)
  )
  (linears_se): ModuleList()
  (bn_linears_se): ModuleList()
  (convs_se): ModuleList()
)
number of trainable parameters is :
2313665
Start eval now:
Si3N4@@@/home/sr365/MM_Bench/Data/Chen/Si3N4_310nm-14280nm.txt shape=(1552, 3)
   lenda    re   im
0    310  2.18  0.0
1    360  2.12  0.0
2    410  2.09  0.0
3    470  2.07  0.0
…
