In read_data, flags.data_set = Chen
flgas.data_dir =  /home/sr365/MM_Bench/Data/
data_dir =  /home/sr365/MM_Bench/Data/Chen
total number of training sample is 40000, the dimension of the feature is 5
total number of test sample is 10000
Making network now
VAE(
  (linears_d): ModuleList(
    (0): Linear(in_features=261, out_features=500, bias=True)
    (1): Linear(in_features=500, out_features=500, bias=True)
    (2): Linear(in_features=500, out_features=500, bias=True)
    (3): Linear(in_features=500, out_features=500, bias=True)
    (4): Linear(in_features=500, out_features=5, bias=True)
  )
  (bn_linears_d): ModuleList(
    (0): BatchNorm1d(500, eps=1e-05, momentum=0.1, affine=True, track_running_stats=True)
    (1): BatchNorm1d(500, eps=1e-05, momentum=0.1, affine=True, track_running_stats=True)
    (2): BatchNorm1d(500, eps=1e-05, momentum=0.1, affine=True, track_running_stats=True)
    (3): BatchNorm1d(500, eps=1e-05, momentum=0.1, affine=True, track_running_stats=True)
    (4): BatchNorm1d(5, eps=1e-05, momentum=0.1, affine=True, track_running_stats=True)
  )
  (linears_e): ModuleList(
    (0): Linear(in_features=261, out_features=500, bias=True)
    (1): Linear(in_features=500, out_features=500, bias=True)
    (2): Linear(in_features=500, out_features=500, bias=True)
    (3): Linear(in_features=500, out_features=500, bias=True)
    (4): Linear(in_features=500, out_features=10, bias=True)
  )
  (bn_linears_e): ModuleList(
    (0): BatchNorm1d(500, eps=1e-05, momentum=0.1, affine=True, track_running_stats=True)
    (1): BatchNorm1d(500, eps=1e-05, momentum=0.1, affine=True, track_running_stats=True)
    (2): BatchNorm1d(500, eps=1e-05, momentum=0.1, affine=True, track_running_stats=True)
    (3): BatchNorm1d(500, eps=1e-05, momentum=0.1, affine=True, track_running_stats=True)
    (4): BatchNorm1d(10, eps=1e-05, momentum=0.1, affine=True, track_running_stats=True)
  )
  (linears_se): ModuleList()
  (bn_linears_se): ModuleList()
  (convs_se): ModuleList()
)
Start training now...
Starting training now
Doing Evaluation on the model now
This is Epoch 0, training loss 1398.39883, validation loss 1373.56484
Saving the model down...
Doing Evaluation on the model now
This is Epoch 20, training loss 98.51168, validation loss 81.78831
…
Doing Evaluation on the model now
This is Epoch 240, training loss 20.27788, validation loss 21.23287
Doing Evaluation on the model now
This is Epoch 260, training loss 18.73628, validation loss 26.24949
Doing Evaluation on the model now
This is Epoch 280, training loss 17.88399, validation loss 17.21550
Saving the model down...
In read_data, flags.data_set = Chen
flgas.data_dir =  /home/sr365/MM_Bench/Data/
data_dir =  /home/sr365/MM_Bench/Data/Chen
total number of training sample is 40000, the dimension of the feature is 5
total number of test sample is 10000
Making network now
VAE(
  (linears_d): ModuleList(
    (0): Linear(in_features=271, out_features=500, bias=True)
    (1): Linear(in_features=500, out_features=500, bias=True)
    (2): Linear(in_features=500, out_features=500, bias=True)
    (3): Linear(in_features=500, out_features=500, bias=True)
    (4): Linear(in_features=500, out_features=5, bias=True)
  )
  (bn_linears_d): ModuleList(
    (0): BatchNorm1d(500, eps=1e-05, momentum=0.1, affine=True, track_running_stats=True)
    (1): BatchNorm1d(500, eps=1e-05, momentum=0.1, affine=True, track_running_stats=True)
    (2): BatchNorm1d(500, eps=1e-05, momentum=0.1, affine=True, track_running_stats=True)
    (3): BatchNorm1d(500, eps=1e-05, momentum=0.1, affine=True, track_running_stats=True)
    (4): BatchNorm1d(5, eps=1e-05, momentum=0.1, affine=True, track_running_stats=True)
  )
  (linears_e): ModuleList(
    (0): Linear(in_features=261, out_features=500, bias=True)
    (1): Linear(in_features=500, out_features=500, bias=True)
    (2): Linear(in_features=500, out_features=500, bias=True)
    (3): Linear(in_features=500, out_features=500, bias=True)
    (4): Linear(in_features=500, out_features=30, bias=True)
  )
  (bn_linears_e): ModuleList(
    (0): BatchNorm1d(500, eps=1e-05, momentum=0.1, affine=True, track_running_stats=True)
    (1): BatchNorm1d(500, eps=1e-05, momentum=0.1, affine=True, track_running_stats=True)
    (2): BatchNorm1d(500, eps=1e-05, momentum=0.1, affine=True, track_running_stats=True)
    (3): BatchNorm1d(500, eps=1e-05, momentum=0.1, affine=True, track_running_stats=True)
    (4): BatchNorm1d(30, eps=1e-05, momentum=0.1, affine=True, track_running_stats=True)
  )
  (linears_se): ModuleList()
  (bn_linears_se): ModuleList()
  (convs_se): ModuleList()
)
Start training now...
Starting training now
Doing Evaluation on the model now
This is Epoch 0, training loss 2042.33340, validation loss 1689.73418
Saving the model down...
Doing Evaluation on the model now
This is Epoch 20, training loss 138.92463, validation loss 121.14554
…
This is Epoch 240, training loss 20.91783, validation loss 18.61881
Saving the model down...
Doing Evaluation on the model now
This is Epoch 260, training loss 19.68255, validation loss 19.47502
Doing Evaluation on the model now
This is Epoch 280, training loss 18.63244, validation loss 17.96312
Saving the model down...
In read_data, flags.data_set = Chen
flgas.data_dir =  /home/sr365/MM_Bench/Data/
data_dir =  /home/sr365/MM_Bench/Data/Chen
total number of training sample is 40000, the dimension of the feature is 5
total number of test sample is 10000
Making network now
VAE(
  (linears_d): ModuleList(
    (0): Linear(in_features=281, out_features=500, bias=True)
    (1): Linear(in_features=500, out_features=500, bias=True)
    (2): Linear(in_features=500, out_features=500, bias=True)
    (3): Linear(in_features=500, out_features=500, bias=True)
    (4): Linear(in_features=500, out_features=5, bias=True)
  )
  (bn_linears_d): ModuleList(
    (0): BatchNorm1d(500, eps=1e-05, momentum=0.1, affine=True, track_running_stats=True)
    (1): BatchNorm1d(500, eps=1e-05, momentum=0.1, affine=True, track_running_stats=True)
    (2): BatchNorm1d(500, eps=1e-05, momentum=0.1, affine=True, track_running_stats=True)
    (3): BatchNorm1d(500, eps=1e-05, momentum=0.1, affine=True, track_running_stats=True)
    (4): BatchNorm1d(5, eps=1e-05, momentum=0.1, affine=True, track_running_stats=True)
  )
  (linears_e): ModuleList(
    (0): Linear(in_features=261, out_features=500, bias=True)
    (1): Linear(in_features=500, out_features=500, bias=True)
    (2): Linear(in_features=500, out_features=500, bias=True)
    (3): Linear(in_features=500, out_features=500, bias=True)
    (4): Linear(in_features=500, out_features=50, bias=True)
  )
  (bn_linears_e): ModuleList(
    (0): BatchNorm1d(500, eps=1e-05, momentum=0.1, affine=True, track_running_stats=True)
    (1): BatchNorm1d(500, eps=1e-05, momentum=0.1, affine=True, track_running_stats=True)
    (2): BatchNorm1d(500, eps=1e-05, momentum=0.1, affine=True, track_running_stats=True)
    (3): BatchNorm1d(500, eps=1e-05, momentum=0.1, affine=True, track_running_stats=True)
    (4): BatchNorm1d(50, eps=1e-05, momentum=0.1, affine=True, track_running_stats=True)
  )
  (linears_se): ModuleList()
  (bn_linears_se): ModuleList()
  (convs_se): ModuleList()
)
Start training now...
Starting training now
Doing Evaluation on the model now
This is Epoch 0, training loss 2595.63574, validation loss 1658.31270
Saving the model down...
Doing Evaluation on the model now
This is Epoch 20, training loss 167.40415, validation loss 141.53240
…
This is Epoch 240, training loss 23.02433, validation loss 20.82978
Saving the model down...
Doing Evaluation on the model now
This is Epoch 260, training loss 21.84848, validation loss 20.87932
Doing Evaluation on the model now
This is Epoch 280, training loss 20.72543, validation loss 19.13058
Saving the model down...
In read_data, flags.data_set = Chen
flgas.data_dir =  /home/sr365/MM_Bench/Data/
data_dir =  /home/sr365/MM_Bench/Data/Chen
total number of training sample is 40000, the dimension of the feature is 5
total number of test sample is 10000
Making network now
VAE(
  (linears_d): ModuleList(
    (0): Linear(in_features=261, out_features=1000, bias=True)
    (1): Linear(in_features=1000, out_features=1000, bias=True)
    (2): Linear(in_features=1000, out_features=1000, bias=True)
    (3): Linear(in_features=1000, out_features=1000, bias=True)
    (4): Linear(in_features=1000, out_features=5, bias=True)
  )
  (bn_linears_d): ModuleList(
    (0): BatchNorm1d(1000, eps=1e-05, momentum=0.1, affine=True, track_running_stats=True)
    (1): BatchNorm1d(1000, eps=1e-05, momentum=0.1, affine=True, track_running_stats=True)
    (2): BatchNorm1d(1000, eps=1e-05, momentum=0.1, affine=True, track_running_stats=True)
    (3): BatchNorm1d(1000, eps=1e-05, momentum=0.1, affine=True, track_running_stats=True)
    (4): BatchNorm1d(5, eps=1e-05, momentum=0.1, affine=True, track_running_stats=True)
  )
  (linears_e): ModuleList(
    (0): Linear(in_features=261, out_features=1000, bias=True)
    (1): Linear(in_features=1000, out_features=1000, bias=True)
    (2): Linear(in_features=1000, out_features=1000, bias=True)
    (3): Linear(in_features=1000, out_features=1000, bias=True)
    (4): Linear(in_features=1000, out_features=10, bias=True)
  )
  (bn_linears_e): ModuleList(
    (0): BatchNorm1d(1000, eps=1e-05, momentum=0.1, affine=True, track_running_stats=True)
    (1): BatchNorm1d(1000, eps=1e-05, momentum=0.1, affine=True, track_running_stats=True)
    (2): BatchNorm1d(1000, eps=1e-05, momentum=0.1, affine=True, track_running_stats=True)
    (3): BatchNorm1d(1000, eps=1e-05, momentum=0.1, affine=True, track_running_stats=True)
    (4): BatchNorm1d(10, eps=1e-05, momentum=0.1, affine=True, track_running_stats=True)
  )
  (linears_se): ModuleList()
  (bn_linears_se): ModuleList()
  (convs_se): ModuleList()
)
Start training now...
Starting training now
Doing Evaluation on the model now
This is Epoch 0, training loss 1257.36367, validation loss 1191.79268
Saving the model down...
Doing Evaluation on the model now
This is Epoch 20, training loss 91.61179, validation loss 80.51243
…
Epoch   252: reducing learning rate of group 0 to 8.0000e-05.
Doing Evaluation on the model now
This is Epoch 260, training loss 19.55987, validation loss 22.51154
Saving the model down...
Doing Evaluation on the model now
This is Epoch 280, training loss 17.65691, validation loss 18.58426
Saving the model down...
In read_data, flags.data_set = Chen
flgas.data_dir =  /home/sr365/MM_Bench/Data/
data_dir =  /home/sr365/MM_Bench/Data/Chen
total number of training sample is 40000, the dimension of the feature is 5
total number of test sample is 10000
Making network now
VAE(
  (linears_d): ModuleList(
    (0): Linear(in_features=271, out_features=1000, bias=True)
    (1): Linear(in_features=1000, out_features=1000, bias=True)
    (2): Linear(in_features=1000, out_features=1000, bias=True)
    (3): Linear(in_features=1000, out_features=1000, bias=True)
    (4): Linear(in_features=1000, out_features=5, bias=True)
  )
  (bn_linears_d): ModuleList(
    (0): BatchNorm1d(1000, eps=1e-05, momentum=0.1, affine=True, track_running_stats=True)
    (1): BatchNorm1d(1000, eps=1e-05, momentum=0.1, affine=True, track_running_stats=True)
    (2): BatchNorm1d(1000, eps=1e-05, momentum=0.1, affine=True, track_running_stats=True)
    (3): BatchNorm1d(1000, eps=1e-05, momentum=0.1, affine=True, track_running_stats=True)
    (4): BatchNorm1d(5, eps=1e-05, momentum=0.1, affine=True, track_running_stats=True)
  )
  (linears_e): ModuleList(
    (0): Linear(in_features=261, out_features=1000, bias=True)
    (1): Linear(in_features=1000, out_features=1000, bias=True)
    (2): Linear(in_features=1000, out_features=1000, bias=True)
    (3): Linear(in_features=1000, out_features=1000, bias=True)
    (4): Linear(in_features=1000, out_features=30, bias=True)
  )
  (bn_linears_e): ModuleList(
    (0): BatchNorm1d(1000, eps=1e-05, momentum=0.1, affine=True, track_running_stats=True)
    (1): BatchNorm1d(1000, eps=1e-05, momentum=0.1, affine=True, track_running_stats=True)
    (2): BatchNorm1d(1000, eps=1e-05, momentum=0.1, affine=True, track_running_stats=True)
    (3): BatchNorm1d(1000, eps=1e-05, momentum=0.1, affine=True, track_running_stats=True)
    (4): BatchNorm1d(30, eps=1e-05, momentum=0.1, affine=True, track_running_stats=True)
  )
  (linears_se): ModuleList()
  (bn_linears_se): ModuleList()
  (convs_se): ModuleList()
)
Start training now...
Starting training now
Doing Evaluation on the model now
This is Epoch 0, training loss 1846.87148, validation loss 1710.16465
Saving the model down...
Doing Evaluation on the model now
This is Epoch 20, training loss 115.32192, validation loss 118.06464
…
This is Epoch 240, training loss 22.67278, validation loss 23.64838
Saving the model down...
Doing Evaluation on the model now
This is Epoch 260, training loss 20.51395, validation loss 21.22091
Saving the model down...
Doing Evaluation on the model now
This is Epoch 280, training loss 18.78860, validation loss 21.34681
In read_data, flags.data_set = Chen
flgas.data_dir =  /home/sr365/MM_Bench/Data/
data_dir =  /home/sr365/MM_Bench/Data/Chen
total number of training sample is 40000, the dimension of the feature is 5
total number of test sample is 10000
Making network now
VAE(
  (linears_d): ModuleList(
    (0): Linear(in_features=281, out_features=1000, bias=True)
    (1): Linear(in_features=1000, out_features=1000, bias=True)
    (2): Linear(in_features=1000, out_features=1000, bias=True)
    (3): Linear(in_features=1000, out_features=1000, bias=True)
    (4): Linear(in_features=1000, out_features=5, bias=True)
  )
  (bn_linears_d): ModuleList(
    (0): BatchNorm1d(1000, eps=1e-05, momentum=0.1, affine=True, track_running_stats=True)
    (1): BatchNorm1d(1000, eps=1e-05, momentum=0.1, affine=True, track_running_stats=True)
    (2): BatchNorm1d(1000, eps=1e-05, momentum=0.1, affine=True, track_running_stats=True)
    (3): BatchNorm1d(1000, eps=1e-05, momentum=0.1, affine=True, track_running_stats=True)
    (4): BatchNorm1d(5, eps=1e-05, momentum=0.1, affine=True, track_running_stats=True)
  )
  (linears_e): ModuleList(
    (0): Linear(in_features=261, out_features=1000, bias=True)
    (1): Linear(in_features=1000, out_features=1000, bias=True)
    (2): Linear(in_features=1000, out_features=1000, bias=True)
    (3): Linear(in_features=1000, out_features=1000, bias=True)
    (4): Linear(in_features=1000, out_features=50, bias=True)
  )
  (bn_linears_e): ModuleList(
    (0): BatchNorm1d(1000, eps=1e-05, momentum=0.1, affine=True, track_running_stats=True)
    (1): BatchNorm1d(1000, eps=1e-05, momentum=0.1, affine=True, track_running_stats=True)
    (2): BatchNorm1d(1000, eps=1e-05, momentum=0.1, affine=True, track_running_stats=True)
    (3): BatchNorm1d(1000, eps=1e-05, momentum=0.1, affine=True, track_running_stats=True)
    (4): BatchNorm1d(50, eps=1e-05, momentum=0.1, affine=True, track_running_stats=True)
  )
  (linears_se): ModuleList()
  (bn_linears_se): ModuleList()
  (convs_se): ModuleList()
)
Start training now...
Starting training now
Doing Evaluation on the model now
This is Epoch 0, training loss 2108.67656, validation loss 1843.30586
Saving the model down...
Doing Evaluation on the model now
This is Epoch 20, training loss 131.55890, validation loss 130.80138
…
Saving the model down...
Doing Evaluation on the model now
This is Epoch 260, training loss 22.09106, validation loss 28.03652
Epoch   269: reducing learning rate of group 0 to 8.0000e-05.
Doing Evaluation on the model now
This is Epoch 280, training loss 21.05154, validation loss 25.48328
Saving the model down...
In read_data, flags.data_set = Chen
flgas.data_dir =  /home/sr365/MM_Bench/Data/
data_dir =  /home/sr365/MM_Bench/Data/Chen
total number of training sample is 40000, the dimension of the feature is 5
total number of test sample is 10000
Making network now
VAE(
  (linears_d): ModuleList(
    (0): Linear(in_features=261, out_features=500, bias=True)
    (1): Linear(in_features=500, out_features=500, bias=True)
    (2): Linear(in_features=500, out_features=500, bias=True)
    (3): Linear(in_features=500, out_features=500, bias=True)
    (4): Linear(in_features=500, out_features=500, bias=True)
    (5): Linear(in_features=500, out_features=5, bias=True)
  )
  (bn_linears_d): ModuleList(
    (0): BatchNorm1d(500, eps=1e-05, momentum=0.1, affine=True, track_running_stats=True)
    (1): BatchNorm1d(500, eps=1e-05, momentum=0.1, affine=True, track_running_stats=True)
    (2): BatchNorm1d(500, eps=1e-05, momentum=0.1, affine=True, track_running_stats=True)
    (3): BatchNorm1d(500, eps=1e-05, momentum=0.1, affine=True, track_running_stats=True)
    (4): BatchNorm1d(500, eps=1e-05, momentum=0.1, affine=True, track_running_stats=True)
    (5): BatchNorm1d(5, eps=1e-05, momentum=0.1, affine=True, track_running_stats=True)
  )
  (linears_e): ModuleList(
    (0): Linear(in_features=261, out_features=500, bias=True)
    (1): Linear(in_features=500, out_features=500, bias=True)
    (2): Linear(in_features=500, out_features=500, bias=True)
    (3): Linear(in_features=500, out_features=500, bias=True)
    (4): Linear(in_features=500, out_features=500, bias=True)
    (5): Linear(in_features=500, out_features=10, bias=True)
  )
  (bn_linears_e): ModuleList(
    (0): BatchNorm1d(500, eps=1e-05, momentum=0.1, affine=True, track_running_stats=True)
    (1): BatchNorm1d(500, eps=1e-05, momentum=0.1, affine=True, track_running_stats=True)
    (2): BatchNorm1d(500, eps=1e-05, momentum=0.1, affine=True, track_running_stats=True)
    (3): BatchNorm1d(500, eps=1e-05, momentum=0.1, affine=True, track_running_stats=True)
    (4): BatchNorm1d(500, eps=1e-05, momentum=0.1, affine=True, track_running_stats=True)
    (5): BatchNorm1d(10, eps=1e-05, momentum=0.1, affine=True, track_running_stats=True)
  )
  (linears_se): ModuleList()
  (bn_linears_se): ModuleList()
  (convs_se): ModuleList()
)
Start training now...
Starting training now
Doing Evaluation on the model now
This is Epoch 0, training loss 1519.73828, validation loss 1531.88926
Saving the model down...
Doing Evaluation on the model now
This is Epoch 20, training loss 93.44606, validation loss 74.28801
…
This is Epoch 240, training loss 17.40783, validation loss 31.27961
Doing Evaluation on the model now
This is Epoch 260, training loss 16.33141, validation loss 35.75584
Epoch   276: reducing learning rate of group 0 to 8.0000e-05.
Doing Evaluation on the model now
This is Epoch 280, training loss 15.90963, validation loss 18.23004
Saving the model down...
In read_data, flags.data_set = Chen
flgas.data_dir =  /home/sr365/MM_Bench/Data/
data_dir =  /home/sr365/MM_Bench/Data/Chen
total number of training sample is 40000, the dimension of the feature is 5
total number of test sample is 10000
Making network now
VAE(
  (linears_d): ModuleList(
    (0): Linear(in_features=271, out_features=500, bias=True)
    (1): Linear(in_features=500, out_features=500, bias=True)
    (2): Linear(in_features=500, out_features=500, bias=True)
    (3): Linear(in_features=500, out_features=500, bias=True)
    (4): Linear(in_features=500, out_features=500, bias=True)
    (5): Linear(in_features=500, out_features=5, bias=True)
  )
  (bn_linears_d): ModuleList(
    (0): BatchNorm1d(500, eps=1e-05, momentum=0.1, affine=True, track_running_stats=True)
    (1): BatchNorm1d(500, eps=1e-05, momentum=0.1, affine=True, track_running_stats=True)
    (2): BatchNorm1d(500, eps=1e-05, momentum=0.1, affine=True, track_running_stats=True)
    (3): BatchNorm1d(500, eps=1e-05, momentum=0.1, affine=True, track_running_stats=True)
    (4): BatchNorm1d(500, eps=1e-05, momentum=0.1, affine=True, track_running_stats=True)
    (5): BatchNorm1d(5, eps=1e-05, momentum=0.1, affine=True, track_running_stats=True)
  )
  (linears_e): ModuleList(
    (0): Linear(in_features=261, out_features=500, bias=True)
    (1): Linear(in_features=500, out_features=500, bias=True)
    (2): Linear(in_features=500, out_features=500, bias=True)
    (3): Linear(in_features=500, out_features=500, bias=True)
    (4): Linear(in_features=500, out_features=500, bias=True)
    (5): Linear(in_features=500, out_features=30, bias=True)
  )
  (bn_linears_e): ModuleList(
    (0): BatchNorm1d(500, eps=1e-05, momentum=0.1, affine=True, track_running_stats=True)
    (1): BatchNorm1d(500, eps=1e-05, momentum=0.1, affine=True, track_running_stats=True)
    (2): BatchNorm1d(500, eps=1e-05, momentum=0.1, affine=True, track_running_stats=True)
    (3): BatchNorm1d(500, eps=1e-05, momentum=0.1, affine=True, track_running_stats=True)
    (4): BatchNorm1d(500, eps=1e-05, momentum=0.1, affine=True, track_running_stats=True)
    (5): BatchNorm1d(30, eps=1e-05, momentum=0.1, affine=True, track_running_stats=True)
  )
  (linears_se): ModuleList()
  (bn_linears_se): ModuleList()
  (convs_se): ModuleList()
)
Start training now...
Starting training now
Doing Evaluation on the model now
This is Epoch 0, training loss 2169.41406, validation loss 2294.55410
Saving the model down...
Doing Evaluation on the model now
This is Epoch 20, training loss 124.32421, validation loss 114.27325
…
This is Epoch 240, training loss 18.54333, validation loss 21.54753
Doing Evaluation on the model now
This is Epoch 260, training loss 17.20520, validation loss 16.89084
Saving the model down...
Doing Evaluation on the model now
This is Epoch 280, training loss 17.02726, validation loss 18.58716
Epoch   281: reducing learning rate of group 0 to 8.0000e-05.
In read_data, flags.data_set = Chen
flgas.data_dir =  /home/sr365/MM_Bench/Data/
data_dir =  /home/sr365/MM_Bench/Data/Chen
total number of training sample is 40000, the dimension of the feature is 5
total number of test sample is 10000
Making network now
VAE(
  (linears_d): ModuleList(
    (0): Linear(in_features=281, out_features=500, bias=True)
    (1): Linear(in_features=500, out_features=500, bias=True)
    (2): Linear(in_features=500, out_features=500, bias=True)
    (3): Linear(in_features=500, out_features=500, bias=True)
    (4): Linear(in_features=500, out_features=500, bias=True)
    (5): Linear(in_features=500, out_features=5, bias=True)
  )
  (bn_linears_d): ModuleList(
    (0): BatchNorm1d(500, eps=1e-05, momentum=0.1, affine=True, track_running_stats=True)
    (1): BatchNorm1d(500, eps=1e-05, momentum=0.1, affine=True, track_running_stats=True)
    (2): BatchNorm1d(500, eps=1e-05, momentum=0.1, affine=True, track_running_stats=True)
    (3): BatchNorm1d(500, eps=1e-05, momentum=0.1, affine=True, track_running_stats=True)
    (4): BatchNorm1d(500, eps=1e-05, momentum=0.1, affine=True, track_running_stats=True)
    (5): BatchNorm1d(5, eps=1e-05, momentum=0.1, affine=True, track_running_stats=True)
  )
  (linears_e): ModuleList(
    (0): Linear(in_features=261, out_features=500, bias=True)
    (1): Linear(in_features=500, out_features=500, bias=True)
    (2): Linear(in_features=500, out_features=500, bias=True)
    (3): Linear(in_features=500, out_features=500, bias=True)
    (4): Linear(in_features=500, out_features=500, bias=True)
    (5): Linear(in_features=500, out_features=50, bias=True)
  )
  (bn_linears_e): ModuleList(
    (0): BatchNorm1d(500, eps=1e-05, momentum=0.1, affine=True, track_running_stats=True)
    (1): BatchNorm1d(500, eps=1e-05, momentum=0.1, affine=True, track_running_stats=True)
    (2): BatchNorm1d(500, eps=1e-05, momentum=0.1, affine=True, track_running_stats=True)
    (3): BatchNorm1d(500, eps=1e-05, momentum=0.1, affine=True, track_running_stats=True)
    (4): BatchNorm1d(500, eps=1e-05, momentum=0.1, affine=True, track_running_stats=True)
    (5): BatchNorm1d(50, eps=1e-05, momentum=0.1, affine=True, track_running_stats=True)
  )
  (linears_se): ModuleList()
  (bn_linears_se): ModuleList()
  (convs_se): ModuleList()
)
Start training now...
Starting training now
Doing Evaluation on the model now
This is Epoch 0, training loss 2699.73555, validation loss 1613.99570
Saving the model down...
Doing Evaluation on the model now
This is Epoch 20, training loss 146.48215, validation loss 122.21201
…
This is Epoch 240, training loss 20.31194, validation loss 19.23675
Saving the model down...
Doing Evaluation on the model now
This is Epoch 260, training loss 18.83131, validation loss 18.29104
Saving the model down...
Doing Evaluation on the model now
This is Epoch 280, training loss 17.61012, validation loss 18.03807
Saving the model down...
In read_data, flags.data_set = Chen
flgas.data_dir =  /home/sr365/MM_Bench/Data/
data_dir =  /home/sr365/MM_Bench/Data/Chen
total number of training sample is 40000, the dimension of the feature is 5
total number of test sample is 10000
Making network now
VAE(
  (linears_d): ModuleList(
    (0): Linear(in_features=261, out_features=1000, bias=True)
    (1): Linear(in_features=1000, out_features=1000, bias=True)
    (2): Linear(in_features=1000, out_features=1000, bias=True)
    (3): Linear(in_features=1000, out_features=1000, bias=True)
    (4): Linear(in_features=1000, out_features=1000, bias=True)
    (5): Linear(in_features=1000, out_features=5, bias=True)
  )
  (bn_linears_d): ModuleList(
    (0): BatchNorm1d(1000, eps=1e-05, momentum=0.1, affine=True, track_running_stats=True)
    (1): BatchNorm1d(1000, eps=1e-05, momentum=0.1, affine=True, track_running_stats=True)
    (2): BatchNorm1d(1000, eps=1e-05, momentum=0.1, affine=True, track_running_stats=True)
    (3): BatchNorm1d(1000, eps=1e-05, momentum=0.1, affine=True, track_running_stats=True)
    (4): BatchNorm1d(1000, eps=1e-05, momentum=0.1, affine=True, track_running_stats=True)
    (5): BatchNorm1d(5, eps=1e-05, momentum=0.1, affine=True, track_running_stats=True)
  )
  (linears_e): ModuleList(
    (0): Linear(in_features=261, out_features=1000, bias=True)
    (1): Linear(in_features=1000, out_features=1000, bias=True)
    (2): Linear(in_features=1000, out_features=1000, bias=True)
    (3): Linear(in_features=1000, out_features=1000, bias=True)
    (4): Linear(in_features=1000, out_features=1000, bias=True)
    (5): Linear(in_features=1000, out_features=10, bias=True)
  )
  (bn_linears_e): ModuleList(
    (0): BatchNorm1d(1000, eps=1e-05, momentum=0.1, affine=True, track_running_stats=True)
    (1): BatchNorm1d(1000, eps=1e-05, momentum=0.1, affine=True, track_running_stats=True)
    (2): BatchNorm1d(1000, eps=1e-05, momentum=0.1, affine=True, track_running_stats=True)
    (3): BatchNorm1d(1000, eps=1e-05, momentum=0.1, affine=True, track_running_stats=True)
    (4): BatchNorm1d(1000, eps=1e-05, momentum=0.1, affine=True, track_running_stats=True)
    (5): BatchNorm1d(10, eps=1e-05, momentum=0.1, affine=True, track_running_stats=True)
  )
  (linears_se): ModuleList()
  (bn_linears_se): ModuleList()
  (convs_se): ModuleList()
)
Start training now...
Starting training now
Doing Evaluation on the model now
This is Epoch 0, training loss 1354.42119, validation loss 1347.66602
Saving the model down...
Doing Evaluation on the model now
This is Epoch 20, training loss 79.30760, validation loss 67.57251
…
This is Epoch 240, training loss 16.48849, validation loss 20.29502
Saving the model down...
Doing Evaluation on the model now
This is Epoch 260, training loss 14.76979, validation loss 16.15881
Saving the model down...
Doing Evaluation on the model now
This is Epoch 280, training loss 13.46145, validation loss 16.94156
In read_data, flags.data_set = Chen
flgas.data_dir =  /home/sr365/MM_Bench/Data/
data_dir =  /home/sr365/MM_Bench/Data/Chen
total number of training sample is 40000, the dimension of the feature is 5
total number of test sample is 10000
Making network now
VAE(
  (linears_d): ModuleList(
    (0): Linear(in_features=271, out_features=1000, bias=True)
    (1): Linear(in_features=1000, out_features=1000, bias=True)
    (2): Linear(in_features=1000, out_features=1000, bias=True)
    (3): Linear(in_features=1000, out_features=1000, bias=True)
    (4): Linear(in_features=1000, out_features=1000, bias=True)
    (5): Linear(in_features=1000, out_features=5, bias=True)
  )
  (bn_linears_d): ModuleList(
    (0): BatchNorm1d(1000, eps=1e-05, momentum=0.1, affine=True, track_running_stats=True)
    (1): BatchNorm1d(1000, eps=1e-05, momentum=0.1, affine=True, track_running_stats=True)
    (2): BatchNorm1d(1000, eps=1e-05, momentum=0.1, affine=True, track_running_stats=True)
    (3): BatchNorm1d(1000, eps=1e-05, momentum=0.1, affine=True, track_running_stats=True)
    (4): BatchNorm1d(1000, eps=1e-05, momentum=0.1, affine=True, track_running_stats=True)
    (5): BatchNorm1d(5, eps=1e-05, momentum=0.1, affine=True, track_running_stats=True)
  )
  (linears_e): ModuleList(
    (0): Linear(in_features=261, out_features=1000, bias=True)
    (1): Linear(in_features=1000, out_features=1000, bias=True)
    (2): Linear(in_features=1000, out_features=1000, bias=True)
    (3): Linear(in_features=1000, out_features=1000, bias=True)
    (4): Linear(in_features=1000, out_features=1000, bias=True)
    (5): Linear(in_features=1000, out_features=30, bias=True)
  )
  (bn_linears_e): ModuleList(
    (0): BatchNorm1d(1000, eps=1e-05, momentum=0.1, affine=True, track_running_stats=True)
    (1): BatchNorm1d(1000, eps=1e-05, momentum=0.1, affine=True, track_running_stats=True)
    (2): BatchNorm1d(1000, eps=1e-05, momentum=0.1, affine=True, track_running_stats=True)
    (3): BatchNorm1d(1000, eps=1e-05, momentum=0.1, affine=True, track_running_stats=True)
    (4): BatchNorm1d(1000, eps=1e-05, momentum=0.1, affine=True, track_running_stats=True)
    (5): BatchNorm1d(30, eps=1e-05, momentum=0.1, affine=True, track_running_stats=True)
  )
  (linears_se): ModuleList()
  (bn_linears_se): ModuleList()
  (convs_se): ModuleList()
)
Start training now...
Starting training now
Doing Evaluation on the model now
This is Epoch 0, training loss 1952.46094, validation loss 1425.43984
Saving the model down...
Doing Evaluation on the model now
This is Epoch 20, training loss 99.10991, validation loss 103.44076
…
This is Epoch 240, training loss 19.82091, validation loss 21.62010
Saving the model down...
Doing Evaluation on the model now
This is Epoch 260, training loss 18.26908, validation loss 20.66118
Saving the model down...
Doing Evaluation on the model now
This is Epoch 280, training loss 16.68643, validation loss 19.29543
Saving the model down...
In read_data, flags.data_set = Chen
flgas.data_dir =  /home/sr365/MM_Bench/Data/
data_dir =  /home/sr365/MM_Bench/Data/Chen
total number of training sample is 40000, the dimension of the feature is 5
total number of test sample is 10000
Making network now
VAE(
  (linears_d): ModuleList(
    (0): Linear(in_features=281, out_features=1000, bias=True)
    (1): Linear(in_features=1000, out_features=1000, bias=True)
    (2): Linear(in_features=1000, out_features=1000, bias=True)
    (3): Linear(in_features=1000, out_features=1000, bias=True)
    (4): Linear(in_features=1000, out_features=1000, bias=True)
    (5): Linear(in_features=1000, out_features=5, bias=True)
  )
  (bn_linears_d): ModuleList(
    (0): BatchNorm1d(1000, eps=1e-05, momentum=0.1, affine=True, track_running_stats=True)
    (1): BatchNorm1d(1000, eps=1e-05, momentum=0.1, affine=True, track_running_stats=True)
    (2): BatchNorm1d(1000, eps=1e-05, momentum=0.1, affine=True, track_running_stats=True)
    (3): BatchNorm1d(1000, eps=1e-05, momentum=0.1, affine=True, track_running_stats=True)
    (4): BatchNorm1d(1000, eps=1e-05, momentum=0.1, affine=True, track_running_stats=True)
    (5): BatchNorm1d(5, eps=1e-05, momentum=0.1, affine=True, track_running_stats=True)
  )
  (linears_e): ModuleList(
    (0): Linear(in_features=261, out_features=1000, bias=True)
    (1): Linear(in_features=1000, out_features=1000, bias=True)
    (2): Linear(in_features=1000, out_features=1000, bias=True)
    (3): Linear(in_features=1000, out_features=1000, bias=True)
    (4): Linear(in_features=1000, out_features=1000, bias=True)
    (5): Linear(in_features=1000, out_features=50, bias=True)
  )
  (bn_linears_e): ModuleList(
    (0): BatchNorm1d(1000, eps=1e-05, momentum=0.1, affine=True, track_running_stats=True)
    (1): BatchNorm1d(1000, eps=1e-05, momentum=0.1, affine=True, track_running_stats=True)
    (2): BatchNorm1d(1000, eps=1e-05, momentum=0.1, affine=True, track_running_stats=True)
    (3): BatchNorm1d(1000, eps=1e-05, momentum=0.1, affine=True, track_running_stats=True)
    (4): BatchNorm1d(1000, eps=1e-05, momentum=0.1, affine=True, track_running_stats=True)
    (5): BatchNorm1d(50, eps=1e-05, momentum=0.1, affine=True, track_running_stats=True)
  )
  (linears_se): ModuleList()
  (bn_linears_se): ModuleList()
  (convs_se): ModuleList()
)
Start training now...
Starting training now
Doing Evaluation on the model now
This is Epoch 0, training loss 2302.27402, validation loss 1739.32070
Saving the model down...
Doing Evaluation on the model now
This is Epoch 20, training loss 119.10059, validation loss 103.49404
…
This is Epoch 240, training loss 21.06808, validation loss 27.34977
Saving the model down...
Doing Evaluation on the model now
This is Epoch 260, training loss 18.65298, validation loss 22.03711
Saving the model down...
Doing Evaluation on the model now
This is Epoch 280, training loss 17.39501, validation loss 19.69285
Saving the model down...
In read_data, flags.data_set = Chen
flgas.data_dir =  /home/sr365/MM_Bench/Data/
data_dir =  /home/sr365/MM_Bench/Data/Chen
total number of training sample is 40000, the dimension of the feature is 5
total number of test sample is 10000
Making network now
VAE(
  (linears_d): ModuleList(
    (0): Linear(in_features=261, out_features=500, bias=True)
    (1): Linear(in_features=500, out_features=500, bias=True)
    (2): Linear(in_features=500, out_features=500, bias=True)
    (3): Linear(in_features=500, out_features=500, bias=True)
    (4): Linear(in_features=500, out_features=500, bias=True)
    (5): Linear(in_features=500, out_features=500, bias=True)
    (6): Linear(in_features=500, out_features=5, bias=True)
  )
  (bn_linears_d): ModuleList(
    (0): BatchNorm1d(500, eps=1e-05, momentum=0.1, affine=True, track_running_stats=True)
    (1): BatchNorm1d(500, eps=1e-05, momentum=0.1, affine=True, track_running_stats=True)
    (2): BatchNorm1d(500, eps=1e-05, momentum=0.1, affine=True, track_running_stats=True)
    (3): BatchNorm1d(500, eps=1e-05, momentum=0.1, affine=True, track_running_stats=True)
    (4): BatchNorm1d(500, eps=1e-05, momentum=0.1, affine=True, track_running_stats=True)
    (5): BatchNorm1d(500, eps=1e-05, momentum=0.1, affine=True, track_running_stats=True)
    (6): BatchNorm1d(5, eps=1e-05, momentum=0.1, affine=True, track_running_stats=True)
  )
  (linears_e): ModuleList(
    (0): Linear(in_features=261, out_features=500, bias=True)
    (1): Linear(in_features=500, out_features=500, bias=True)
    (2): Linear(in_features=500, out_features=500, bias=True)
    (3): Linear(in_features=500, out_features=500, bias=True)
    (4): Linear(in_features=500, out_features=500, bias=True)
    (5): Linear(in_features=500, out_features=500, bias=True)
    (6): Linear(in_features=500, out_features=10, bias=True)
  )
  (bn_linears_e): ModuleList(
    (0): BatchNorm1d(500, eps=1e-05, momentum=0.1, affine=True, track_running_stats=True)
    (1): BatchNorm1d(500, eps=1e-05, momentum=0.1, affine=True, track_running_stats=True)
    (2): BatchNorm1d(500, eps=1e-05, momentum=0.1, affine=True, track_running_stats=True)
    (3): BatchNorm1d(500, eps=1e-05, momentum=0.1, affine=True, track_running_stats=True)
    (4): BatchNorm1d(500, eps=1e-05, momentum=0.1, affine=True, track_running_stats=True)
    (5): BatchNorm1d(500, eps=1e-05, momentum=0.1, affine=True, track_running_stats=True)
    (6): BatchNorm1d(10, eps=1e-05, momentum=0.1, affine=True, track_running_stats=True)
  )
  (linears_se): ModuleList()
  (bn_linears_se): ModuleList()
  (convs_se): ModuleList()
)
Start training now...
Starting training now
Doing Evaluation on the model now
This is Epoch 0, training loss 1476.14463, validation loss 1500.07383
Saving the model down...
Doing Evaluation on the model now
This is Epoch 20, training loss 86.75013, validation loss 71.44705
…
This is Epoch 240, training loss 15.24015, validation loss 18.60768
Saving the model down...
Doing Evaluation on the model now
This is Epoch 260, training loss 14.21400, validation loss 19.50278
Doing Evaluation on the model now
This is Epoch 280, training loss 13.70988, validation loss 18.76917
Epoch   290: reducing learning rate of group 0 to 8.0000e-05.
In read_data, flags.data_set = Chen
flgas.data_dir =  /home/sr365/MM_Bench/Data/
data_dir =  /home/sr365/MM_Bench/Data/Chen
total number of training sample is 40000, the dimension of the feature is 5
total number of test sample is 10000
Making network now
VAE(
  (linears_d): ModuleList(
    (0): Linear(in_features=271, out_features=500, bias=True)
    (1): Linear(in_features=500, out_features=500, bias=True)
    (2): Linear(in_features=500, out_features=500, bias=True)
    (3): Linear(in_features=500, out_features=500, bias=True)
    (4): Linear(in_features=500, out_features=500, bias=True)
    (5): Linear(in_features=500, out_features=500, bias=True)
    (6): Linear(in_features=500, out_features=5, bias=True)
  )
  (bn_linears_d): ModuleList(
    (0): BatchNorm1d(500, eps=1e-05, momentum=0.1, affine=True, track_running_stats=True)
    (1): BatchNorm1d(500, eps=1e-05, momentum=0.1, affine=True, track_running_stats=True)
    (2): BatchNorm1d(500, eps=1e-05, momentum=0.1, affine=True, track_running_stats=True)
    (3): BatchNorm1d(500, eps=1e-05, momentum=0.1, affine=True, track_running_stats=True)
    (4): BatchNorm1d(500, eps=1e-05, momentum=0.1, affine=True, track_running_stats=True)
    (5): BatchNorm1d(500, eps=1e-05, momentum=0.1, affine=True, track_running_stats=True)
    (6): BatchNorm1d(5, eps=1e-05, momentum=0.1, affine=True, track_running_stats=True)
  )
  (linears_e): ModuleList(
    (0): Linear(in_features=261, out_features=500, bias=True)
    (1): Linear(in_features=500, out_features=500, bias=True)
    (2): Linear(in_features=500, out_features=500, bias=True)
    (3): Linear(in_features=500, out_features=500, bias=True)
    (4): Linear(in_features=500, out_features=500, bias=True)
    (5): Linear(in_features=500, out_features=500, bias=True)
    (6): Linear(in_features=500, out_features=30, bias=True)
  )
  (bn_linears_e): ModuleList(
    (0): BatchNorm1d(500, eps=1e-05, momentum=0.1, affine=True, track_running_stats=True)
    (1): BatchNorm1d(500, eps=1e-05, momentum=0.1, affine=True, track_running_stats=True)
    (2): BatchNorm1d(500, eps=1e-05, momentum=0.1, affine=True, track_running_stats=True)
    (3): BatchNorm1d(500, eps=1e-05, momentum=0.1, affine=True, track_running_stats=True)
    (4): BatchNorm1d(500, eps=1e-05, momentum=0.1, affine=True, track_running_stats=True)
    (5): BatchNorm1d(500, eps=1e-05, momentum=0.1, affine=True, track_running_stats=True)
    (6): BatchNorm1d(30, eps=1e-05, momentum=0.1, affine=True, track_running_stats=True)
  )
  (linears_se): ModuleList()
  (bn_linears_se): ModuleList()
  (convs_se): ModuleList()
)
Start training now...
Starting training now
Doing Evaluation on the model now
This is Epoch 0, training loss 2378.69336, validation loss 1654.18926
Saving the model down...
Doing Evaluation on the model now
This is Epoch 20, training loss 117.40574, validation loss 102.12364
…
Saving the model down...
Doing Evaluation on the model now
This is Epoch 260, training loss 16.75260, validation loss 24.55953
Epoch   262: reducing learning rate of group 0 to 8.0000e-05.
Doing Evaluation on the model now
This is Epoch 280, training loss 15.30874, validation loss 19.82874
Saving the model down...
In read_data, flags.data_set = Chen
flgas.data_dir =  /home/sr365/MM_Bench/Data/
data_dir =  /home/sr365/MM_Bench/Data/Chen
total number of training sample is 40000, the dimension of the feature is 5
total number of test sample is 10000
Making network now
VAE(
  (linears_d): ModuleList(
    (0): Linear(in_features=281, out_features=500, bias=True)
    (1): Linear(in_features=500, out_features=500, bias=True)
    (2): Linear(in_features=500, out_features=500, bias=True)
    (3): Linear(in_features=500, out_features=500, bias=True)
    (4): Linear(in_features=500, out_features=500, bias=True)
    (5): Linear(in_features=500, out_features=500, bias=True)
    (6): Linear(in_features=500, out_features=5, bias=True)
  )
  (bn_linears_d): ModuleList(
    (0): BatchNorm1d(500, eps=1e-05, momentum=0.1, affine=True, track_running_stats=True)
    (1): BatchNorm1d(500, eps=1e-05, momentum=0.1, affine=True, track_running_stats=True)
    (2): BatchNorm1d(500, eps=1e-05, momentum=0.1, affine=True, track_running_stats=True)
    (3): BatchNorm1d(500, eps=1e-05, momentum=0.1, affine=True, track_running_stats=True)
    (4): BatchNorm1d(500, eps=1e-05, momentum=0.1, affine=True, track_running_stats=True)
    (5): BatchNorm1d(500, eps=1e-05, momentum=0.1, affine=True, track_running_stats=True)
    (6): BatchNorm1d(5, eps=1e-05, momentum=0.1, affine=True, track_running_stats=True)
  )
  (linears_e): ModuleList(
    (0): Linear(in_features=261, out_features=500, bias=True)
    (1): Linear(in_features=500, out_features=500, bias=True)
    (2): Linear(in_features=500, out_features=500, bias=True)
    (3): Linear(in_features=500, out_features=500, bias=True)
    (4): Linear(in_features=500, out_features=500, bias=True)
    (5): Linear(in_features=500, out_features=500, bias=True)
    (6): Linear(in_features=500, out_features=50, bias=True)
  )
  (bn_linears_e): ModuleList(
    (0): BatchNorm1d(500, eps=1e-05, momentum=0.1, affine=True, track_running_stats=True)
    (1): BatchNorm1d(500, eps=1e-05, momentum=0.1, affine=True, track_running_stats=True)
    (2): BatchNorm1d(500, eps=1e-05, momentum=0.1, affine=True, track_running_stats=True)
    (3): BatchNorm1d(500, eps=1e-05, momentum=0.1, affine=True, track_running_stats=True)
    (4): BatchNorm1d(500, eps=1e-05, momentum=0.1, affine=True, track_running_stats=True)
    (5): BatchNorm1d(500, eps=1e-05, momentum=0.1, affine=True, track_running_stats=True)
    (6): BatchNorm1d(50, eps=1e-05, momentum=0.1, affine=True, track_running_stats=True)
  )
  (linears_se): ModuleList()
  (bn_linears_se): ModuleList()
  (convs_se): ModuleList()
)
Start training now...
Starting training now
Doing Evaluation on the model now
This is Epoch 0, training loss 2753.54063, validation loss 1735.01738
Saving the model down...
Doing Evaluation on the model now
This is Epoch 20, training loss 143.39529, validation loss 106.99863
…
Doing Evaluation on the model now
This is Epoch 240, training loss 19.23206, validation loss 21.79884
Doing Evaluation on the model now
This is Epoch 260, training loss 17.81829, validation loss 22.90043
Doing Evaluation on the model now
This is Epoch 280, training loss 17.34563, validation loss 22.24265
In read_data, flags.data_set = Chen
flgas.data_dir =  /home/sr365/MM_Bench/Data/
data_dir =  /home/sr365/MM_Bench/Data/Chen
total number of training sample is 40000, the dimension of the feature is 5
total number of test sample is 10000
Making network now
VAE(
  (linears_d): ModuleList(
    (0): Linear(in_features=261, out_features=1000, bias=True)
    (1): Linear(in_features=1000, out_features=1000, bias=True)
    (2): Linear(in_features=1000, out_features=1000, bias=True)
    (3): Linear(in_features=1000, out_features=1000, bias=True)
    (4): Linear(in_features=1000, out_features=1000, bias=True)
    (5): Linear(in_features=1000, out_features=1000, bias=True)
    (6): Linear(in_features=1000, out_features=5, bias=True)
  )
  (bn_linears_d): ModuleList(
    (0): BatchNorm1d(1000, eps=1e-05, momentum=0.1, affine=True, track_running_stats=True)
    (1): BatchNorm1d(1000, eps=1e-05, momentum=0.1, affine=True, track_running_stats=True)
    (2): BatchNorm1d(1000, eps=1e-05, momentum=0.1, affine=True, track_running_stats=True)
    (3): BatchNorm1d(1000, eps=1e-05, momentum=0.1, affine=True, track_running_stats=True)
    (4): BatchNorm1d(1000, eps=1e-05, momentum=0.1, affine=True, track_running_stats=True)
    (5): BatchNorm1d(1000, eps=1e-05, momentum=0.1, affine=True, track_running_stats=True)
    (6): BatchNorm1d(5, eps=1e-05, momentum=0.1, affine=True, track_running_stats=True)
  )
  (linears_e): ModuleList(
    (0): Linear(in_features=261, out_features=1000, bias=True)
    (1): Linear(in_features=1000, out_features=1000, bias=True)
    (2): Linear(in_features=1000, out_features=1000, bias=True)
    (3): Linear(in_features=1000, out_features=1000, bias=True)
    (4): Linear(in_features=1000, out_features=1000, bias=True)
    (5): Linear(in_features=1000, out_features=1000, bias=True)
    (6): Linear(in_features=1000, out_features=10, bias=True)
  )
  (bn_linears_e): ModuleList(
    (0): BatchNorm1d(1000, eps=1e-05, momentum=0.1, affine=True, track_running_stats=True)
    (1): BatchNorm1d(1000, eps=1e-05, momentum=0.1, affine=True, track_running_stats=True)
    (2): BatchNorm1d(1000, eps=1e-05, momentum=0.1, affine=True, track_running_stats=True)
    (3): BatchNorm1d(1000, eps=1e-05, momentum=0.1, affine=True, track_running_stats=True)
    (4): BatchNorm1d(1000, eps=1e-05, momentum=0.1, affine=True, track_running_stats=True)
    (5): BatchNorm1d(1000, eps=1e-05, momentum=0.1, affine=True, track_running_stats=True)
    (6): BatchNorm1d(10, eps=1e-05, momentum=0.1, affine=True, track_running_stats=True)
  )
  (linears_se): ModuleList()
  (bn_linears_se): ModuleList()
  (convs_se): ModuleList()
)
Start training now...
Starting training now
Doing Evaluation on the model now
This is Epoch 0, training loss 1412.31758, validation loss 1467.38682
Saving the model down...
Doing Evaluation on the model now
This is Epoch 20, training loss 74.05746, validation loss 69.43216
…
Doing Evaluation on the model now
This is Epoch 260, training loss 13.22284, validation loss 24.99141
Doing Evaluation on the model now
This is Epoch 280, training loss 12.56245, validation loss 30.09001
Epoch   287: reducing learning rate of group 0 to 6.4000e-05.
Epoch   298: reducing learning rate of group 0 to 5.1200e-05.
In read_data, flags.data_set = Chen
flgas.data_dir =  /home/sr365/MM_Bench/Data/
data_dir =  /home/sr365/MM_Bench/Data/Chen
total number of training sample is 40000, the dimension of the feature is 5
total number of test sample is 10000
Making network now
VAE(
  (linears_d): ModuleList(
    (0): Linear(in_features=271, out_features=1000, bias=True)
    (1): Linear(in_features=1000, out_features=1000, bias=True)
    (2): Linear(in_features=1000, out_features=1000, bias=True)
    (3): Linear(in_features=1000, out_features=1000, bias=True)
    (4): Linear(in_features=1000, out_features=1000, bias=True)
    (5): Linear(in_features=1000, out_features=1000, bias=True)
    (6): Linear(in_features=1000, out_features=5, bias=True)
  )
  (bn_linears_d): ModuleList(
    (0): BatchNorm1d(1000, eps=1e-05, momentum=0.1, affine=True, track_running_stats=True)
    (1): BatchNorm1d(1000, eps=1e-05, momentum=0.1, affine=True, track_running_stats=True)
    (2): BatchNorm1d(1000, eps=1e-05, momentum=0.1, affine=True, track_running_stats=True)
    (3): BatchNorm1d(1000, eps=1e-05, momentum=0.1, affine=True, track_running_stats=True)
    (4): BatchNorm1d(1000, eps=1e-05, momentum=0.1, affine=True, track_running_stats=True)
    (5): BatchNorm1d(1000, eps=1e-05, momentum=0.1, affine=True, track_running_stats=True)
    (6): BatchNorm1d(5, eps=1e-05, momentum=0.1, affine=True, track_running_stats=True)
  )
  (linears_e): ModuleList(
    (0): Linear(in_features=261, out_features=1000, bias=True)
    (1): Linear(in_features=1000, out_features=1000, bias=True)
    (2): Linear(in_features=1000, out_features=1000, bias=True)
    (3): Linear(in_features=1000, out_features=1000, bias=True)
    (4): Linear(in_features=1000, out_features=1000, bias=True)
    (5): Linear(in_features=1000, out_features=1000, bias=True)
    (6): Linear(in_features=1000, out_features=30, bias=True)
  )
  (bn_linears_e): ModuleList(
    (0): BatchNorm1d(1000, eps=1e-05, momentum=0.1, affine=True, track_running_stats=True)
    (1): BatchNorm1d(1000, eps=1e-05, momentum=0.1, affine=True, track_running_stats=True)
    (2): BatchNorm1d(1000, eps=1e-05, momentum=0.1, affine=True, track_running_stats=True)
    (3): BatchNorm1d(1000, eps=1e-05, momentum=0.1, affine=True, track_running_stats=True)
    (4): BatchNorm1d(1000, eps=1e-05, momentum=0.1, affine=True, track_running_stats=True)
    (5): BatchNorm1d(1000, eps=1e-05, momentum=0.1, affine=True, track_running_stats=True)
    (6): BatchNorm1d(30, eps=1e-05, momentum=0.1, affine=True, track_running_stats=True)
  )
  (linears_se): ModuleList()
  (bn_linears_se): ModuleList()
  (convs_se): ModuleList()
)
Start training now...
Starting training now
Doing Evaluation on the model now
This is Epoch 0, training loss 2082.58984, validation loss 1809.48770
Saving the model down...
Doing Evaluation on the model now
This is Epoch 20, training loss 94.25885, validation loss 98.36085
…
Saving the model down...
Doing Evaluation on the model now
This is Epoch 260, training loss 16.31461, validation loss 22.35961
Saving the model down...
Doing Evaluation on the model now
This is Epoch 280, training loss 15.37743, validation loss 24.89390
Epoch   289: reducing learning rate of group 0 to 6.4000e-05.
In read_data, flags.data_set = Chen
flgas.data_dir =  /home/sr365/MM_Bench/Data/
data_dir =  /home/sr365/MM_Bench/Data/Chen
total number of training sample is 40000, the dimension of the feature is 5
total number of test sample is 10000
Making network now
VAE(
  (linears_d): ModuleList(
    (0): Linear(in_features=281, out_features=1000, bias=True)
    (1): Linear(in_features=1000, out_features=1000, bias=True)
    (2): Linear(in_features=1000, out_features=1000, bias=True)
    (3): Linear(in_features=1000, out_features=1000, bias=True)
    (4): Linear(in_features=1000, out_features=1000, bias=True)
    (5): Linear(in_features=1000, out_features=1000, bias=True)
    (6): Linear(in_features=1000, out_features=5, bias=True)
  )
  (bn_linears_d): ModuleList(
    (0): BatchNorm1d(1000, eps=1e-05, momentum=0.1, affine=True, track_running_stats=True)
    (1): BatchNorm1d(1000, eps=1e-05, momentum=0.1, affine=True, track_running_stats=True)
    (2): BatchNorm1d(1000, eps=1e-05, momentum=0.1, affine=True, track_running_stats=True)
    (3): BatchNorm1d(1000, eps=1e-05, momentum=0.1, affine=True, track_running_stats=True)
    (4): BatchNorm1d(1000, eps=1e-05, momentum=0.1, affine=True, track_running_stats=True)
    (5): BatchNorm1d(1000, eps=1e-05, momentum=0.1, affine=True, track_running_stats=True)
    (6): BatchNorm1d(5, eps=1e-05, momentum=0.1, affine=True, track_running_stats=True)
  )
  (linears_e): ModuleList(
    (0): Linear(in_features=261, out_features=1000, bias=True)
    (1): Linear(in_features=1000, out_features=1000, bias=True)
    (2): Linear(in_features=1000, out_features=1000, bias=True)
    (3): Linear(in_features=1000, out_features=1000, bias=True)
    (4): Linear(in_features=1000, out_features=1000, bias=True)
    (5): Linear(in_features=1000, out_features=1000, bias=True)
    (6): Linear(in_features=1000, out_features=50, bias=True)
  )
  (bn_linears_e): ModuleList(
    (0): BatchNorm1d(1000, eps=1e-05, momentum=0.1, affine=True, track_running_stats=True)
    (1): BatchNorm1d(1000, eps=1e-05, momentum=0.1, affine=True, track_running_stats=True)
    (2): BatchNorm1d(1000, eps=1e-05, momentum=0.1, affine=True, track_running_stats=True)
    (3): BatchNorm1d(1000, eps=1e-05, momentum=0.1, affine=True, track_running_stats=True)
    (4): BatchNorm1d(1000, eps=1e-05, momentum=0.1, affine=True, track_running_stats=True)
    (5): BatchNorm1d(1000, eps=1e-05, momentum=0.1, affine=True, track_running_stats=True)
    (6): BatchNorm1d(50, eps=1e-05, momentum=0.1, affine=True, track_running_stats=True)
  )
  (linears_se): ModuleList()
  (bn_linears_se): ModuleList()
  (convs_se): ModuleList()
)
Start training now...
Starting training now
Doing Evaluation on the model now
This is Epoch 0, training loss 2416.31113, validation loss 1454.62148
Saving the model down...
Doing Evaluation on the model now
This is Epoch 20, training loss 109.37350, validation loss 96.92838
…
This is Epoch 240, training loss 19.44916, validation loss 27.97943
Doing Evaluation on the model now
This is Epoch 260, training loss 17.83972, validation loss 24.47253
Saving the model down...
Doing Evaluation on the model now
This is Epoch 280, training loss 16.72729, validation loss 24.60905
Epoch   297: reducing learning rate of group 0 to 6.4000e-05.
In read_data, flags.data_set = Chen
flgas.data_dir =  /home/sr365/MM_Bench/Data/
data_dir =  /home/sr365/MM_Bench/Data/Chen
total number of training sample is 40000, the dimension of the feature is 5
total number of test sample is 10000
Making network now
VAE(
  (linears_d): ModuleList(
    (0): Linear(in_features=261, out_features=500, bias=True)
    (1): Linear(in_features=500, out_features=500, bias=True)
    (2): Linear(in_features=500, out_features=500, bias=True)
    (3): Linear(in_features=500, out_features=500, bias=True)
    (4): Linear(in_features=500, out_features=500, bias=True)
    (5): Linear(in_features=500, out_features=500, bias=True)
    (6): Linear(in_features=500, out_features=500, bias=True)
    (7): Linear(in_features=500, out_features=5, bias=True)
  )
  (bn_linears_d): ModuleList(
    (0): BatchNorm1d(500, eps=1e-05, momentum=0.1, affine=True, track_running_stats=True)
    (1): BatchNorm1d(500, eps=1e-05, momentum=0.1, affine=True, track_running_stats=True)
    (2): BatchNorm1d(500, eps=1e-05, momentum=0.1, affine=True, track_running_stats=True)
    (3): BatchNorm1d(500, eps=1e-05, momentum=0.1, affine=True, track_running_stats=True)
    (4): BatchNorm1d(500, eps=1e-05, momentum=0.1, affine=True, track_running_stats=True)
    (5): BatchNorm1d(500, eps=1e-05, momentum=0.1, affine=True, track_running_stats=True)
    (6): BatchNorm1d(500, eps=1e-05, momentum=0.1, affine=True, track_running_stats=True)
    (7): BatchNorm1d(5, eps=1e-05, momentum=0.1, affine=True, track_running_stats=True)
  )
  (linears_e): ModuleList(
    (0): Linear(in_features=261, out_features=500, bias=True)
    (1): Linear(in_features=500, out_features=500, bias=True)
    (2): Linear(in_features=500, out_features=500, bias=True)
    (3): Linear(in_features=500, out_features=500, bias=True)
    (4): Linear(in_features=500, out_features=500, bias=True)
    (5): Linear(in_features=500, out_features=500, bias=True)
    (6): Linear(in_features=500, out_features=500, bias=True)
    (7): Linear(in_features=500, out_features=10, bias=True)
  )
  (bn_linears_e): ModuleList(
    (0): BatchNorm1d(500, eps=1e-05, momentum=0.1, affine=True, track_running_stats=True)
    (1): BatchNorm1d(500, eps=1e-05, momentum=0.1, affine=True, track_running_stats=True)
    (2): BatchNorm1d(500, eps=1e-05, momentum=0.1, affine=True, track_running_stats=True)
    (3): BatchNorm1d(500, eps=1e-05, momentum=0.1, affine=True, track_running_stats=True)
    (4): BatchNorm1d(500, eps=1e-05, momentum=0.1, affine=True, track_running_stats=True)
    (5): BatchNorm1d(500, eps=1e-05, momentum=0.1, affine=True, track_running_stats=True)
    (6): BatchNorm1d(500, eps=1e-05, momentum=0.1, affine=True, track_running_stats=True)
    (7): BatchNorm1d(10, eps=1e-05, momentum=0.1, affine=True, track_running_stats=True)
  )
  (linears_se): ModuleList()
  (bn_linears_se): ModuleList()
  (convs_se): ModuleList()
)
Start training now...
Starting training now
Doing Evaluation on the model now
This is Epoch 0, training loss 1580.85557, validation loss 1498.05605
Saving the model down...
Doing Evaluation on the model now
This is Epoch 20, training loss 83.51837, validation loss 78.27439
…
Epoch   249: reducing learning rate of group 0 to 6.4000e-05.
Doing Evaluation on the model now
This is Epoch 260, training loss 14.09197, validation loss 20.71667
Saving the model down...
Doing Evaluation on the model now
This is Epoch 280, training loss 12.51998, validation loss 20.46531
Saving the model down...
In read_data, flags.data_set = Chen
flgas.data_dir =  /home/sr365/MM_Bench/Data/
data_dir =  /home/sr365/MM_Bench/Data/Chen
total number of training sample is 40000, the dimension of the feature is 5
total number of test sample is 10000
Making network now
VAE(
  (linears_d): ModuleList(
    (0): Linear(in_features=271, out_features=500, bias=True)
    (1): Linear(in_features=500, out_features=500, bias=True)
    (2): Linear(in_features=500, out_features=500, bias=True)
    (3): Linear(in_features=500, out_features=500, bias=True)
    (4): Linear(in_features=500, out_features=500, bias=True)
    (5): Linear(in_features=500, out_features=500, bias=True)
    (6): Linear(in_features=500, out_features=500, bias=True)
    (7): Linear(in_features=500, out_features=5, bias=True)
  )
  (bn_linears_d): ModuleList(
    (0): BatchNorm1d(500, eps=1e-05, momentum=0.1, affine=True, track_running_stats=True)
    (1): BatchNorm1d(500, eps=1e-05, momentum=0.1, affine=True, track_running_stats=True)
    (2): BatchNorm1d(500, eps=1e-05, momentum=0.1, affine=True, track_running_stats=True)
    (3): BatchNorm1d(500, eps=1e-05, momentum=0.1, affine=True, track_running_stats=True)
    (4): BatchNorm1d(500, eps=1e-05, momentum=0.1, affine=True, track_running_stats=True)
    (5): BatchNorm1d(500, eps=1e-05, momentum=0.1, affine=True, track_running_stats=True)
    (6): BatchNorm1d(500, eps=1e-05, momentum=0.1, affine=True, track_running_stats=True)
    (7): BatchNorm1d(5, eps=1e-05, momentum=0.1, affine=True, track_running_stats=True)
  )
  (linears_e): ModuleList(
    (0): Linear(in_features=261, out_features=500, bias=True)
    (1): Linear(in_features=500, out_features=500, bias=True)
    (2): Linear(in_features=500, out_features=500, bias=True)
    (3): Linear(in_features=500, out_features=500, bias=True)
    (4): Linear(in_features=500, out_features=500, bias=True)
    (5): Linear(in_features=500, out_features=500, bias=True)
    (6): Linear(in_features=500, out_features=500, bias=True)
    (7): Linear(in_features=500, out_features=30, bias=True)
  )
  (bn_linears_e): ModuleList(
    (0): BatchNorm1d(500, eps=1e-05, momentum=0.1, affine=True, track_running_stats=True)
    (1): BatchNorm1d(500, eps=1e-05, momentum=0.1, affine=True, track_running_stats=True)
    (2): BatchNorm1d(500, eps=1e-05, momentum=0.1, affine=True, track_running_stats=True)
    (3): BatchNorm1d(500, eps=1e-05, momentum=0.1, affine=True, track_running_stats=True)
    (4): BatchNorm1d(500, eps=1e-05, momentum=0.1, affine=True, track_running_stats=True)
    (5): BatchNorm1d(500, eps=1e-05, momentum=0.1, affine=True, track_running_stats=True)
    (6): BatchNorm1d(500, eps=1e-05, momentum=0.1, affine=True, track_running_stats=True)
    (7): BatchNorm1d(30, eps=1e-05, momentum=0.1, affine=True, track_running_stats=True)
  )
  (linears_se): ModuleList()
  (bn_linears_se): ModuleList()
  (convs_se): ModuleList()
)
Start training now...
Starting training now
Doing Evaluation on the model now
This is Epoch 0, training loss 2469.96113, validation loss 1840.11660
Saving the model down...
Doing Evaluation on the model now
This is Epoch 20, training loss 115.31472, validation loss 108.23511
…
This is Epoch 240, training loss 18.71470, validation loss 23.60558
Doing Evaluation on the model now
This is Epoch 260, training loss 15.20830, validation loss 18.22221
Saving the model down...
Doing Evaluation on the model now
This is Epoch 280, training loss 13.59734, validation loss 18.04550
Saving the model down...
In read_data, flags.data_set = Chen
flgas.data_dir =  /home/sr365/MM_Bench/Data/
data_dir =  /home/sr365/MM_Bench/Data/Chen
total number of training sample is 40000, the dimension of the feature is 5
total number of test sample is 10000
Making network now
VAE(
  (linears_d): ModuleList(
    (0): Linear(in_features=281, out_features=500, bias=True)
    (1): Linear(in_features=500, out_features=500, bias=True)
    (2): Linear(in_features=500, out_features=500, bias=True)
    (3): Linear(in_features=500, out_features=500, bias=True)
    (4): Linear(in_features=500, out_features=500, bias=True)
    (5): Linear(in_features=500, out_features=500, bias=True)
    (6): Linear(in_features=500, out_features=500, bias=True)
    (7): Linear(in_features=500, out_features=5, bias=True)
  )
  (bn_linears_d): ModuleList(
    (0): BatchNorm1d(500, eps=1e-05, momentum=0.1, affine=True, track_running_stats=True)
    (1): BatchNorm1d(500, eps=1e-05, momentum=0.1, affine=True, track_running_stats=True)
    (2): BatchNorm1d(500, eps=1e-05, momentum=0.1, affine=True, track_running_stats=True)
    (3): BatchNorm1d(500, eps=1e-05, momentum=0.1, affine=True, track_running_stats=True)
    (4): BatchNorm1d(500, eps=1e-05, momentum=0.1, affine=True, track_running_stats=True)
    (5): BatchNorm1d(500, eps=1e-05, momentum=0.1, affine=True, track_running_stats=True)
    (6): BatchNorm1d(500, eps=1e-05, momentum=0.1, affine=True, track_running_stats=True)
    (7): BatchNorm1d(5, eps=1e-05, momentum=0.1, affine=True, track_running_stats=True)
  )
  (linears_e): ModuleList(
    (0): Linear(in_features=261, out_features=500, bias=True)
    (1): Linear(in_features=500, out_features=500, bias=True)
    (2): Linear(in_features=500, out_features=500, bias=True)
    (3): Linear(in_features=500, out_features=500, bias=True)
    (4): Linear(in_features=500, out_features=500, bias=True)
    (5): Linear(in_features=500, out_features=500, bias=True)
    (6): Linear(in_features=500, out_features=500, bias=True)
    (7): Linear(in_features=500, out_features=50, bias=True)
  )
  (bn_linears_e): ModuleList(
    (0): BatchNorm1d(500, eps=1e-05, momentum=0.1, affine=True, track_running_stats=True)
    (1): BatchNorm1d(500, eps=1e-05, momentum=0.1, affine=True, track_running_stats=True)
    (2): BatchNorm1d(500, eps=1e-05, momentum=0.1, affine=True, track_running_stats=True)
    (3): BatchNorm1d(500, eps=1e-05, momentum=0.1, affine=True, track_running_stats=True)
    (4): BatchNorm1d(500, eps=1e-05, momentum=0.1, affine=True, track_running_stats=True)
    (5): BatchNorm1d(500, eps=1e-05, momentum=0.1, affine=True, track_running_stats=True)
    (6): BatchNorm1d(500, eps=1e-05, momentum=0.1, affine=True, track_running_stats=True)
    (7): BatchNorm1d(50, eps=1e-05, momentum=0.1, affine=True, track_running_stats=True)
  )
  (linears_se): ModuleList()
  (bn_linears_se): ModuleList()
  (convs_se): ModuleList()
)
Start training now...
Starting training now
Doing Evaluation on the model now
This is Epoch 0, training loss 3008.29043, validation loss 1831.20781
Saving the model down...
Doing Evaluation on the model now
This is Epoch 20, training loss 145.02772, validation loss 113.54784
…
Doing Evaluation on the model now
This is Epoch 240, training loss 18.11493, validation loss 20.52817
Saving the model down...
Doing Evaluation on the model now
This is Epoch 260, training loss 17.47205, validation loss 23.78941
Doing Evaluation on the model now
This is Epoch 280, training loss 14.69564, validation loss 20.65452
In read_data, flags.data_set = Chen
flgas.data_dir =  /home/sr365/MM_Bench/Data/
data_dir =  /home/sr365/MM_Bench/Data/Chen
total number of training sample is 40000, the dimension of the feature is 5
total number of test sample is 10000
Making network now
VAE(
  (linears_d): ModuleList(
    (0): Linear(in_features=261, out_features=1000, bias=True)
    (1): Linear(in_features=1000, out_features=1000, bias=True)
    (2): Linear(in_features=1000, out_features=1000, bias=True)
    (3): Linear(in_features=1000, out_features=1000, bias=True)
    (4): Linear(in_features=1000, out_features=1000, bias=True)
    (5): Linear(in_features=1000, out_features=1000, bias=True)
    (6): Linear(in_features=1000, out_features=1000, bias=True)
    (7): Linear(in_features=1000, out_features=5, bias=True)
  )
  (bn_linears_d): ModuleList(
    (0): BatchNorm1d(1000, eps=1e-05, momentum=0.1, affine=True, track_running_stats=True)
    (1): BatchNorm1d(1000, eps=1e-05, momentum=0.1, affine=True, track_running_stats=True)
    (2): BatchNorm1d(1000, eps=1e-05, momentum=0.1, affine=True, track_running_stats=True)
    (3): BatchNorm1d(1000, eps=1e-05, momentum=0.1, affine=True, track_running_stats=True)
    (4): BatchNorm1d(1000, eps=1e-05, momentum=0.1, affine=True, track_running_stats=True)
    (5): BatchNorm1d(1000, eps=1e-05, momentum=0.1, affine=True, track_running_stats=True)
    (6): BatchNorm1d(1000, eps=1e-05, momentum=0.1, affine=True, track_running_stats=True)
    (7): BatchNorm1d(5, eps=1e-05, momentum=0.1, affine=True, track_running_stats=True)
  )
  (linears_e): ModuleList(
    (0): Linear(in_features=261, out_features=1000, bias=True)
    (1): Linear(in_features=1000, out_features=1000, bias=True)
    (2): Linear(in_features=1000, out_features=1000, bias=True)
    (3): Linear(in_features=1000, out_features=1000, bias=True)
    (4): Linear(in_features=1000, out_features=1000, bias=True)
    (5): Linear(in_features=1000, out_features=1000, bias=True)
    (6): Linear(in_features=1000, out_features=1000, bias=True)
    (7): Linear(in_features=1000, out_features=10, bias=True)
  )
  (bn_linears_e): ModuleList(
    (0): BatchNorm1d(1000, eps=1e-05, momentum=0.1, affine=True, track_running_stats=True)
    (1): BatchNorm1d(1000, eps=1e-05, momentum=0.1, affine=True, track_running_stats=True)
    (2): BatchNorm1d(1000, eps=1e-05, momentum=0.1, affine=True, track_running_stats=True)
    (3): BatchNorm1d(1000, eps=1e-05, momentum=0.1, affine=True, track_running_stats=True)
    (4): BatchNorm1d(1000, eps=1e-05, momentum=0.1, affine=True, track_running_stats=True)
    (5): BatchNorm1d(1000, eps=1e-05, momentum=0.1, affine=True, track_running_stats=True)
    (6): BatchNorm1d(1000, eps=1e-05, momentum=0.1, affine=True, track_running_stats=True)
    (7): BatchNorm1d(10, eps=1e-05, momentum=0.1, affine=True, track_running_stats=True)
  )
  (linears_se): ModuleList()
  (bn_linears_se): ModuleList()
  (convs_se): ModuleList()
)
Start training now...
Starting training now
Doing Evaluation on the model now
This is Epoch 0, training loss 1455.25010, validation loss 1480.37812
Saving the model down...
Doing Evaluation on the model now
This is Epoch 20, training loss 70.94045, validation loss 77.95856
…
This is Epoch 260, training loss 12.77552, validation loss 20.63740
Saving the model down...
Epoch   268: reducing learning rate of group 0 to 6.4000e-05.
Epoch   279: reducing learning rate of group 0 to 5.1200e-05.
Doing Evaluation on the model now
This is Epoch 280, training loss 14.13251, validation loss 21.81301
In read_data, flags.data_set = Chen
flgas.data_dir =  /home/sr365/MM_Bench/Data/
data_dir =  /home/sr365/MM_Bench/Data/Chen
total number of training sample is 40000, the dimension of the feature is 5
total number of test sample is 10000
Making network now
VAE(
  (linears_d): ModuleList(
    (0): Linear(in_features=271, out_features=1000, bias=True)
    (1): Linear(in_features=1000, out_features=1000, bias=True)
    (2): Linear(in_features=1000, out_features=1000, bias=True)
    (3): Linear(in_features=1000, out_features=1000, bias=True)
    (4): Linear(in_features=1000, out_features=1000, bias=True)
    (5): Linear(in_features=1000, out_features=1000, bias=True)
    (6): Linear(in_features=1000, out_features=1000, bias=True)
    (7): Linear(in_features=1000, out_features=5, bias=True)
  )
  (bn_linears_d): ModuleList(
    (0): BatchNorm1d(1000, eps=1e-05, momentum=0.1, affine=True, track_running_stats=True)
    (1): BatchNorm1d(1000, eps=1e-05, momentum=0.1, affine=True, track_running_stats=True)
    (2): BatchNorm1d(1000, eps=1e-05, momentum=0.1, affine=True, track_running_stats=True)
    (3): BatchNorm1d(1000, eps=1e-05, momentum=0.1, affine=True, track_running_stats=True)
    (4): BatchNorm1d(1000, eps=1e-05, momentum=0.1, affine=True, track_running_stats=True)
    (5): BatchNorm1d(1000, eps=1e-05, momentum=0.1, affine=True, track_running_stats=True)
    (6): BatchNorm1d(1000, eps=1e-05, momentum=0.1, affine=True, track_running_stats=True)
    (7): BatchNorm1d(5, eps=1e-05, momentum=0.1, affine=True, track_running_stats=True)
  )
  (linears_e): ModuleList(
    (0): Linear(in_features=261, out_features=1000, bias=True)
    (1): Linear(in_features=1000, out_features=1000, bias=True)
    (2): Linear(in_features=1000, out_features=1000, bias=True)
    (3): Linear(in_features=1000, out_features=1000, bias=True)
    (4): Linear(in_features=1000, out_features=1000, bias=True)
    (5): Linear(in_features=1000, out_features=1000, bias=True)
    (6): Linear(in_features=1000, out_features=1000, bias=True)
    (7): Linear(in_features=1000, out_features=30, bias=True)
  )
  (bn_linears_e): ModuleList(
    (0): BatchNorm1d(1000, eps=1e-05, momentum=0.1, affine=True, track_running_stats=True)
    (1): BatchNorm1d(1000, eps=1e-05, momentum=0.1, affine=True, track_running_stats=True)
    (2): BatchNorm1d(1000, eps=1e-05, momentum=0.1, affine=True, track_running_stats=True)
    (3): BatchNorm1d(1000, eps=1e-05, momentum=0.1, affine=True, track_running_stats=True)
    (4): BatchNorm1d(1000, eps=1e-05, momentum=0.1, affine=True, track_running_stats=True)
    (5): BatchNorm1d(1000, eps=1e-05, momentum=0.1, affine=True, track_running_stats=True)
    (6): BatchNorm1d(1000, eps=1e-05, momentum=0.1, affine=True, track_running_stats=True)
    (7): BatchNorm1d(30, eps=1e-05, momentum=0.1, affine=True, track_running_stats=True)
  )
  (linears_se): ModuleList()
  (bn_linears_se): ModuleList()
  (convs_se): ModuleList()
)
Start training now...
Starting training now
Doing Evaluation on the model now
This is Epoch 0, training loss 2195.45840, validation loss 1498.72373
Saving the model down...
Doing Evaluation on the model now
This is Epoch 20, training loss 91.18542, validation loss 84.48246
…
This is Epoch 260, training loss 14.40479, validation loss 21.45030
Saving the model down...
Doing Evaluation on the model now
This is Epoch 280, training loss 15.21527, validation loss 23.13517
Epoch   281: reducing learning rate of group 0 to 6.4000e-05.
Epoch   292: reducing learning rate of group 0 to 5.1200e-05.
In read_data, flags.data_set = Chen
flgas.data_dir =  /home/sr365/MM_Bench/Data/
data_dir =  /home/sr365/MM_Bench/Data/Chen
total number of training sample is 40000, the dimension of the feature is 5
total number of test sample is 10000
Making network now
VAE(
  (linears_d): ModuleList(
    (0): Linear(in_features=281, out_features=1000, bias=True)
    (1): Linear(in_features=1000, out_features=1000, bias=True)
    (2): Linear(in_features=1000, out_features=1000, bias=True)
    (3): Linear(in_features=1000, out_features=1000, bias=True)
    (4): Linear(in_features=1000, out_features=1000, bias=True)
    (5): Linear(in_features=1000, out_features=1000, bias=True)
    (6): Linear(in_features=1000, out_features=1000, bias=True)
    (7): Linear(in_features=1000, out_features=5, bias=True)
  )
  (bn_linears_d): ModuleList(
    (0): BatchNorm1d(1000, eps=1e-05, momentum=0.1, affine=True, track_running_stats=True)
    (1): BatchNorm1d(1000, eps=1e-05, momentum=0.1, affine=True, track_running_stats=True)
    (2): BatchNorm1d(1000, eps=1e-05, momentum=0.1, affine=True, track_running_stats=True)
    (3): BatchNorm1d(1000, eps=1e-05, momentum=0.1, affine=True, track_running_stats=True)
    (4): BatchNorm1d(1000, eps=1e-05, momentum=0.1, affine=True, track_running_stats=True)
    (5): BatchNorm1d(1000, eps=1e-05, momentum=0.1, affine=True, track_running_stats=True)
    (6): BatchNorm1d(1000, eps=1e-05, momentum=0.1, affine=True, track_running_stats=True)
    (7): BatchNorm1d(5, eps=1e-05, momentum=0.1, affine=True, track_running_stats=True)
  )
  (linears_e): ModuleList(
    (0): Linear(in_features=261, out_features=1000, bias=True)
    (1): Linear(in_features=1000, out_features=1000, bias=True)
    (2): Linear(in_features=1000, out_features=1000, bias=True)
    (3): Linear(in_features=1000, out_features=1000, bias=True)
    (4): Linear(in_features=1000, out_features=1000, bias=True)
    (5): Linear(in_features=1000, out_features=1000, bias=True)
    (6): Linear(in_features=1000, out_features=1000, bias=True)
    (7): Linear(in_features=1000, out_features=50, bias=True)
  )
  (bn_linears_e): ModuleList(
    (0): BatchNorm1d(1000, eps=1e-05, momentum=0.1, affine=True, track_running_stats=True)
    (1): BatchNorm1d(1000, eps=1e-05, momentum=0.1, affine=True, track_running_stats=True)
    (2): BatchNorm1d(1000, eps=1e-05, momentum=0.1, affine=True, track_running_stats=True)
    (3): BatchNorm1d(1000, eps=1e-05, momentum=0.1, affine=True, track_running_stats=True)
    (4): BatchNorm1d(1000, eps=1e-05, momentum=0.1, affine=True, track_running_stats=True)
    (5): BatchNorm1d(1000, eps=1e-05, momentum=0.1, affine=True, track_running_stats=True)
    (6): BatchNorm1d(1000, eps=1e-05, momentum=0.1, affine=True, track_running_stats=True)
    (7): BatchNorm1d(50, eps=1e-05, momentum=0.1, affine=True, track_running_stats=True)
  )
  (linears_se): ModuleList()
  (bn_linears_se): ModuleList()
  (convs_se): ModuleList()
)
Start training now...
Starting training now
Doing Evaluation on the model now
This is Epoch 0, training loss 2527.08008, validation loss 1637.22773
Saving the model down...
Doing Evaluation on the model now
This is Epoch 20, training loss 109.33304, validation loss 91.08245
…
