…
	 conditioned on node 'node' with dims (2000,)

Node 'permute_11' takes the following inputs:
	 Output #0 of node 'coupling_11' with dims (14,)

Node 'coupling_12' takes the following inputs:
	 Output #0 of node 'permute_11' with dims (14,)
	 conditioned on node 'node' with dims (2000,)

Node 'permute_12' takes the following inputs:
	 Output #0 of node 'coupling_12' with dims (14,)

Node 'output' takes the following inputs:
	 Output #0 of node 'permute_12' with dims (14,)

ReversibleGraphNet(
  (module_list): ModuleList(
    (0): None
    (1): GLOWCouplingBlock(
      (s1): Sequential(
        (0): Linear(in_features=2007, out_features=160, bias=True)
        (1): ReLU()
        (2): Linear(in_features=160, out_features=160, bias=True)
        (3): ReLU()
        (4): Linear(in_features=160, out_features=160, bias=True)
        (5): ReLU()
        (6): Linear(in_features=160, out_features=14, bias=True)
      )
      (s2): Sequential(
        (0): Linear(in_features=2007, out_features=160, bias=True)
        (1): ReLU()
        (2): Linear(in_features=160, out_features=160, bias=True)
        (3): ReLU()
        (4): Linear(in_features=160, out_features=160, bias=True)
        (5): ReLU()
        (6): Linear(in_features=160, out_features=14, bias=True)
      )
    )
    (2): PermuteRandom()
    (3): GLOWCouplingBlock(
      (s1): Sequential(
        (0): Linear(in_features=2007, out_features=160, bias=True)
        (1): ReLU()
        (2): Linear(in_features=160, out_features=160, bias=True)
        (3): ReLU()
        (4): Linear(in_features=160, out_features=160, bias=True)
        (5): ReLU()
        (6): Linear(in_features=160, out_features=14, bias=True)
      )
      (s2): Sequential(
        (0): Linear(in_features=2007, out_features=160, bias=True)
        (1): ReLU()
        (2): Linear(in_features=160, out_features=160, bias=True)
        (3): ReLU()
        (4): Linear(in_features=160, out_features=160, bias=True)
        (5): ReLU()
        (6): Linear(in_features=160, out_features=14, bias=True)
      )
    )
    (4): PermuteRandom()
    (5): GLOWCouplingBlock(
      (s1): Sequential(
        (0): Linear(in_features=2007, out_features=160, bias=True)
        (1): ReLU()
        (2): Linear(in_features=160, out_features=160, bias=True)
        (3): ReLU()
        (4): Linear(in_features=160, out_features=160, bias=True)
        (5): ReLU()
        (6): Linear(in_features=160, out_features=14, bias=True)
      )
      (s2): Sequential(
        (0): Linear(in_features=2007, out_features=160, bias=True)
        (1): ReLU()
        (2): Linear(in_features=160, out_features=160, bias=True)
        (3): ReLU()
        (4): Linear(in_features=160, out_features=160, bias=True)
        (5): ReLU()
        (6): Linear(in_features=160, out_features=14, bias=True)
      )
    )
    (6): PermuteRandom()
    (7): GLOWCouplingBlock(
      (s1): Sequential(
        (0): Linear(in_features=2007, out_features=160, bias=True)
        (1): ReLU()
        (2): Linear(in_features=160, out_features=160, bias=True)
        (3): ReLU()
        (4): Linear(in_features=160, out_features=160, bias=True)
        (5): ReLU()
        (6): Linear(in_features=160, out_features=14, bias=True)
      )
      (s2): Sequential(
        (0): Linear(in_features=2007, out_features=160, bias=True)
        (1): ReLU()
        (2): Linear(in_features=160, out_features=160, bias=True)
        (3): ReLU()
        (4): Linear(in_features=160, out_features=160, bias=True)
        (5): ReLU()
        (6): Linear(in_features=160, out_features=14, bias=True)
      )
    )
    (8): PermuteRandom()
    (9): GLOWCouplingBlock(
      (s1): Sequential(
        (0): Linear(in_features=2007, out_features=160, bias=True)
        (1): ReLU()
        (2): Linear(in_features=160, out_features=160, bias=True)
        (3): ReLU()
        (4): Linear(in_features=160, out_features=160, bias=True)
        (5): ReLU()
        (6): Linear(in_features=160, out_features=14, bias=True)
      )
      (s2): Sequential(
        (0): Linear(in_features=2007, out_features=160, bias=True)
        (1): ReLU()
        (2): Linear(in_features=160, out_features=160, bias=True)
        (3): ReLU()
        (4): Linear(in_features=160, out_features=160, bias=True)
        (5): ReLU()
        (6): Linear(in_features=160, out_features=14, bias=True)
      )
    )
    (10): PermuteRandom()
    (11): GLOWCouplingBlock(
      (s1): Sequential(
        (0): Linear(in_features=2007, out_features=160, bias=True)
        (1): ReLU()
        (2): Linear(in_features=160, out_features=160, bias=True)
        (3): ReLU()
        (4): Linear(in_features=160, out_features=160, bias=True)
        (5): ReLU()
        (6): Linear(in_features=160, out_features=14, bias=True)
      )
      (s2): Sequential(
        (0): Linear(in_features=2007, out_features=160, bias=True)
        (1): ReLU()
        (2): Linear(in_features=160, out_features=160, bias=True)
        (3): ReLU()
        (4): Linear(in_features=160, out_features=160, bias=True)
        (5): ReLU()
        (6): Linear(in_features=160, out_features=14, bias=True)
      )
    )
    (12): PermuteRandom()
    (13): GLOWCouplingBlock(
      (s1): Sequential(
        (0): Linear(in_features=2007, out_features=160, bias=True)
        (1): ReLU()
        (2): Linear(in_features=160, out_features=160, bias=True)
        (3): ReLU()
        (4): Linear(in_features=160, out_features=160, bias=True)
        (5): ReLU()
        (6): Linear(in_features=160, out_features=14, bias=True)
      )
      (s2): Sequential(
        (0): Linear(in_features=2007, out_features=160, bias=True)
        (1): ReLU()
        (2): Linear(in_features=160, out_features=160, bias=True)
        (3): ReLU()
        (4): Linear(in_features=160, out_features=160, bias=True)
        (5): ReLU()
        (6): Linear(in_features=160, out_features=14, bias=True)
      )
    )
    (14): PermuteRandom()
    (15): GLOWCouplingBlock(
      (s1): Sequential(
        (0): Linear(in_features=2007, out_features=160, bias=True)
        (1): ReLU()
        (2): Linear(in_features=160, out_features=160, bias=True)
        (3): ReLU()
        (4): Linear(in_features=160, out_features=160, bias=True)
        (5): ReLU()
        (6): Linear(in_features=160, out_features=14, bias=True)
      )
      (s2): Sequential(
        (0): Linear(in_features=2007, out_features=160, bias=True)
        (1): ReLU()
        (2): Linear(in_features=160, out_features=160, bias=True)
        (3): ReLU()
        (4): Linear(in_features=160, out_features=160, bias=True)
        (5): ReLU()
        (6): Linear(in_features=160, out_features=14, bias=True)
      )
    )
    (16): PermuteRandom()
    (17): GLOWCouplingBlock(
      (s1): Sequential(
        (0): Linear(in_features=2007, out_features=160, bias=True)
        (1): ReLU()
        (2): Linear(in_features=160, out_features=160, bias=True)
        (3): ReLU()
        (4): Linear(in_features=160, out_features=160, bias=True)
        (5): ReLU()
        (6): Linear(in_features=160, out_features=14, bias=True)
      )
      (s2): Sequential(
        (0): Linear(in_features=2007, out_features=160, bias=True)
        (1): ReLU()
        (2): Linear(in_features=160, out_features=160, bias=True)
        (3): ReLU()
        (4): Linear(in_features=160, out_features=160, bias=True)
        (5): ReLU()
        (6): Linear(in_features=160, out_features=14, bias=True)
      )
    )
    (18): PermuteRandom()
    (19): GLOWCouplingBlock(
      (s1): Sequential(
        (0): Linear(in_features=2007, out_features=160, bias=True)
        (1): ReLU()
        (2): Linear(in_features=160, out_features=160, bias=True)
        (3): ReLU()
        (4): Linear(in_features=160, out_features=160, bias=True)
        (5): ReLU()
        (6): Linear(in_features=160, out_features=14, bias=True)
      )
      (s2): Sequential(
        (0): Linear(in_features=2007, out_features=160, bias=True)
        (1): ReLU()
        (2): Linear(in_features=160, out_features=160, bias=True)
        (3): ReLU()
        (4): Linear(in_features=160, out_features=160, bias=True)
        (5): ReLU()
        (6): Linear(in_features=160, out_features=14, bias=True)
      )
    )
    (20): PermuteRandom()
    (21): GLOWCouplingBlock(
      (s1): Sequential(
        (0): Linear(in_features=2007, out_features=160, bias=True)
        (1): ReLU()
        (2): Linear(in_features=160, out_features=160, bias=True)
        (3): ReLU()
        (4): Linear(in_features=160, out_features=160, bias=True)
        (5): ReLU()
        (6): Linear(in_features=160, out_features=14, bias=True)
      )
      (s2): Sequential(
        (0): Linear(in_features=2007, out_features=160, bias=True)
        (1): ReLU()
        (2): Linear(in_features=160, out_features=160, bias=True)
        (3): ReLU()
        (4): Linear(in_features=160, out_features=160, bias=True)
        (5): ReLU()
        (6): Linear(in_features=160, out_features=14, bias=True)
      )
    )
    (22): PermuteRandom()
    (23): GLOWCouplingBlock(
      (s1): Sequential(
        (0): Linear(in_features=2007, out_features=160, bias=True)
        (1): ReLU()
        (2): Linear(in_features=160, out_features=160, bias=True)
        (3): ReLU()
        (4): Linear(in_features=160, out_features=160, bias=True)
        (5): ReLU()
        (6): Linear(in_features=160, out_features=14, bias=True)
      )
      (s2): Sequential(
        (0): Linear(in_features=2007, out_features=160, bias=True)
        (1): ReLU()
        (2): Linear(in_features=160, out_features=160, bias=True)
        (3): ReLU()
        (4): Linear(in_features=160, out_features=160, bias=True)
        (5): ReLU()
        (6): Linear(in_features=160, out_features=14, bias=True)
      )
    )
    (24): PermuteRandom()
    (25): GLOWCouplingBlock(
      (s1): Sequential(
        (0): Linear(in_features=2007, out_features=160, bias=True)
        (1): ReLU()
        (2): Linear(in_features=160, out_features=160, bias=True)
        (3): ReLU()
        (4): Linear(in_features=160, out_features=160, bias=True)
        (5): ReLU()
        (6): Linear(in_features=160, out_features=14, bias=True)
      )
      (s2): Sequential(
        (0): Linear(in_features=2007, out_features=160, bias=True)
        (1): ReLU()
        (2): Linear(in_features=160, out_features=160, bias=True)
        (3): ReLU()
        (4): Linear(in_features=160, out_features=160, bias=True)
        (5): ReLU()
        (6): Linear(in_features=160, out_features=14, bias=True)
      )
    )
    (26): PermuteRandom()
    (27): dummy()
    (28): None
  )
)
Start training now...
Starting training now
<class 'torch.Tensor'>
<class 'torch.Tensor'>
<class 'torch.Tensor'>
<class 'torch.Tensor'>
<class 'torch.Tensor'>
<class 'torch.Tensor'>
<class 'torch.Tensor'>
<class 'torch.Tensor'>
<class 'torch.Tensor'>
<class 'torch.Tensor'>
<class 'torch.Tensor'>
…
	 Output #0 of node 'permute_10' with dims (5,)
	 conditioned on node 'node' with dims (256,)

Node 'permute_11' takes the following inputs:
	 Output #0 of node 'coupling_11' with dims (5,)

Node 'coupling_12' takes the following inputs:
	 Output #0 of node 'permute_11' with dims (5,)
	 conditioned on node 'node' with dims (256,)

Node 'permute_12' takes the following inputs:
	 Output #0 of node 'coupling_12' with dims (5,)

Node 'output' takes the following inputs:
	 Output #0 of node 'permute_12' with dims (5,)

ReversibleGraphNet(
  (module_list): ModuleList(
    (0): None
    (1): GLOWCouplingBlock(
      (s1): Sequential(
        (0): Linear(in_features=258, out_features=160, bias=True)
        (1): ReLU()
        (2): Linear(in_features=160, out_features=160, bias=True)
        (3): ReLU()
        (4): Linear(in_features=160, out_features=160, bias=True)
        (5): ReLU()
        (6): Linear(in_features=160, out_features=6, bias=True)
      )
      (s2): Sequential(
        (0): Linear(in_features=259, out_features=160, bias=True)
        (1): ReLU()
        (2): Linear(in_features=160, out_features=160, bias=True)
        (3): ReLU()
        (4): Linear(in_features=160, out_features=160, bias=True)
        (5): ReLU()
        (6): Linear(in_features=160, out_features=4, bias=True)
      )
    )
    (2): PermuteRandom()
    (3): GLOWCouplingBlock(
      (s1): Sequential(
        (0): Linear(in_features=258, out_features=160, bias=True)
        (1): ReLU()
        (2): Linear(in_features=160, out_features=160, bias=True)
        (3): ReLU()
        (4): Linear(in_features=160, out_features=160, bias=True)
        (5): ReLU()
        (6): Linear(in_features=160, out_features=6, bias=True)
      )
      (s2): Sequential(
        (0): Linear(in_features=259, out_features=160, bias=True)
        (1): ReLU()
        (2): Linear(in_features=160, out_features=160, bias=True)
        (3): ReLU()
        (4): Linear(in_features=160, out_features=160, bias=True)
        (5): ReLU()
        (6): Linear(in_features=160, out_features=4, bias=True)
      )
    )
    (4): PermuteRandom()
    (5): GLOWCouplingBlock(
      (s1): Sequential(
        (0): Linear(in_features=258, out_features=160, bias=True)
        (1): ReLU()
        (2): Linear(in_features=160, out_features=160, bias=True)
        (3): ReLU()
        (4): Linear(in_features=160, out_features=160, bias=True)
        (5): ReLU()
        (6): Linear(in_features=160, out_features=6, bias=True)
      )
      (s2): Sequential(
        (0): Linear(in_features=259, out_features=160, bias=True)
        (1): ReLU()
        (2): Linear(in_features=160, out_features=160, bias=True)
        (3): ReLU()
        (4): Linear(in_features=160, out_features=160, bias=True)
        (5): ReLU()
        (6): Linear(in_features=160, out_features=4, bias=True)
      )
    )
    (6): PermuteRandom()
    (7): GLOWCouplingBlock(
      (s1): Sequential(
        (0): Linear(in_features=258, out_features=160, bias=True)
        (1): ReLU()
        (2): Linear(in_features=160, out_features=160, bias=True)
        (3): ReLU()
        (4): Linear(in_features=160, out_features=160, bias=True)
        (5): ReLU()
        (6): Linear(in_features=160, out_features=6, bias=True)
      )
      (s2): Sequential(
        (0): Linear(in_features=259, out_features=160, bias=True)
        (1): ReLU()
        (2): Linear(in_features=160, out_features=160, bias=True)
        (3): ReLU()
        (4): Linear(in_features=160, out_features=160, bias=True)
        (5): ReLU()
        (6): Linear(in_features=160, out_features=4, bias=True)
      )
    )
    (8): PermuteRandom()
    (9): GLOWCouplingBlock(
      (s1): Sequential(
        (0): Linear(in_features=258, out_features=160, bias=True)
        (1): ReLU()
        (2): Linear(in_features=160, out_features=160, bias=True)
        (3): ReLU()
        (4): Linear(in_features=160, out_features=160, bias=True)
        (5): ReLU()
        (6): Linear(in_features=160, out_features=6, bias=True)
      )
      (s2): Sequential(
        (0): Linear(in_features=259, out_features=160, bias=True)
        (1): ReLU()
        (2): Linear(in_features=160, out_features=160, bias=True)
        (3): ReLU()
        (4): Linear(in_features=160, out_features=160, bias=True)
        (5): ReLU()
        (6): Linear(in_features=160, out_features=4, bias=True)
      )
    )
    (10): PermuteRandom()
    (11): GLOWCouplingBlock(
      (s1): Sequential(
        (0): Linear(in_features=258, out_features=160, bias=True)
        (1): ReLU()
        (2): Linear(in_features=160, out_features=160, bias=True)
        (3): ReLU()
        (4): Linear(in_features=160, out_features=160, bias=True)
        (5): ReLU()
        (6): Linear(in_features=160, out_features=6, bias=True)
      )
      (s2): Sequential(
        (0): Linear(in_features=259, out_features=160, bias=True)
        (1): ReLU()
        (2): Linear(in_features=160, out_features=160, bias=True)
        (3): ReLU()
        (4): Linear(in_features=160, out_features=160, bias=True)
        (5): ReLU()
        (6): Linear(in_features=160, out_features=4, bias=True)
      )
    )
    (12): PermuteRandom()
    (13): GLOWCouplingBlock(
      (s1): Sequential(
        (0): Linear(in_features=258, out_features=160, bias=True)
        (1): ReLU()
        (2): Linear(in_features=160, out_features=160, bias=True)
        (3): ReLU()
        (4): Linear(in_features=160, out_features=160, bias=True)
        (5): ReLU()
        (6): Linear(in_features=160, out_features=6, bias=True)
      )
      (s2): Sequential(
        (0): Linear(in_features=259, out_features=160, bias=True)
        (1): ReLU()
        (2): Linear(in_features=160, out_features=160, bias=True)
        (3): ReLU()
        (4): Linear(in_features=160, out_features=160, bias=True)
        (5): ReLU()
        (6): Linear(in_features=160, out_features=4, bias=True)
      )
    )
    (14): PermuteRandom()
    (15): GLOWCouplingBlock(
      (s1): Sequential(
        (0): Linear(in_features=258, out_features=160, bias=True)
        (1): ReLU()
        (2): Linear(in_features=160, out_features=160, bias=True)
        (3): ReLU()
        (4): Linear(in_features=160, out_features=160, bias=True)
        (5): ReLU()
        (6): Linear(in_features=160, out_features=6, bias=True)
      )
      (s2): Sequential(
        (0): Linear(in_features=259, out_features=160, bias=True)
        (1): ReLU()
        (2): Linear(in_features=160, out_features=160, bias=True)
        (3): ReLU()
        (4): Linear(in_features=160, out_features=160, bias=True)
        (5): ReLU()
        (6): Linear(in_features=160, out_features=4, bias=True)
      )
    )
    (16): PermuteRandom()
    (17): GLOWCouplingBlock(
      (s1): Sequential(
        (0): Linear(in_features=258, out_features=160, bias=True)
        (1): ReLU()
        (2): Linear(in_features=160, out_features=160, bias=True)
        (3): ReLU()
        (4): Linear(in_features=160, out_features=160, bias=True)
        (5): ReLU()
        (6): Linear(in_features=160, out_features=6, bias=True)
      )
      (s2): Sequential(
        (0): Linear(in_features=259, out_features=160, bias=True)
        (1): ReLU()
        (2): Linear(in_features=160, out_features=160, bias=True)
        (3): ReLU()
        (4): Linear(in_features=160, out_features=160, bias=True)
        (5): ReLU()
        (6): Linear(in_features=160, out_features=4, bias=True)
      )
    )
    (18): PermuteRandom()
    (19): GLOWCouplingBlock(
      (s1): Sequential(
        (0): Linear(in_features=258, out_features=160, bias=True)
        (1): ReLU()
        (2): Linear(in_features=160, out_features=160, bias=True)
        (3): ReLU()
        (4): Linear(in_features=160, out_features=160, bias=True)
        (5): ReLU()
        (6): Linear(in_features=160, out_features=6, bias=True)
      )
      (s2): Sequential(
        (0): Linear(in_features=259, out_features=160, bias=True)
        (1): ReLU()
        (2): Linear(in_features=160, out_features=160, bias=True)
        (3): ReLU()
        (4): Linear(in_features=160, out_features=160, bias=True)
        (5): ReLU()
        (6): Linear(in_features=160, out_features=4, bias=True)
      )
    )
    (20): PermuteRandom()
    (21): GLOWCouplingBlock(
      (s1): Sequential(
        (0): Linear(in_features=258, out_features=160, bias=True)
        (1): ReLU()
        (2): Linear(in_features=160, out_features=160, bias=True)
        (3): ReLU()
        (4): Linear(in_features=160, out_features=160, bias=True)
        (5): ReLU()
        (6): Linear(in_features=160, out_features=6, bias=True)
      )
      (s2): Sequential(
        (0): Linear(in_features=259, out_features=160, bias=True)
        (1): ReLU()
        (2): Linear(in_features=160, out_features=160, bias=True)
        (3): ReLU()
        (4): Linear(in_features=160, out_features=160, bias=True)
        (5): ReLU()
        (6): Linear(in_features=160, out_features=4, bias=True)
      )
    )
    (22): PermuteRandom()
    (23): GLOWCouplingBlock(
      (s1): Sequential(
        (0): Linear(in_features=258, out_features=160, bias=True)
        (1): ReLU()
        (2): Linear(in_features=160, out_features=160, bias=True)
        (3): ReLU()
        (4): Linear(in_features=160, out_features=160, bias=True)
        (5): ReLU()
        (6): Linear(in_features=160, out_features=6, bias=True)
      )
      (s2): Sequential(
        (0): Linear(in_features=259, out_features=160, bias=True)
        (1): ReLU()
        (2): Linear(in_features=160, out_features=160, bias=True)
        (3): ReLU()
        (4): Linear(in_features=160, out_features=160, bias=True)
        (5): ReLU()
        (6): Linear(in_features=160, out_features=4, bias=True)
      )
    )
    (24): PermuteRandom()
    (25): GLOWCouplingBlock(
      (s1): Sequential(
        (0): Linear(in_features=258, out_features=160, bias=True)
        (1): ReLU()
        (2): Linear(in_features=160, out_features=160, bias=True)
        (3): ReLU()
        (4): Linear(in_features=160, out_features=160, bias=True)
        (5): ReLU()
        (6): Linear(in_features=160, out_features=6, bias=True)
      )
      (s2): Sequential(
        (0): Linear(in_features=259, out_features=160, bias=True)
        (1): ReLU()
        (2): Linear(in_features=160, out_features=160, bias=True)
        (3): ReLU()
        (4): Linear(in_features=160, out_features=160, bias=True)
        (5): ReLU()
        (6): Linear(in_features=160, out_features=4, bias=True)
      )
    )
    (26): PermuteRandom()
    (27): dummy()
    (28): None
  )
)
Start training now...
Starting training now
Doing Evaluation on the model now
This is Epoch 0, training loss -0.14334, validation loss -0.40227
Saving the model down...
Doing Evaluation on the model now
This is Epoch 20, training loss -3.28350, validation loss 6.56877
Doing Evaluation on the model now
…
