…
	 Output #0 of node 'permute_4' with dims (14,)
	 conditioned on node 'node' with dims (2000,)

Node 'permute_5' takes the following inputs:
	 Output #0 of node 'coupling_5' with dims (14,)

Node 'coupling_6' takes the following inputs:
	 Output #0 of node 'permute_5' with dims (14,)
	 conditioned on node 'node' with dims (2000,)

Node 'permute_6' takes the following inputs:
	 Output #0 of node 'coupling_6' with dims (14,)

Node 'output' takes the following inputs:
	 Output #0 of node 'permute_6' with dims (14,)

ReversibleGraphNet(
  (module_list): ModuleList(
    (0): None
    (1): GLOWCouplingBlock(
      (s1): Sequential(
        (0): Linear(in_features=2007, out_features=160, bias=True)
        (1): ReLU()
        (2): Linear(in_features=160, out_features=160, bias=True)
        (3): ReLU()
        (4): Linear(in_features=160, out_features=160, bias=True)
        (5): ReLU()
        (6): Linear(in_features=160, out_features=14, bias=True)
      )
      (s2): Sequential(
        (0): Linear(in_features=2007, out_features=160, bias=True)
        (1): ReLU()
        (2): Linear(in_features=160, out_features=160, bias=True)
        (3): ReLU()
        (4): Linear(in_features=160, out_features=160, bias=True)
        (5): ReLU()
        (6): Linear(in_features=160, out_features=14, bias=True)
      )
    )
    (2): PermuteRandom()
    (3): GLOWCouplingBlock(
      (s1): Sequential(
        (0): Linear(in_features=2007, out_features=160, bias=True)
        (1): ReLU()
        (2): Linear(in_features=160, out_features=160, bias=True)
        (3): ReLU()
        (4): Linear(in_features=160, out_features=160, bias=True)
        (5): ReLU()
        (6): Linear(in_features=160, out_features=14, bias=True)
      )
      (s2): Sequential(
        (0): Linear(in_features=2007, out_features=160, bias=True)
        (1): ReLU()
        (2): Linear(in_features=160, out_features=160, bias=True)
        (3): ReLU()
        (4): Linear(in_features=160, out_features=160, bias=True)
        (5): ReLU()
        (6): Linear(in_features=160, out_features=14, bias=True)
      )
    )
    (4): PermuteRandom()
    (5): GLOWCouplingBlock(
      (s1): Sequential(
        (0): Linear(in_features=2007, out_features=160, bias=True)
        (1): ReLU()
        (2): Linear(in_features=160, out_features=160, bias=True)
        (3): ReLU()
        (4): Linear(in_features=160, out_features=160, bias=True)
        (5): ReLU()
        (6): Linear(in_features=160, out_features=14, bias=True)
      )
      (s2): Sequential(
        (0): Linear(in_features=2007, out_features=160, bias=True)
        (1): ReLU()
        (2): Linear(in_features=160, out_features=160, bias=True)
        (3): ReLU()
        (4): Linear(in_features=160, out_features=160, bias=True)
        (5): ReLU()
        (6): Linear(in_features=160, out_features=14, bias=True)
      )
    )
    (6): PermuteRandom()
    (7): GLOWCouplingBlock(
      (s1): Sequential(
        (0): Linear(in_features=2007, out_features=160, bias=True)
        (1): ReLU()
        (2): Linear(in_features=160, out_features=160, bias=True)
        (3): ReLU()
        (4): Linear(in_features=160, out_features=160, bias=True)
        (5): ReLU()
        (6): Linear(in_features=160, out_features=14, bias=True)
      )
      (s2): Sequential(
        (0): Linear(in_features=2007, out_features=160, bias=True)
        (1): ReLU()
        (2): Linear(in_features=160, out_features=160, bias=True)
        (3): ReLU()
        (4): Linear(in_features=160, out_features=160, bias=True)
        (5): ReLU()
        (6): Linear(in_features=160, out_features=14, bias=True)
      )
    )
    (8): PermuteRandom()
    (9): GLOWCouplingBlock(
      (s1): Sequential(
        (0): Linear(in_features=2007, out_features=160, bias=True)
        (1): ReLU()
        (2): Linear(in_features=160, out_features=160, bias=True)
        (3): ReLU()
        (4): Linear(in_features=160, out_features=160, bias=True)
        (5): ReLU()
        (6): Linear(in_features=160, out_features=14, bias=True)
      )
      (s2): Sequential(
        (0): Linear(in_features=2007, out_features=160, bias=True)
        (1): ReLU()
        (2): Linear(in_features=160, out_features=160, bias=True)
        (3): ReLU()
        (4): Linear(in_features=160, out_features=160, bias=True)
        (5): ReLU()
        (6): Linear(in_features=160, out_features=14, bias=True)
      )
    )
    (10): PermuteRandom()
    (11): GLOWCouplingBlock(
      (s1): Sequential(
        (0): Linear(in_features=2007, out_features=160, bias=True)
        (1): ReLU()
        (2): Linear(in_features=160, out_features=160, bias=True)
        (3): ReLU()
        (4): Linear(in_features=160, out_features=160, bias=True)
        (5): ReLU()
        (6): Linear(in_features=160, out_features=14, bias=True)
      )
      (s2): Sequential(
        (0): Linear(in_features=2007, out_features=160, bias=True)
        (1): ReLU()
        (2): Linear(in_features=160, out_features=160, bias=True)
        (3): ReLU()
        (4): Linear(in_features=160, out_features=160, bias=True)
        (5): ReLU()
        (6): Linear(in_features=160, out_features=14, bias=True)
      )
    )
    (12): PermuteRandom()
    (13): GLOWCouplingBlock(
      (s1): Sequential(
        (0): Linear(in_features=2007, out_features=160, bias=True)
        (1): ReLU()
        (2): Linear(in_features=160, out_features=160, bias=True)
        (3): ReLU()
        (4): Linear(in_features=160, out_features=160, bias=True)
        (5): ReLU()
        (6): Linear(in_features=160, out_features=14, bias=True)
      )
      (s2): Sequential(
        (0): Linear(in_features=2007, out_features=160, bias=True)
        (1): ReLU()
        (2): Linear(in_features=160, out_features=160, bias=True)
        (3): ReLU()
        (4): Linear(in_features=160, out_features=160, bias=True)
        (5): ReLU()
        (6): Linear(in_features=160, out_features=14, bias=True)
      )
    )
    (14): PermuteRandom()
    (15): dummy()
    (16): None
  )
)
Yang/Yang_simcouple_layer_num7labmda_mse100_lr_0.001_reg_scale_0.005
number of trainable parameters is :
5250756
Start eval now:
entering folder to predict: ../Data/Yang_sim/state_dicts/
entering: mm8.pt
entering: mm4.pt
entering: mm5.pt
entering: mm1.pt
entering: mm6.pt
entering: mm9.pt
…
this is doing ensemble prediction for models : ['../Data/Yang_sim/state_dicts/mm8.pt', '../Data/Yang_sim/state_dicts/mm4.pt', '../Data/Yang_sim/state_dicts/mm5.pt', '../Data/Yang_sim/state_dicts/mm1.pt', '../Data/Yang_sim/state_dicts/mm6.pt', '../Data/Yang_sim/state_dicts/mm9.pt', '../Data/Yang_sim/state_dicts/mm0.pt', '../Data/Yang_sim/state_dicts/mm3.pt', '../Data/Yang_sim/state_dicts/mm2.pt', '../Data/Yang_sim/state_dicts/mm7.pt']
This is doing the prediction for file /home/sr365/MM_Bench/cINN/data/test_Xpred_Yang_Yang_simcouple_layer_num7labmda_mse100_lr_0.001_reg_scale_0.005.csv
Retrieving flag object for parameters
Making network now
This is inference mode, the ckpt is /home/sr365/MM_Bench/cINN/models/../Data/Yang_sim/model_param
NA(
  (linears): ModuleList(
    (0): Linear(in_features=14, out_features=1000, bias=True)
    (1): Linear(in_features=1000, out_features=1000, bias=True)
    (2): Linear(in_features=1000, out_features=1000, bias=True)
    (3): Linear(in_features=1000, out_features=1000, bias=True)
    (4): Linear(in_features=1000, out_features=1000, bias=True)
    (5): Linear(in_features=1000, out_features=1000, bias=True)
    (6): Linear(in_features=1000, out_features=1000, bias=True)
    (7): Linear(in_features=1000, out_features=1000, bias=True)
    (8): Linear(in_features=1000, out_features=1000, bias=True)
    (9): Linear(in_features=1000, out_features=1000, bias=True)
    (10): Linear(in_features=1000, out_features=1000, bias=True)
    (11): Linear(in_features=1000, out_features=1000, bias=True)
    (12): Linear(in_features=1000, out_features=500, bias=True)
  )
  (bn_linears): ModuleList(
    (0): BatchNorm1d(1000, eps=1e-05, momentum=0.1, affine=True, track_running_stats=True)
    (1): BatchNorm1d(1000, eps=1e-05, momentum=0.1, affine=True, track_running_stats=True)
    (2): BatchNorm1d(1000, eps=1e-05, momentum=0.1, affine=True, track_running_stats=True)
    (3): BatchNorm1d(1000, eps=1e-05, momentum=0.1, affine=True, track_running_stats=True)
    (4): BatchNorm1d(1000, eps=1e-05, momentum=0.1, affine=True, track_running_stats=True)
    (5): BatchNorm1d(1000, eps=1e-05, momentum=0.1, affine=True, track_running_stats=True)
    (6): BatchNorm1d(1000, eps=1e-05, momentum=0.1, affine=True, track_running_stats=True)
    (7): BatchNorm1d(1000, eps=1e-05, momentum=0.1, affine=True, track_running_stats=True)
    (8): BatchNorm1d(1000, eps=1e-05, momentum=0.1, affine=True, track_running_stats=True)
    (9): BatchNorm1d(1000, eps=1e-05, momentum=0.1, affine=True, track_running_stats=True)
    (10): BatchNorm1d(1000, eps=1e-05, momentum=0.1, affine=True, track_running_stats=True)
    (11): BatchNorm1d(1000, eps=1e-05, momentum=0.1, affine=True, track_running_stats=True)
    (12): BatchNorm1d(500, eps=1e-05, momentum=0.1, affine=True, track_running_stats=True)
  )
  (convs): ModuleList(
    (0): ConvTranspose1d(1, 4, kernel_size=(8,), stride=(2,), padding=(3,))
    (1): ConvTranspose1d(4, 4, kernel_size=(8,), stride=(2,), padding=(3,))
    (2): ConvTranspose1d(4, 4, kernel_size=(5,), stride=(1,), padding=(2,))
    (3): ConvTranspose1d(4, 4, kernel_size=(5,), stride=(1,), padding=(2,))
    (4): Conv1d(4, 1, kernel_size=(1,), stride=(1,))
  )
)
number of trainable parameters is :
11551841
Start eval now:
entering predict function
<class 'pandas.core.frame.DataFrame'>
RangeIndex: 2500 entries, 0 to 2499
Data columns (total 14 columns):
 #   Column  Non-Null Count  Dtype  
---  ------  --------------  -----  
 0   0       2500 non-null   float64
 1   1       2500 non-null   float64
 2   2       2500 non-null   float64
…
	 Output #0 of node 'permute_5' with dims (14,)
	 conditioned on node 'node' with dims (2000,)

Node 'permute_6' takes the following inputs:
	 Output #0 of node 'coupling_6' with dims (14,)

Node 'coupling_7' takes the following inputs:
	 Output #0 of node 'permute_6' with dims (14,)
	 conditioned on node 'node' with dims (2000,)

Node 'permute_7' takes the following inputs:
	 Output #0 of node 'coupling_7' with dims (14,)

Node 'output' takes the following inputs:
	 Output #0 of node 'permute_7' with dims (14,)

ReversibleGraphNet(
  (module_list): ModuleList(
    (0): None
    (1): GLOWCouplingBlock(
      (s1): Sequential(
        (0): Linear(in_features=2007, out_features=160, bias=True)
        (1): ReLU()
        (2): Linear(in_features=160, out_features=160, bias=True)
        (3): ReLU()
        (4): Linear(in_features=160, out_features=160, bias=True)
        (5): ReLU()
        (6): Linear(in_features=160, out_features=14, bias=True)
      )
      (s2): Sequential(
        (0): Linear(in_features=2007, out_features=160, bias=True)
        (1): ReLU()
        (2): Linear(in_features=160, out_features=160, bias=True)
        (3): ReLU()
        (4): Linear(in_features=160, out_features=160, bias=True)
        (5): ReLU()
        (6): Linear(in_features=160, out_features=14, bias=True)
      )
    )
    (2): PermuteRandom()
    (3): GLOWCouplingBlock(
      (s1): Sequential(
        (0): Linear(in_features=2007, out_features=160, bias=True)
        (1): ReLU()
        (2): Linear(in_features=160, out_features=160, bias=True)
        (3): ReLU()
        (4): Linear(in_features=160, out_features=160, bias=True)
        (5): ReLU()
        (6): Linear(in_features=160, out_features=14, bias=True)
      )
      (s2): Sequential(
        (0): Linear(in_features=2007, out_features=160, bias=True)
        (1): ReLU()
        (2): Linear(in_features=160, out_features=160, bias=True)
        (3): ReLU()
        (4): Linear(in_features=160, out_features=160, bias=True)
        (5): ReLU()
        (6): Linear(in_features=160, out_features=14, bias=True)
      )
    )
    (4): PermuteRandom()
    (5): GLOWCouplingBlock(
      (s1): Sequential(
        (0): Linear(in_features=2007, out_features=160, bias=True)
        (1): ReLU()
        (2): Linear(in_features=160, out_features=160, bias=True)
        (3): ReLU()
        (4): Linear(in_features=160, out_features=160, bias=True)
        (5): ReLU()
        (6): Linear(in_features=160, out_features=14, bias=True)
      )
      (s2): Sequential(
        (0): Linear(in_features=2007, out_features=160, bias=True)
        (1): ReLU()
        (2): Linear(in_features=160, out_features=160, bias=True)
        (3): ReLU()
        (4): Linear(in_features=160, out_features=160, bias=True)
        (5): ReLU()
        (6): Linear(in_features=160, out_features=14, bias=True)
      )
    )
    (6): PermuteRandom()
    (7): GLOWCouplingBlock(
      (s1): Sequential(
        (0): Linear(in_features=2007, out_features=160, bias=True)
        (1): ReLU()
        (2): Linear(in_features=160, out_features=160, bias=True)
        (3): ReLU()
        (4): Linear(in_features=160, out_features=160, bias=True)
        (5): ReLU()
        (6): Linear(in_features=160, out_features=14, bias=True)
      )
      (s2): Sequential(
        (0): Linear(in_features=2007, out_features=160, bias=True)
        (1): ReLU()
        (2): Linear(in_features=160, out_features=160, bias=True)
        (3): ReLU()
        (4): Linear(in_features=160, out_features=160, bias=True)
        (5): ReLU()
        (6): Linear(in_features=160, out_features=14, bias=True)
      )
    )
    (8): PermuteRandom()
    (9): GLOWCouplingBlock(
      (s1): Sequential(
        (0): Linear(in_features=2007, out_features=160, bias=True)
        (1): ReLU()
        (2): Linear(in_features=160, out_features=160, bias=True)
        (3): ReLU()
        (4): Linear(in_features=160, out_features=160, bias=True)
        (5): ReLU()
        (6): Linear(in_features=160, out_features=14, bias=True)
      )
      (s2): Sequential(
        (0): Linear(in_features=2007, out_features=160, bias=True)
        (1): ReLU()
        (2): Linear(in_features=160, out_features=160, bias=True)
        (3): ReLU()
        (4): Linear(in_features=160, out_features=160, bias=True)
        (5): ReLU()
        (6): Linear(in_features=160, out_features=14, bias=True)
      )
    )
    (10): PermuteRandom()
    (11): GLOWCouplingBlock(
      (s1): Sequential(
        (0): Linear(in_features=2007, out_features=160, bias=True)
        (1): ReLU()
        (2): Linear(in_features=160, out_features=160, bias=True)
        (3): ReLU()
        (4): Linear(in_features=160, out_features=160, bias=True)
        (5): ReLU()
        (6): Linear(in_features=160, out_features=14, bias=True)
      )
      (s2): Sequential(
        (0): Linear(in_features=2007, out_features=160, bias=True)
        (1): ReLU()
        (2): Linear(in_features=160, out_features=160, bias=True)
        (3): ReLU()
        (4): Linear(in_features=160, out_features=160, bias=True)
        (5): ReLU()
        (6): Linear(in_features=160, out_features=14, bias=True)
      )
    )
    (12): PermuteRandom()
    (13): GLOWCouplingBlock(
      (s1): Sequential(
        (0): Linear(in_features=2007, out_features=160, bias=True)
        (1): ReLU()
        (2): Linear(in_features=160, out_features=160, bias=True)
        (3): ReLU()
        (4): Linear(in_features=160, out_features=160, bias=True)
        (5): ReLU()
        (6): Linear(in_features=160, out_features=14, bias=True)
      )
      (s2): Sequential(
        (0): Linear(in_features=2007, out_features=160, bias=True)
        (1): ReLU()
        (2): Linear(in_features=160, out_features=160, bias=True)
        (3): ReLU()
        (4): Linear(in_features=160, out_features=160, bias=True)
        (5): ReLU()
        (6): Linear(in_features=160, out_features=14, bias=True)
      )
    )
    (14): PermuteRandom()
    (15): GLOWCouplingBlock(
      (s1): Sequential(
        (0): Linear(in_features=2007, out_features=160, bias=True)
        (1): ReLU()
        (2): Linear(in_features=160, out_features=160, bias=True)
        (3): ReLU()
        (4): Linear(in_features=160, out_features=160, bias=True)
        (5): ReLU()
        (6): Linear(in_features=160, out_features=14, bias=True)
      )
      (s2): Sequential(
        (0): Linear(in_features=2007, out_features=160, bias=True)
        (1): ReLU()
        (2): Linear(in_features=160, out_features=160, bias=True)
        (3): ReLU()
        (4): Linear(in_features=160, out_features=160, bias=True)
        (5): ReLU()
        (6): Linear(in_features=160, out_features=14, bias=True)
      )
    )
    (16): PermuteRandom()
    (17): dummy()
    (18): None
  )
)
Yang/Yang_simcouple_layer_num8labmda_mse10_lr_0.001_reg_scale_0.005
number of trainable parameters is :
6000864
Start eval now:
entering folder to predict: ../Data/Yang_sim/state_dicts/
entering: mm8.pt
entering: mm4.pt
entering: mm5.pt
entering: ensemble_plothomesr365MM_BenchcINNdatatest_Xpred_Yang_Yang_simcouple_layer_num7labmda_mse100_lr_0.001_reg_scale_0.005.csv.png
…
	 Output #0 of node 'permute_2' with dims (14,)
	 conditioned on node 'node' with dims (2000,)

Node 'permute_3' takes the following inputs:
	 Output #0 of node 'coupling_3' with dims (14,)

Node 'coupling_4' takes the following inputs:
	 Output #0 of node 'permute_3' with dims (14,)
	 conditioned on node 'node' with dims (2000,)

Node 'permute_4' takes the following inputs:
	 Output #0 of node 'coupling_4' with dims (14,)

Node 'output' takes the following inputs:
	 Output #0 of node 'permute_4' with dims (14,)

ReversibleGraphNet(
  (module_list): ModuleList(
    (0): None
    (1): GLOWCouplingBlock(
      (s1): Sequential(
        (0): Linear(in_features=2007, out_features=160, bias=True)
        (1): ReLU()
        (2): Linear(in_features=160, out_features=160, bias=True)
        (3): ReLU()
        (4): Linear(in_features=160, out_features=160, bias=True)
        (5): ReLU()
        (6): Linear(in_features=160, out_features=14, bias=True)
      )
      (s2): Sequential(
        (0): Linear(in_features=2007, out_features=160, bias=True)
        (1): ReLU()
        (2): Linear(in_features=160, out_features=160, bias=True)
        (3): ReLU()
        (4): Linear(in_features=160, out_features=160, bias=True)
        (5): ReLU()
        (6): Linear(in_features=160, out_features=14, bias=True)
      )
    )
    (2): PermuteRandom()
    (3): GLOWCouplingBlock(
      (s1): Sequential(
        (0): Linear(in_features=2007, out_features=160, bias=True)
        (1): ReLU()
        (2): Linear(in_features=160, out_features=160, bias=True)
        (3): ReLU()
        (4): Linear(in_features=160, out_features=160, bias=True)
        (5): ReLU()
        (6): Linear(in_features=160, out_features=14, bias=True)
      )
      (s2): Sequential(
        (0): Linear(in_features=2007, out_features=160, bias=True)
        (1): ReLU()
        (2): Linear(in_features=160, out_features=160, bias=True)
        (3): ReLU()
        (4): Linear(in_features=160, out_features=160, bias=True)
        (5): ReLU()
        (6): Linear(in_features=160, out_features=14, bias=True)
      )
    )
    (4): PermuteRandom()
    (5): GLOWCouplingBlock(
      (s1): Sequential(
        (0): Linear(in_features=2007, out_features=160, bias=True)
        (1): ReLU()
        (2): Linear(in_features=160, out_features=160, bias=True)
        (3): ReLU()
        (4): Linear(in_features=160, out_features=160, bias=True)
        (5): ReLU()
        (6): Linear(in_features=160, out_features=14, bias=True)
      )
      (s2): Sequential(
        (0): Linear(in_features=2007, out_features=160, bias=True)
        (1): ReLU()
        (2): Linear(in_features=160, out_features=160, bias=True)
        (3): ReLU()
        (4): Linear(in_features=160, out_features=160, bias=True)
        (5): ReLU()
        (6): Linear(in_features=160, out_features=14, bias=True)
      )
    )
    (6): PermuteRandom()
    (7): GLOWCouplingBlock(
      (s1): Sequential(
        (0): Linear(in_features=2007, out_features=160, bias=True)
        (1): ReLU()
        (2): Linear(in_features=160, out_features=160, bias=True)
        (3): ReLU()
        (4): Linear(in_features=160, out_features=160, bias=True)
        (5): ReLU()
        (6): Linear(in_features=160, out_features=14, bias=True)
      )
      (s2): Sequential(
        (0): Linear(in_features=2007, out_features=160, bias=True)
        (1): ReLU()
        (2): Linear(in_features=160, out_features=160, bias=True)
        (3): ReLU()
        (4): Linear(in_features=160, out_features=160, bias=True)
        (5): ReLU()
        (6): Linear(in_features=160, out_features=14, bias=True)
      )
    )
    (8): PermuteRandom()
    (9): GLOWCouplingBlock(
      (s1): Sequential(
        (0): Linear(in_features=2007, out_features=160, bias=True)
        (1): ReLU()
        (2): Linear(in_features=160, out_features=160, bias=True)
        (3): ReLU()
        (4): Linear(in_features=160, out_features=160, bias=True)
        (5): ReLU()
        (6): Linear(in_features=160, out_features=14, bias=True)
      )
      (s2): Sequential(
        (0): Linear(in_features=2007, out_features=160, bias=True)
        (1): ReLU()
        (2): Linear(in_features=160, out_features=160, bias=True)
        (3): ReLU()
        (4): Linear(in_features=160, out_features=160, bias=True)
        (5): ReLU()
        (6): Linear(in_features=160, out_features=14, bias=True)
      )
    )
    (10): PermuteRandom()
    (11): dummy()
    (12): None
  )
)
Yang/Yang_simcouple_layer_num5labmda_mse1_lr_0.001_reg_scale_0.005
number of trainable parameters is :
3750540
Start eval now:
entering folder to predict: ../Data/Yang_sim/state_dicts/
entering: mm8.pt
entering: mm4.pt
entering: mm5.pt
entering: ensemble_plothomesr365MM_BenchcINNdatatest_Xpred_Yang_Yang_simcouple_layer_num7labmda_mse100_lr_0.001_reg_scale_0.005.csv.png
…
	 Output #0 of node 'permute_1' with dims (14,)
	 conditioned on node 'node' with dims (2000,)

Node 'permute_2' takes the following inputs:
	 Output #0 of node 'coupling_2' with dims (14,)

Node 'coupling_3' takes the following inputs:
	 Output #0 of node 'permute_2' with dims (14,)
	 conditioned on node 'node' with dims (2000,)

Node 'permute_3' takes the following inputs:
	 Output #0 of node 'coupling_3' with dims (14,)

Node 'output' takes the following inputs:
	 Output #0 of node 'permute_3' with dims (14,)

ReversibleGraphNet(
  (module_list): ModuleList(
    (0): None
    (1): GLOWCouplingBlock(
      (s1): Sequential(
        (0): Linear(in_features=2007, out_features=160, bias=True)
        (1): ReLU()
        (2): Linear(in_features=160, out_features=160, bias=True)
        (3): ReLU()
        (4): Linear(in_features=160, out_features=160, bias=True)
        (5): ReLU()
        (6): Linear(in_features=160, out_features=14, bias=True)
      )
      (s2): Sequential(
        (0): Linear(in_features=2007, out_features=160, bias=True)
        (1): ReLU()
        (2): Linear(in_features=160, out_features=160, bias=True)
        (3): ReLU()
        (4): Linear(in_features=160, out_features=160, bias=True)
        (5): ReLU()
        (6): Linear(in_features=160, out_features=14, bias=True)
      )
    )
    (2): PermuteRandom()
    (3): GLOWCouplingBlock(
      (s1): Sequential(
        (0): Linear(in_features=2007, out_features=160, bias=True)
        (1): ReLU()
        (2): Linear(in_features=160, out_features=160, bias=True)
        (3): ReLU()
        (4): Linear(in_features=160, out_features=160, bias=True)
        (5): ReLU()
        (6): Linear(in_features=160, out_features=14, bias=True)
      )
      (s2): Sequential(
        (0): Linear(in_features=2007, out_features=160, bias=True)
        (1): ReLU()
        (2): Linear(in_features=160, out_features=160, bias=True)
        (3): ReLU()
        (4): Linear(in_features=160, out_features=160, bias=True)
        (5): ReLU()
        (6): Linear(in_features=160, out_features=14, bias=True)
      )
    )
    (4): PermuteRandom()
    (5): GLOWCouplingBlock(
      (s1): Sequential(
        (0): Linear(in_features=2007, out_features=160, bias=True)
        (1): ReLU()
        (2): Linear(in_features=160, out_features=160, bias=True)
        (3): ReLU()
        (4): Linear(in_features=160, out_features=160, bias=True)
        (5): ReLU()
        (6): Linear(in_features=160, out_features=14, bias=True)
      )
      (s2): Sequential(
        (0): Linear(in_features=2007, out_features=160, bias=True)
        (1): ReLU()
        (2): Linear(in_features=160, out_features=160, bias=True)
        (3): ReLU()
        (4): Linear(in_features=160, out_features=160, bias=True)
        (5): ReLU()
        (6): Linear(in_features=160, out_features=14, bias=True)
      )
    )
    (6): PermuteRandom()
    (7): GLOWCouplingBlock(
      (s1): Sequential(
        (0): Linear(in_features=2007, out_features=160, bias=True)
        (1): ReLU()
        (2): Linear(in_features=160, out_features=160, bias=True)
        (3): ReLU()
        (4): Linear(in_features=160, out_features=160, bias=True)
        (5): ReLU()
        (6): Linear(in_features=160, out_features=14, bias=True)
      )
      (s2): Sequential(
        (0): Linear(in_features=2007, out_features=160, bias=True)
        (1): ReLU()
        (2): Linear(in_features=160, out_features=160, bias=True)
        (3): ReLU()
        (4): Linear(in_features=160, out_features=160, bias=True)
        (5): ReLU()
        (6): Linear(in_features=160, out_features=14, bias=True)
      )
    )
    (8): PermuteRandom()
    (9): dummy()
    (10): None
  )
)
Yang/Yang_simcouple_layer_num4labmda_mse10_lr_0.001_reg_scale_0.005
number of trainable parameters is :
3000432
Start eval now:
entering folder to predict: ../Data/Yang_sim/state_dicts/
entering: mm8.pt
entering: ensemble_plothomesr365MM_BenchcINNdatatest_Xpred_Yang_Yang_simcouple_layer_num5labmda_mse10_lr_0.001_reg_scale_0.005.csv.png
…
	 Output #0 of node 'permute_6' with dims (14,)
	 conditioned on node 'node' with dims (2000,)

Node 'permute_7' takes the following inputs:
	 Output #0 of node 'coupling_7' with dims (14,)

Node 'coupling_8' takes the following inputs:
	 Output #0 of node 'permute_7' with dims (14,)
	 conditioned on node 'node' with dims (2000,)

Node 'permute_8' takes the following inputs:
	 Output #0 of node 'coupling_8' with dims (14,)

Node 'output' takes the following inputs:
	 Output #0 of node 'permute_8' with dims (14,)

ReversibleGraphNet(
  (module_list): ModuleList(
    (0): None
    (1): GLOWCouplingBlock(
      (s1): Sequential(
        (0): Linear(in_features=2007, out_features=160, bias=True)
        (1): ReLU()
        (2): Linear(in_features=160, out_features=160, bias=True)
        (3): ReLU()
        (4): Linear(in_features=160, out_features=160, bias=True)
        (5): ReLU()
        (6): Linear(in_features=160, out_features=14, bias=True)
      )
      (s2): Sequential(
        (0): Linear(in_features=2007, out_features=160, bias=True)
        (1): ReLU()
        (2): Linear(in_features=160, out_features=160, bias=True)
        (3): ReLU()
        (4): Linear(in_features=160, out_features=160, bias=True)
        (5): ReLU()
        (6): Linear(in_features=160, out_features=14, bias=True)
      )
    )
    (2): PermuteRandom()
    (3): GLOWCouplingBlock(
      (s1): Sequential(
        (0): Linear(in_features=2007, out_features=160, bias=True)
        (1): ReLU()
        (2): Linear(in_features=160, out_features=160, bias=True)
        (3): ReLU()
        (4): Linear(in_features=160, out_features=160, bias=True)
        (5): ReLU()
        (6): Linear(in_features=160, out_features=14, bias=True)
      )
      (s2): Sequential(
        (0): Linear(in_features=2007, out_features=160, bias=True)
        (1): ReLU()
        (2): Linear(in_features=160, out_features=160, bias=True)
        (3): ReLU()
        (4): Linear(in_features=160, out_features=160, bias=True)
        (5): ReLU()
        (6): Linear(in_features=160, out_features=14, bias=True)
      )
    )
    (4): PermuteRandom()
    (5): GLOWCouplingBlock(
      (s1): Sequential(
        (0): Linear(in_features=2007, out_features=160, bias=True)
        (1): ReLU()
        (2): Linear(in_features=160, out_features=160, bias=True)
        (3): ReLU()
        (4): Linear(in_features=160, out_features=160, bias=True)
        (5): ReLU()
        (6): Linear(in_features=160, out_features=14, bias=True)
      )
      (s2): Sequential(
        (0): Linear(in_features=2007, out_features=160, bias=True)
        (1): ReLU()
        (2): Linear(in_features=160, out_features=160, bias=True)
        (3): ReLU()
        (4): Linear(in_features=160, out_features=160, bias=True)
        (5): ReLU()
        (6): Linear(in_features=160, out_features=14, bias=True)
      )
    )
    (6): PermuteRandom()
    (7): GLOWCouplingBlock(
      (s1): Sequential(
        (0): Linear(in_features=2007, out_features=160, bias=True)
        (1): ReLU()
        (2): Linear(in_features=160, out_features=160, bias=True)
        (3): ReLU()
        (4): Linear(in_features=160, out_features=160, bias=True)
        (5): ReLU()
        (6): Linear(in_features=160, out_features=14, bias=True)
      )
      (s2): Sequential(
        (0): Linear(in_features=2007, out_features=160, bias=True)
        (1): ReLU()
        (2): Linear(in_features=160, out_features=160, bias=True)
        (3): ReLU()
        (4): Linear(in_features=160, out_features=160, bias=True)
        (5): ReLU()
        (6): Linear(in_features=160, out_features=14, bias=True)
      )
    )
    (8): PermuteRandom()
    (9): GLOWCouplingBlock(
      (s1): Sequential(
        (0): Linear(in_features=2007, out_features=160, bias=True)
        (1): ReLU()
        (2): Linear(in_features=160, out_features=160, bias=True)
        (3): ReLU()
        (4): Linear(in_features=160, out_features=160, bias=True)
        (5): ReLU()
        (6): Linear(in_features=160, out_features=14, bias=True)
      )
      (s2): Sequential(
        (0): Linear(in_features=2007, out_features=160, bias=True)
        (1): ReLU()
        (2): Linear(in_features=160, out_features=160, bias=True)
        (3): ReLU()
        (4): Linear(in_features=160, out_features=160, bias=True)
        (5): ReLU()
        (6): Linear(in_features=160, out_features=14, bias=True)
      )
    )
    (10): PermuteRandom()
    (11): GLOWCouplingBlock(
      (s1): Sequential(
        (0): Linear(in_features=2007, out_features=160, bias=True)
        (1): ReLU()
        (2): Linear(in_features=160, out_features=160, bias=True)
        (3): ReLU()
        (4): Linear(in_features=160, out_features=160, bias=True)
        (5): ReLU()
        (6): Linear(in_features=160, out_features=14, bias=True)
      )
      (s2): Sequential(
        (0): Linear(in_features=2007, out_features=160, bias=True)
        (1): ReLU()
        (2): Linear(in_features=160, out_features=160, bias=True)
        (3): ReLU()
        (4): Linear(in_features=160, out_features=160, bias=True)
        (5): ReLU()
        (6): Linear(in_features=160, out_features=14, bias=True)
      )
    )
    (12): PermuteRandom()
    (13): GLOWCouplingBlock(
      (s1): Sequential(
        (0): Linear(in_features=2007, out_features=160, bias=True)
        (1): ReLU()
        (2): Linear(in_features=160, out_features=160, bias=True)
        (3): ReLU()
        (4): Linear(in_features=160, out_features=160, bias=True)
        (5): ReLU()
        (6): Linear(in_features=160, out_features=14, bias=True)
      )
      (s2): Sequential(
        (0): Linear(in_features=2007, out_features=160, bias=True)
        (1): ReLU()
        (2): Linear(in_features=160, out_features=160, bias=True)
        (3): ReLU()
        (4): Linear(in_features=160, out_features=160, bias=True)
        (5): ReLU()
        (6): Linear(in_features=160, out_features=14, bias=True)
      )
    )
    (14): PermuteRandom()
    (15): GLOWCouplingBlock(
      (s1): Sequential(
        (0): Linear(in_features=2007, out_features=160, bias=True)
        (1): ReLU()
        (2): Linear(in_features=160, out_features=160, bias=True)
        (3): ReLU()
        (4): Linear(in_features=160, out_features=160, bias=True)
        (5): ReLU()
        (6): Linear(in_features=160, out_features=14, bias=True)
      )
      (s2): Sequential(
        (0): Linear(in_features=2007, out_features=160, bias=True)
        (1): ReLU()
        (2): Linear(in_features=160, out_features=160, bias=True)
        (3): ReLU()
        (4): Linear(in_features=160, out_features=160, bias=True)
        (5): ReLU()
        (6): Linear(in_features=160, out_features=14, bias=True)
      )
    )
    (16): PermuteRandom()
    (17): GLOWCouplingBlock(
      (s1): Sequential(
        (0): Linear(in_features=2007, out_features=160, bias=True)
        (1): ReLU()
        (2): Linear(in_features=160, out_features=160, bias=True)
        (3): ReLU()
        (4): Linear(in_features=160, out_features=160, bias=True)
        (5): ReLU()
        (6): Linear(in_features=160, out_features=14, bias=True)
      )
      (s2): Sequential(
        (0): Linear(in_features=2007, out_features=160, bias=True)
        (1): ReLU()
        (2): Linear(in_features=160, out_features=160, bias=True)
        (3): ReLU()
        (4): Linear(in_features=160, out_features=160, bias=True)
        (5): ReLU()
        (6): Linear(in_features=160, out_features=14, bias=True)
      )
    )
    (18): PermuteRandom()
    (19): dummy()
    (20): None
  )
)
Yang/Yang_simcouple_layer_num9labmda_mse10_lr_0.001_reg_scale_0.005
number of trainable parameters is :
6750972
Start eval now:
entering folder to predict: ../Data/Yang_sim/state_dicts/
entering: mm8.pt
entering: ensemble_plothomesr365MM_BenchcINNdatatest_Xpred_Yang_Yang_simcouple_layer_num5labmda_mse10_lr_0.001_reg_scale_0.005.csv.png
…
	 Output #0 of node 'permute_3' with dims (14,)
	 conditioned on node 'node' with dims (2000,)

Node 'permute_4' takes the following inputs:
	 Output #0 of node 'coupling_4' with dims (14,)

Node 'coupling_5' takes the following inputs:
	 Output #0 of node 'permute_4' with dims (14,)
	 conditioned on node 'node' with dims (2000,)

Node 'permute_5' takes the following inputs:
	 Output #0 of node 'coupling_5' with dims (14,)

Node 'output' takes the following inputs:
	 Output #0 of node 'permute_5' with dims (14,)

ReversibleGraphNet(
  (module_list): ModuleList(
    (0): None
    (1): GLOWCouplingBlock(
      (s1): Sequential(
        (0): Linear(in_features=2007, out_features=160, bias=True)
        (1): ReLU()
        (2): Linear(in_features=160, out_features=160, bias=True)
        (3): ReLU()
        (4): Linear(in_features=160, out_features=160, bias=True)
        (5): ReLU()
        (6): Linear(in_features=160, out_features=14, bias=True)
      )
      (s2): Sequential(
        (0): Linear(in_features=2007, out_features=160, bias=True)
        (1): ReLU()
        (2): Linear(in_features=160, out_features=160, bias=True)
        (3): ReLU()
        (4): Linear(in_features=160, out_features=160, bias=True)
        (5): ReLU()
        (6): Linear(in_features=160, out_features=14, bias=True)
      )
    )
    (2): PermuteRandom()
    (3): GLOWCouplingBlock(
      (s1): Sequential(
        (0): Linear(in_features=2007, out_features=160, bias=True)
        (1): ReLU()
        (2): Linear(in_features=160, out_features=160, bias=True)
        (3): ReLU()
        (4): Linear(in_features=160, out_features=160, bias=True)
        (5): ReLU()
        (6): Linear(in_features=160, out_features=14, bias=True)
      )
      (s2): Sequential(
        (0): Linear(in_features=2007, out_features=160, bias=True)
        (1): ReLU()
        (2): Linear(in_features=160, out_features=160, bias=True)
        (3): ReLU()
        (4): Linear(in_features=160, out_features=160, bias=True)
        (5): ReLU()
        (6): Linear(in_features=160, out_features=14, bias=True)
      )
    )
    (4): PermuteRandom()
    (5): GLOWCouplingBlock(
      (s1): Sequential(
        (0): Linear(in_features=2007, out_features=160, bias=True)
        (1): ReLU()
        (2): Linear(in_features=160, out_features=160, bias=True)
        (3): ReLU()
        (4): Linear(in_features=160, out_features=160, bias=True)
        (5): ReLU()
        (6): Linear(in_features=160, out_features=14, bias=True)
      )
      (s2): Sequential(
        (0): Linear(in_features=2007, out_features=160, bias=True)
        (1): ReLU()
        (2): Linear(in_features=160, out_features=160, bias=True)
        (3): ReLU()
        (4): Linear(in_features=160, out_features=160, bias=True)
        (5): ReLU()
        (6): Linear(in_features=160, out_features=14, bias=True)
      )
    )
    (6): PermuteRandom()
    (7): GLOWCouplingBlock(
      (s1): Sequential(
        (0): Linear(in_features=2007, out_features=160, bias=True)
        (1): ReLU()
        (2): Linear(in_features=160, out_features=160, bias=True)
        (3): ReLU()
        (4): Linear(in_features=160, out_features=160, bias=True)
        (5): ReLU()
        (6): Linear(in_features=160, out_features=14, bias=True)
      )
      (s2): Sequential(
        (0): Linear(in_features=2007, out_features=160, bias=True)
        (1): ReLU()
        (2): Linear(in_features=160, out_features=160, bias=True)
        (3): ReLU()
        (4): Linear(in_features=160, out_features=160, bias=True)
        (5): ReLU()
        (6): Linear(in_features=160, out_features=14, bias=True)
      )
    )
    (8): PermuteRandom()
    (9): GLOWCouplingBlock(
      (s1): Sequential(
        (0): Linear(in_features=2007, out_features=160, bias=True)
        (1): ReLU()
        (2): Linear(in_features=160, out_features=160, bias=True)
        (3): ReLU()
        (4): Linear(in_features=160, out_features=160, bias=True)
        (5): ReLU()
        (6): Linear(in_features=160, out_features=14, bias=True)
      )
      (s2): Sequential(
        (0): Linear(in_features=2007, out_features=160, bias=True)
        (1): ReLU()
        (2): Linear(in_features=160, out_features=160, bias=True)
        (3): ReLU()
        (4): Linear(in_features=160, out_features=160, bias=True)
        (5): ReLU()
        (6): Linear(in_features=160, out_features=14, bias=True)
      )
    )
    (10): PermuteRandom()
    (11): GLOWCouplingBlock(
      (s1): Sequential(
        (0): Linear(in_features=2007, out_features=160, bias=True)
        (1): ReLU()
        (2): Linear(in_features=160, out_features=160, bias=True)
        (3): ReLU()
        (4): Linear(in_features=160, out_features=160, bias=True)
        (5): ReLU()
        (6): Linear(in_features=160, out_features=14, bias=True)
      )
      (s2): Sequential(
        (0): Linear(in_features=2007, out_features=160, bias=True)
        (1): ReLU()
        (2): Linear(in_features=160, out_features=160, bias=True)
        (3): ReLU()
        (4): Linear(in_features=160, out_features=160, bias=True)
        (5): ReLU()
        (6): Linear(in_features=160, out_features=14, bias=True)
      )
    )
    (12): PermuteRandom()
    (13): dummy()
    (14): None
  )
)
Yang/Yang_simcouple_layer_num6labmda_mse10_lr_0.001_reg_scale_0.005
number of trainable parameters is :
4500648
Start eval now:
entering folder to predict: ../Data/Yang_sim/state_dicts/
entering: mm8.pt
entering: ensemble_plothomesr365MM_BenchcINNdatatest_Xpred_Yang_Yang_simcouple_layer_num9labmda_mse1_lr_0.001_reg_scale_0.005.csv.png
…
