…
	 Output #0 of node 'permute_1' with dims (3,)
	 conditioned on node 'node' with dims (201,)

Node 'permute_2' takes the following inputs:
	 Output #0 of node 'coupling_2' with dims (3,)

Node 'coupling_3' takes the following inputs:
	 Output #0 of node 'permute_2' with dims (3,)
	 conditioned on node 'node' with dims (201,)

Node 'permute_3' takes the following inputs:
	 Output #0 of node 'coupling_3' with dims (3,)

Node 'output' takes the following inputs:
	 Output #0 of node 'permute_3' with dims (3,)

ReversibleGraphNet(
  (module_list): ModuleList(
    (0): None
    (1): GLOWCouplingBlock(
      (s1): Sequential(
        (0): Linear(in_features=202, out_features=160, bias=True)
        (1): ReLU()
        (2): Linear(in_features=160, out_features=160, bias=True)
        (3): ReLU()
        (4): Linear(in_features=160, out_features=160, bias=True)
        (5): ReLU()
        (6): Linear(in_features=160, out_features=4, bias=True)
      )
      (s2): Sequential(
        (0): Linear(in_features=203, out_features=160, bias=True)
        (1): ReLU()
        (2): Linear(in_features=160, out_features=160, bias=True)
        (3): ReLU()
        (4): Linear(in_features=160, out_features=160, bias=True)
        (5): ReLU()
        (6): Linear(in_features=160, out_features=2, bias=True)
      )
    )
    (2): PermuteRandom()
    (3): GLOWCouplingBlock(
      (s1): Sequential(
        (0): Linear(in_features=202, out_features=160, bias=True)
        (1): ReLU()
        (2): Linear(in_features=160, out_features=160, bias=True)
        (3): ReLU()
        (4): Linear(in_features=160, out_features=160, bias=True)
        (5): ReLU()
        (6): Linear(in_features=160, out_features=4, bias=True)
      )
      (s2): Sequential(
        (0): Linear(in_features=203, out_features=160, bias=True)
        (1): ReLU()
        (2): Linear(in_features=160, out_features=160, bias=True)
        (3): ReLU()
        (4): Linear(in_features=160, out_features=160, bias=True)
        (5): ReLU()
        (6): Linear(in_features=160, out_features=2, bias=True)
      )
    )
    (4): PermuteRandom()
    (5): GLOWCouplingBlock(
      (s1): Sequential(
        (0): Linear(in_features=202, out_features=160, bias=True)
        (1): ReLU()
        (2): Linear(in_features=160, out_features=160, bias=True)
        (3): ReLU()
        (4): Linear(in_features=160, out_features=160, bias=True)
        (5): ReLU()
        (6): Linear(in_features=160, out_features=4, bias=True)
      )
      (s2): Sequential(
        (0): Linear(in_features=203, out_features=160, bias=True)
        (1): ReLU()
        (2): Linear(in_features=160, out_features=160, bias=True)
        (3): ReLU()
        (4): Linear(in_features=160, out_features=160, bias=True)
        (5): ReLU()
        (6): Linear(in_features=160, out_features=2, bias=True)
      )
    )
    (6): PermuteRandom()
    (7): GLOWCouplingBlock(
      (s1): Sequential(
        (0): Linear(in_features=202, out_features=160, bias=True)
        (1): ReLU()
        (2): Linear(in_features=160, out_features=160, bias=True)
        (3): ReLU()
        (4): Linear(in_features=160, out_features=160, bias=True)
        (5): ReLU()
        (6): Linear(in_features=160, out_features=4, bias=True)
      )
      (s2): Sequential(
        (0): Linear(in_features=203, out_features=160, bias=True)
        (1): ReLU()
        (2): Linear(in_features=160, out_features=160, bias=True)
        (3): ReLU()
        (4): Linear(in_features=160, out_features=160, bias=True)
        (5): ReLU()
        (6): Linear(in_features=160, out_features=2, bias=True)
      )
    )
    (8): PermuteRandom()
    (9): dummy()
    (10): None
  )
)
Start training now...
Starting training now
Doing Evaluation on the model now
This is Epoch 0, training loss -0.77888, validation loss -1.17709
Saving the model down...
Doing Evaluation on the model now
This is Epoch 20, training loss -4.59140, validation loss -4.33242
Saving the model down...
…
	 Output #0 of node 'permute_2' with dims (3,)
	 conditioned on node 'node' with dims (201,)

Node 'permute_3' takes the following inputs:
	 Output #0 of node 'coupling_3' with dims (3,)

Node 'coupling_4' takes the following inputs:
	 Output #0 of node 'permute_3' with dims (3,)
	 conditioned on node 'node' with dims (201,)

Node 'permute_4' takes the following inputs:
	 Output #0 of node 'coupling_4' with dims (3,)

Node 'output' takes the following inputs:
	 Output #0 of node 'permute_4' with dims (3,)

ReversibleGraphNet(
  (module_list): ModuleList(
    (0): None
    (1): GLOWCouplingBlock(
      (s1): Sequential(
        (0): Linear(in_features=202, out_features=160, bias=True)
        (1): ReLU()
        (2): Linear(in_features=160, out_features=160, bias=True)
        (3): ReLU()
        (4): Linear(in_features=160, out_features=160, bias=True)
        (5): ReLU()
        (6): Linear(in_features=160, out_features=4, bias=True)
      )
      (s2): Sequential(
        (0): Linear(in_features=203, out_features=160, bias=True)
        (1): ReLU()
        (2): Linear(in_features=160, out_features=160, bias=True)
        (3): ReLU()
        (4): Linear(in_features=160, out_features=160, bias=True)
        (5): ReLU()
        (6): Linear(in_features=160, out_features=2, bias=True)
      )
    )
    (2): PermuteRandom()
    (3): GLOWCouplingBlock(
      (s1): Sequential(
        (0): Linear(in_features=202, out_features=160, bias=True)
        (1): ReLU()
        (2): Linear(in_features=160, out_features=160, bias=True)
        (3): ReLU()
        (4): Linear(in_features=160, out_features=160, bias=True)
        (5): ReLU()
        (6): Linear(in_features=160, out_features=4, bias=True)
      )
      (s2): Sequential(
        (0): Linear(in_features=203, out_features=160, bias=True)
        (1): ReLU()
        (2): Linear(in_features=160, out_features=160, bias=True)
        (3): ReLU()
        (4): Linear(in_features=160, out_features=160, bias=True)
        (5): ReLU()
        (6): Linear(in_features=160, out_features=2, bias=True)
      )
    )
    (4): PermuteRandom()
    (5): GLOWCouplingBlock(
      (s1): Sequential(
        (0): Linear(in_features=202, out_features=160, bias=True)
        (1): ReLU()
        (2): Linear(in_features=160, out_features=160, bias=True)
        (3): ReLU()
        (4): Linear(in_features=160, out_features=160, bias=True)
        (5): ReLU()
        (6): Linear(in_features=160, out_features=4, bias=True)
      )
      (s2): Sequential(
        (0): Linear(in_features=203, out_features=160, bias=True)
        (1): ReLU()
        (2): Linear(in_features=160, out_features=160, bias=True)
        (3): ReLU()
        (4): Linear(in_features=160, out_features=160, bias=True)
        (5): ReLU()
        (6): Linear(in_features=160, out_features=2, bias=True)
      )
    )
    (6): PermuteRandom()
    (7): GLOWCouplingBlock(
      (s1): Sequential(
        (0): Linear(in_features=202, out_features=160, bias=True)
        (1): ReLU()
        (2): Linear(in_features=160, out_features=160, bias=True)
        (3): ReLU()
        (4): Linear(in_features=160, out_features=160, bias=True)
        (5): ReLU()
        (6): Linear(in_features=160, out_features=4, bias=True)
      )
      (s2): Sequential(
        (0): Linear(in_features=203, out_features=160, bias=True)
        (1): ReLU()
        (2): Linear(in_features=160, out_features=160, bias=True)
        (3): ReLU()
        (4): Linear(in_features=160, out_features=160, bias=True)
        (5): ReLU()
        (6): Linear(in_features=160, out_features=2, bias=True)
      )
    )
    (8): PermuteRandom()
    (9): GLOWCouplingBlock(
      (s1): Sequential(
        (0): Linear(in_features=202, out_features=160, bias=True)
        (1): ReLU()
        (2): Linear(in_features=160, out_features=160, bias=True)
        (3): ReLU()
        (4): Linear(in_features=160, out_features=160, bias=True)
        (5): ReLU()
        (6): Linear(in_features=160, out_features=4, bias=True)
      )
      (s2): Sequential(
        (0): Linear(in_features=203, out_features=160, bias=True)
        (1): ReLU()
        (2): Linear(in_features=160, out_features=160, bias=True)
        (3): ReLU()
        (4): Linear(in_features=160, out_features=160, bias=True)
        (5): ReLU()
        (6): Linear(in_features=160, out_features=2, bias=True)
      )
    )
    (10): PermuteRandom()
    (11): dummy()
    (12): None
  )
)
Start training now...
Starting training now
Doing Evaluation on the model now
This is Epoch 0, training loss -0.70320, validation loss -1.14474
Saving the model down...
Doing Evaluation on the model now
This is Epoch 20, training loss -2.25111, validation loss -3.70976
Saving the model down...
…
	 Output #0 of node 'permute_3' with dims (3,)
	 conditioned on node 'node' with dims (201,)

Node 'permute_4' takes the following inputs:
	 Output #0 of node 'coupling_4' with dims (3,)

Node 'coupling_5' takes the following inputs:
	 Output #0 of node 'permute_4' with dims (3,)
	 conditioned on node 'node' with dims (201,)

Node 'permute_5' takes the following inputs:
	 Output #0 of node 'coupling_5' with dims (3,)

Node 'output' takes the following inputs:
	 Output #0 of node 'permute_5' with dims (3,)

ReversibleGraphNet(
  (module_list): ModuleList(
    (0): None
    (1): GLOWCouplingBlock(
      (s1): Sequential(
        (0): Linear(in_features=202, out_features=160, bias=True)
        (1): ReLU()
        (2): Linear(in_features=160, out_features=160, bias=True)
        (3): ReLU()
        (4): Linear(in_features=160, out_features=160, bias=True)
        (5): ReLU()
        (6): Linear(in_features=160, out_features=4, bias=True)
      )
      (s2): Sequential(
        (0): Linear(in_features=203, out_features=160, bias=True)
        (1): ReLU()
        (2): Linear(in_features=160, out_features=160, bias=True)
        (3): ReLU()
        (4): Linear(in_features=160, out_features=160, bias=True)
        (5): ReLU()
        (6): Linear(in_features=160, out_features=2, bias=True)
      )
    )
    (2): PermuteRandom()
    (3): GLOWCouplingBlock(
      (s1): Sequential(
        (0): Linear(in_features=202, out_features=160, bias=True)
        (1): ReLU()
        (2): Linear(in_features=160, out_features=160, bias=True)
        (3): ReLU()
        (4): Linear(in_features=160, out_features=160, bias=True)
        (5): ReLU()
        (6): Linear(in_features=160, out_features=4, bias=True)
      )
      (s2): Sequential(
        (0): Linear(in_features=203, out_features=160, bias=True)
        (1): ReLU()
        (2): Linear(in_features=160, out_features=160, bias=True)
        (3): ReLU()
        (4): Linear(in_features=160, out_features=160, bias=True)
        (5): ReLU()
        (6): Linear(in_features=160, out_features=2, bias=True)
      )
    )
    (4): PermuteRandom()
    (5): GLOWCouplingBlock(
      (s1): Sequential(
        (0): Linear(in_features=202, out_features=160, bias=True)
        (1): ReLU()
        (2): Linear(in_features=160, out_features=160, bias=True)
        (3): ReLU()
        (4): Linear(in_features=160, out_features=160, bias=True)
        (5): ReLU()
        (6): Linear(in_features=160, out_features=4, bias=True)
      )
      (s2): Sequential(
        (0): Linear(in_features=203, out_features=160, bias=True)
        (1): ReLU()
        (2): Linear(in_features=160, out_features=160, bias=True)
        (3): ReLU()
        (4): Linear(in_features=160, out_features=160, bias=True)
        (5): ReLU()
        (6): Linear(in_features=160, out_features=2, bias=True)
      )
    )
    (6): PermuteRandom()
    (7): GLOWCouplingBlock(
      (s1): Sequential(
        (0): Linear(in_features=202, out_features=160, bias=True)
        (1): ReLU()
        (2): Linear(in_features=160, out_features=160, bias=True)
        (3): ReLU()
        (4): Linear(in_features=160, out_features=160, bias=True)
        (5): ReLU()
        (6): Linear(in_features=160, out_features=4, bias=True)
      )
      (s2): Sequential(
        (0): Linear(in_features=203, out_features=160, bias=True)
        (1): ReLU()
        (2): Linear(in_features=160, out_features=160, bias=True)
        (3): ReLU()
        (4): Linear(in_features=160, out_features=160, bias=True)
        (5): ReLU()
        (6): Linear(in_features=160, out_features=2, bias=True)
      )
    )
    (8): PermuteRandom()
    (9): GLOWCouplingBlock(
      (s1): Sequential(
        (0): Linear(in_features=202, out_features=160, bias=True)
        (1): ReLU()
        (2): Linear(in_features=160, out_features=160, bias=True)
        (3): ReLU()
        (4): Linear(in_features=160, out_features=160, bias=True)
        (5): ReLU()
        (6): Linear(in_features=160, out_features=4, bias=True)
      )
      (s2): Sequential(
        (0): Linear(in_features=203, out_features=160, bias=True)
        (1): ReLU()
        (2): Linear(in_features=160, out_features=160, bias=True)
        (3): ReLU()
        (4): Linear(in_features=160, out_features=160, bias=True)
        (5): ReLU()
        (6): Linear(in_features=160, out_features=2, bias=True)
      )
    )
    (10): PermuteRandom()
    (11): GLOWCouplingBlock(
      (s1): Sequential(
        (0): Linear(in_features=202, out_features=160, bias=True)
        (1): ReLU()
        (2): Linear(in_features=160, out_features=160, bias=True)
        (3): ReLU()
        (4): Linear(in_features=160, out_features=160, bias=True)
        (5): ReLU()
        (6): Linear(in_features=160, out_features=4, bias=True)
      )
      (s2): Sequential(
        (0): Linear(in_features=203, out_features=160, bias=True)
        (1): ReLU()
        (2): Linear(in_features=160, out_features=160, bias=True)
        (3): ReLU()
        (4): Linear(in_features=160, out_features=160, bias=True)
        (5): ReLU()
        (6): Linear(in_features=160, out_features=2, bias=True)
      )
    )
    (12): PermuteRandom()
    (13): dummy()
    (14): None
  )
)
Start training now...
Starting training now
Doing Evaluation on the model now
This is Epoch 0, training loss -0.63663, validation loss -1.17816
Saving the model down...
Doing Evaluation on the model now
This is Epoch 20, training loss -4.11594, validation loss -3.50600
Saving the model down...
…
	 Output #0 of node 'permute_4' with dims (3,)
	 conditioned on node 'node' with dims (201,)

Node 'permute_5' takes the following inputs:
	 Output #0 of node 'coupling_5' with dims (3,)

Node 'coupling_6' takes the following inputs:
	 Output #0 of node 'permute_5' with dims (3,)
	 conditioned on node 'node' with dims (201,)

Node 'permute_6' takes the following inputs:
	 Output #0 of node 'coupling_6' with dims (3,)

Node 'output' takes the following inputs:
	 Output #0 of node 'permute_6' with dims (3,)

ReversibleGraphNet(
  (module_list): ModuleList(
    (0): None
    (1): GLOWCouplingBlock(
      (s1): Sequential(
        (0): Linear(in_features=202, out_features=160, bias=True)
        (1): ReLU()
        (2): Linear(in_features=160, out_features=160, bias=True)
        (3): ReLU()
        (4): Linear(in_features=160, out_features=160, bias=True)
        (5): ReLU()
        (6): Linear(in_features=160, out_features=4, bias=True)
      )
      (s2): Sequential(
        (0): Linear(in_features=203, out_features=160, bias=True)
        (1): ReLU()
        (2): Linear(in_features=160, out_features=160, bias=True)
        (3): ReLU()
        (4): Linear(in_features=160, out_features=160, bias=True)
        (5): ReLU()
        (6): Linear(in_features=160, out_features=2, bias=True)
      )
    )
    (2): PermuteRandom()
    (3): GLOWCouplingBlock(
      (s1): Sequential(
        (0): Linear(in_features=202, out_features=160, bias=True)
        (1): ReLU()
        (2): Linear(in_features=160, out_features=160, bias=True)
        (3): ReLU()
        (4): Linear(in_features=160, out_features=160, bias=True)
        (5): ReLU()
        (6): Linear(in_features=160, out_features=4, bias=True)
      )
      (s2): Sequential(
        (0): Linear(in_features=203, out_features=160, bias=True)
        (1): ReLU()
        (2): Linear(in_features=160, out_features=160, bias=True)
        (3): ReLU()
        (4): Linear(in_features=160, out_features=160, bias=True)
        (5): ReLU()
        (6): Linear(in_features=160, out_features=2, bias=True)
      )
    )
    (4): PermuteRandom()
    (5): GLOWCouplingBlock(
      (s1): Sequential(
        (0): Linear(in_features=202, out_features=160, bias=True)
        (1): ReLU()
        (2): Linear(in_features=160, out_features=160, bias=True)
        (3): ReLU()
        (4): Linear(in_features=160, out_features=160, bias=True)
        (5): ReLU()
        (6): Linear(in_features=160, out_features=4, bias=True)
      )
      (s2): Sequential(
        (0): Linear(in_features=203, out_features=160, bias=True)
        (1): ReLU()
        (2): Linear(in_features=160, out_features=160, bias=True)
        (3): ReLU()
        (4): Linear(in_features=160, out_features=160, bias=True)
        (5): ReLU()
        (6): Linear(in_features=160, out_features=2, bias=True)
      )
    )
    (6): PermuteRandom()
    (7): GLOWCouplingBlock(
      (s1): Sequential(
        (0): Linear(in_features=202, out_features=160, bias=True)
        (1): ReLU()
        (2): Linear(in_features=160, out_features=160, bias=True)
        (3): ReLU()
        (4): Linear(in_features=160, out_features=160, bias=True)
        (5): ReLU()
        (6): Linear(in_features=160, out_features=4, bias=True)
      )
      (s2): Sequential(
        (0): Linear(in_features=203, out_features=160, bias=True)
        (1): ReLU()
        (2): Linear(in_features=160, out_features=160, bias=True)
        (3): ReLU()
        (4): Linear(in_features=160, out_features=160, bias=True)
        (5): ReLU()
        (6): Linear(in_features=160, out_features=2, bias=True)
      )
    )
    (8): PermuteRandom()
    (9): GLOWCouplingBlock(
      (s1): Sequential(
        (0): Linear(in_features=202, out_features=160, bias=True)
        (1): ReLU()
        (2): Linear(in_features=160, out_features=160, bias=True)
        (3): ReLU()
        (4): Linear(in_features=160, out_features=160, bias=True)
        (5): ReLU()
        (6): Linear(in_features=160, out_features=4, bias=True)
      )
      (s2): Sequential(
        (0): Linear(in_features=203, out_features=160, bias=True)
        (1): ReLU()
        (2): Linear(in_features=160, out_features=160, bias=True)
        (3): ReLU()
        (4): Linear(in_features=160, out_features=160, bias=True)
        (5): ReLU()
        (6): Linear(in_features=160, out_features=2, bias=True)
      )
    )
    (10): PermuteRandom()
    (11): GLOWCouplingBlock(
      (s1): Sequential(
        (0): Linear(in_features=202, out_features=160, bias=True)
        (1): ReLU()
        (2): Linear(in_features=160, out_features=160, bias=True)
        (3): ReLU()
        (4): Linear(in_features=160, out_features=160, bias=True)
        (5): ReLU()
        (6): Linear(in_features=160, out_features=4, bias=True)
      )
      (s2): Sequential(
        (0): Linear(in_features=203, out_features=160, bias=True)
        (1): ReLU()
        (2): Linear(in_features=160, out_features=160, bias=True)
        (3): ReLU()
        (4): Linear(in_features=160, out_features=160, bias=True)
        (5): ReLU()
        (6): Linear(in_features=160, out_features=2, bias=True)
      )
    )
    (12): PermuteRandom()
    (13): GLOWCouplingBlock(
      (s1): Sequential(
        (0): Linear(in_features=202, out_features=160, bias=True)
        (1): ReLU()
        (2): Linear(in_features=160, out_features=160, bias=True)
        (3): ReLU()
        (4): Linear(in_features=160, out_features=160, bias=True)
        (5): ReLU()
        (6): Linear(in_features=160, out_features=4, bias=True)
      )
      (s2): Sequential(
        (0): Linear(in_features=203, out_features=160, bias=True)
        (1): ReLU()
        (2): Linear(in_features=160, out_features=160, bias=True)
        (3): ReLU()
        (4): Linear(in_features=160, out_features=160, bias=True)
        (5): ReLU()
        (6): Linear(in_features=160, out_features=2, bias=True)
      )
    )
    (14): PermuteRandom()
    (15): dummy()
    (16): None
  )
)
Start training now...
Starting training now
Doing Evaluation on the model now
This is Epoch 0, training loss -0.63543, validation loss -1.26790
Saving the model down...
Doing Evaluation on the model now
This is Epoch 20, training loss -4.53078, validation loss -4.35168
Saving the model down...
…
	 Output #0 of node 'permute_5' with dims (3,)
	 conditioned on node 'node' with dims (201,)

Node 'permute_6' takes the following inputs:
	 Output #0 of node 'coupling_6' with dims (3,)

Node 'coupling_7' takes the following inputs:
	 Output #0 of node 'permute_6' with dims (3,)
	 conditioned on node 'node' with dims (201,)

Node 'permute_7' takes the following inputs:
	 Output #0 of node 'coupling_7' with dims (3,)

Node 'output' takes the following inputs:
	 Output #0 of node 'permute_7' with dims (3,)

ReversibleGraphNet(
  (module_list): ModuleList(
    (0): None
    (1): GLOWCouplingBlock(
      (s1): Sequential(
        (0): Linear(in_features=202, out_features=160, bias=True)
        (1): ReLU()
        (2): Linear(in_features=160, out_features=160, bias=True)
        (3): ReLU()
        (4): Linear(in_features=160, out_features=160, bias=True)
        (5): ReLU()
        (6): Linear(in_features=160, out_features=4, bias=True)
      )
      (s2): Sequential(
        (0): Linear(in_features=203, out_features=160, bias=True)
        (1): ReLU()
        (2): Linear(in_features=160, out_features=160, bias=True)
        (3): ReLU()
        (4): Linear(in_features=160, out_features=160, bias=True)
        (5): ReLU()
        (6): Linear(in_features=160, out_features=2, bias=True)
      )
    )
    (2): PermuteRandom()
    (3): GLOWCouplingBlock(
      (s1): Sequential(
        (0): Linear(in_features=202, out_features=160, bias=True)
        (1): ReLU()
        (2): Linear(in_features=160, out_features=160, bias=True)
        (3): ReLU()
        (4): Linear(in_features=160, out_features=160, bias=True)
        (5): ReLU()
        (6): Linear(in_features=160, out_features=4, bias=True)
      )
      (s2): Sequential(
        (0): Linear(in_features=203, out_features=160, bias=True)
        (1): ReLU()
        (2): Linear(in_features=160, out_features=160, bias=True)
        (3): ReLU()
        (4): Linear(in_features=160, out_features=160, bias=True)
        (5): ReLU()
        (6): Linear(in_features=160, out_features=2, bias=True)
      )
    )
    (4): PermuteRandom()
    (5): GLOWCouplingBlock(
      (s1): Sequential(
        (0): Linear(in_features=202, out_features=160, bias=True)
        (1): ReLU()
        (2): Linear(in_features=160, out_features=160, bias=True)
        (3): ReLU()
        (4): Linear(in_features=160, out_features=160, bias=True)
        (5): ReLU()
        (6): Linear(in_features=160, out_features=4, bias=True)
      )
      (s2): Sequential(
        (0): Linear(in_features=203, out_features=160, bias=True)
        (1): ReLU()
        (2): Linear(in_features=160, out_features=160, bias=True)
        (3): ReLU()
        (4): Linear(in_features=160, out_features=160, bias=True)
        (5): ReLU()
        (6): Linear(in_features=160, out_features=2, bias=True)
      )
    )
    (6): PermuteRandom()
    (7): GLOWCouplingBlock(
      (s1): Sequential(
        (0): Linear(in_features=202, out_features=160, bias=True)
        (1): ReLU()
        (2): Linear(in_features=160, out_features=160, bias=True)
        (3): ReLU()
        (4): Linear(in_features=160, out_features=160, bias=True)
        (5): ReLU()
        (6): Linear(in_features=160, out_features=4, bias=True)
      )
      (s2): Sequential(
        (0): Linear(in_features=203, out_features=160, bias=True)
        (1): ReLU()
        (2): Linear(in_features=160, out_features=160, bias=True)
        (3): ReLU()
        (4): Linear(in_features=160, out_features=160, bias=True)
        (5): ReLU()
        (6): Linear(in_features=160, out_features=2, bias=True)
      )
    )
    (8): PermuteRandom()
    (9): GLOWCouplingBlock(
      (s1): Sequential(
        (0): Linear(in_features=202, out_features=160, bias=True)
        (1): ReLU()
        (2): Linear(in_features=160, out_features=160, bias=True)
        (3): ReLU()
        (4): Linear(in_features=160, out_features=160, bias=True)
        (5): ReLU()
        (6): Linear(in_features=160, out_features=4, bias=True)
      )
      (s2): Sequential(
        (0): Linear(in_features=203, out_features=160, bias=True)
        (1): ReLU()
        (2): Linear(in_features=160, out_features=160, bias=True)
        (3): ReLU()
        (4): Linear(in_features=160, out_features=160, bias=True)
        (5): ReLU()
        (6): Linear(in_features=160, out_features=2, bias=True)
      )
    )
    (10): PermuteRandom()
    (11): GLOWCouplingBlock(
      (s1): Sequential(
        (0): Linear(in_features=202, out_features=160, bias=True)
        (1): ReLU()
        (2): Linear(in_features=160, out_features=160, bias=True)
        (3): ReLU()
        (4): Linear(in_features=160, out_features=160, bias=True)
        (5): ReLU()
        (6): Linear(in_features=160, out_features=4, bias=True)
      )
      (s2): Sequential(
        (0): Linear(in_features=203, out_features=160, bias=True)
        (1): ReLU()
        (2): Linear(in_features=160, out_features=160, bias=True)
        (3): ReLU()
        (4): Linear(in_features=160, out_features=160, bias=True)
        (5): ReLU()
        (6): Linear(in_features=160, out_features=2, bias=True)
      )
    )
    (12): PermuteRandom()
    (13): GLOWCouplingBlock(
      (s1): Sequential(
        (0): Linear(in_features=202, out_features=160, bias=True)
        (1): ReLU()
        (2): Linear(in_features=160, out_features=160, bias=True)
        (3): ReLU()
        (4): Linear(in_features=160, out_features=160, bias=True)
        (5): ReLU()
        (6): Linear(in_features=160, out_features=4, bias=True)
      )
      (s2): Sequential(
        (0): Linear(in_features=203, out_features=160, bias=True)
        (1): ReLU()
        (2): Linear(in_features=160, out_features=160, bias=True)
        (3): ReLU()
        (4): Linear(in_features=160, out_features=160, bias=True)
        (5): ReLU()
        (6): Linear(in_features=160, out_features=2, bias=True)
      )
    )
    (14): PermuteRandom()
    (15): GLOWCouplingBlock(
      (s1): Sequential(
        (0): Linear(in_features=202, out_features=160, bias=True)
        (1): ReLU()
        (2): Linear(in_features=160, out_features=160, bias=True)
        (3): ReLU()
        (4): Linear(in_features=160, out_features=160, bias=True)
        (5): ReLU()
        (6): Linear(in_features=160, out_features=4, bias=True)
      )
      (s2): Sequential(
        (0): Linear(in_features=203, out_features=160, bias=True)
        (1): ReLU()
        (2): Linear(in_features=160, out_features=160, bias=True)
        (3): ReLU()
        (4): Linear(in_features=160, out_features=160, bias=True)
        (5): ReLU()
        (6): Linear(in_features=160, out_features=2, bias=True)
      )
    )
    (16): PermuteRandom()
    (17): dummy()
    (18): None
  )
)
Start training now...
Starting training now
Doing Evaluation on the model now
This is Epoch 0, training loss -0.53362, validation loss -1.18600
Saving the model down...
Doing Evaluation on the model now
This is Epoch 20, training loss -3.95782, validation loss -4.52670
Saving the model down...
…
	 Output #0 of node 'permute_6' with dims (3,)
	 conditioned on node 'node' with dims (201,)

Node 'permute_7' takes the following inputs:
	 Output #0 of node 'coupling_7' with dims (3,)

Node 'coupling_8' takes the following inputs:
	 Output #0 of node 'permute_7' with dims (3,)
	 conditioned on node 'node' with dims (201,)

Node 'permute_8' takes the following inputs:
	 Output #0 of node 'coupling_8' with dims (3,)

Node 'output' takes the following inputs:
	 Output #0 of node 'permute_8' with dims (3,)

ReversibleGraphNet(
  (module_list): ModuleList(
    (0): None
    (1): GLOWCouplingBlock(
      (s1): Sequential(
        (0): Linear(in_features=202, out_features=160, bias=True)
        (1): ReLU()
        (2): Linear(in_features=160, out_features=160, bias=True)
        (3): ReLU()
        (4): Linear(in_features=160, out_features=160, bias=True)
        (5): ReLU()
        (6): Linear(in_features=160, out_features=4, bias=True)
      )
      (s2): Sequential(
        (0): Linear(in_features=203, out_features=160, bias=True)
        (1): ReLU()
        (2): Linear(in_features=160, out_features=160, bias=True)
        (3): ReLU()
        (4): Linear(in_features=160, out_features=160, bias=True)
        (5): ReLU()
        (6): Linear(in_features=160, out_features=2, bias=True)
      )
    )
    (2): PermuteRandom()
    (3): GLOWCouplingBlock(
      (s1): Sequential(
        (0): Linear(in_features=202, out_features=160, bias=True)
        (1): ReLU()
        (2): Linear(in_features=160, out_features=160, bias=True)
        (3): ReLU()
        (4): Linear(in_features=160, out_features=160, bias=True)
        (5): ReLU()
        (6): Linear(in_features=160, out_features=4, bias=True)
      )
      (s2): Sequential(
        (0): Linear(in_features=203, out_features=160, bias=True)
        (1): ReLU()
        (2): Linear(in_features=160, out_features=160, bias=True)
        (3): ReLU()
        (4): Linear(in_features=160, out_features=160, bias=True)
        (5): ReLU()
        (6): Linear(in_features=160, out_features=2, bias=True)
      )
    )
    (4): PermuteRandom()
    (5): GLOWCouplingBlock(
      (s1): Sequential(
        (0): Linear(in_features=202, out_features=160, bias=True)
        (1): ReLU()
        (2): Linear(in_features=160, out_features=160, bias=True)
        (3): ReLU()
        (4): Linear(in_features=160, out_features=160, bias=True)
        (5): ReLU()
        (6): Linear(in_features=160, out_features=4, bias=True)
      )
      (s2): Sequential(
        (0): Linear(in_features=203, out_features=160, bias=True)
        (1): ReLU()
        (2): Linear(in_features=160, out_features=160, bias=True)
        (3): ReLU()
        (4): Linear(in_features=160, out_features=160, bias=True)
        (5): ReLU()
        (6): Linear(in_features=160, out_features=2, bias=True)
      )
    )
    (6): PermuteRandom()
    (7): GLOWCouplingBlock(
      (s1): Sequential(
        (0): Linear(in_features=202, out_features=160, bias=True)
        (1): ReLU()
        (2): Linear(in_features=160, out_features=160, bias=True)
        (3): ReLU()
        (4): Linear(in_features=160, out_features=160, bias=True)
        (5): ReLU()
        (6): Linear(in_features=160, out_features=4, bias=True)
      )
      (s2): Sequential(
        (0): Linear(in_features=203, out_features=160, bias=True)
        (1): ReLU()
        (2): Linear(in_features=160, out_features=160, bias=True)
        (3): ReLU()
        (4): Linear(in_features=160, out_features=160, bias=True)
        (5): ReLU()
        (6): Linear(in_features=160, out_features=2, bias=True)
      )
    )
    (8): PermuteRandom()
    (9): GLOWCouplingBlock(
      (s1): Sequential(
        (0): Linear(in_features=202, out_features=160, bias=True)
        (1): ReLU()
        (2): Linear(in_features=160, out_features=160, bias=True)
        (3): ReLU()
        (4): Linear(in_features=160, out_features=160, bias=True)
        (5): ReLU()
        (6): Linear(in_features=160, out_features=4, bias=True)
      )
      (s2): Sequential(
        (0): Linear(in_features=203, out_features=160, bias=True)
        (1): ReLU()
        (2): Linear(in_features=160, out_features=160, bias=True)
        (3): ReLU()
        (4): Linear(in_features=160, out_features=160, bias=True)
        (5): ReLU()
        (6): Linear(in_features=160, out_features=2, bias=True)
      )
    )
    (10): PermuteRandom()
    (11): GLOWCouplingBlock(
      (s1): Sequential(
        (0): Linear(in_features=202, out_features=160, bias=True)
        (1): ReLU()
        (2): Linear(in_features=160, out_features=160, bias=True)
        (3): ReLU()
        (4): Linear(in_features=160, out_features=160, bias=True)
        (5): ReLU()
        (6): Linear(in_features=160, out_features=4, bias=True)
      )
      (s2): Sequential(
        (0): Linear(in_features=203, out_features=160, bias=True)
        (1): ReLU()
        (2): Linear(in_features=160, out_features=160, bias=True)
        (3): ReLU()
        (4): Linear(in_features=160, out_features=160, bias=True)
        (5): ReLU()
        (6): Linear(in_features=160, out_features=2, bias=True)
      )
    )
    (12): PermuteRandom()
    (13): GLOWCouplingBlock(
      (s1): Sequential(
        (0): Linear(in_features=202, out_features=160, bias=True)
        (1): ReLU()
        (2): Linear(in_features=160, out_features=160, bias=True)
        (3): ReLU()
        (4): Linear(in_features=160, out_features=160, bias=True)
        (5): ReLU()
        (6): Linear(in_features=160, out_features=4, bias=True)
      )
      (s2): Sequential(
        (0): Linear(in_features=203, out_features=160, bias=True)
        (1): ReLU()
        (2): Linear(in_features=160, out_features=160, bias=True)
        (3): ReLU()
        (4): Linear(in_features=160, out_features=160, bias=True)
        (5): ReLU()
        (6): Linear(in_features=160, out_features=2, bias=True)
      )
    )
    (14): PermuteRandom()
    (15): GLOWCouplingBlock(
      (s1): Sequential(
        (0): Linear(in_features=202, out_features=160, bias=True)
        (1): ReLU()
        (2): Linear(in_features=160, out_features=160, bias=True)
        (3): ReLU()
        (4): Linear(in_features=160, out_features=160, bias=True)
        (5): ReLU()
        (6): Linear(in_features=160, out_features=4, bias=True)
      )
      (s2): Sequential(
        (0): Linear(in_features=203, out_features=160, bias=True)
        (1): ReLU()
        (2): Linear(in_features=160, out_features=160, bias=True)
        (3): ReLU()
        (4): Linear(in_features=160, out_features=160, bias=True)
        (5): ReLU()
        (6): Linear(in_features=160, out_features=2, bias=True)
      )
    )
    (16): PermuteRandom()
    (17): GLOWCouplingBlock(
      (s1): Sequential(
        (0): Linear(in_features=202, out_features=160, bias=True)
        (1): ReLU()
        (2): Linear(in_features=160, out_features=160, bias=True)
        (3): ReLU()
        (4): Linear(in_features=160, out_features=160, bias=True)
        (5): ReLU()
        (6): Linear(in_features=160, out_features=4, bias=True)
      )
      (s2): Sequential(
        (0): Linear(in_features=203, out_features=160, bias=True)
        (1): ReLU()
        (2): Linear(in_features=160, out_features=160, bias=True)
        (3): ReLU()
        (4): Linear(in_features=160, out_features=160, bias=True)
        (5): ReLU()
        (6): Linear(in_features=160, out_features=2, bias=True)
      )
    )
    (18): PermuteRandom()
    (19): dummy()
    (20): None
  )
)
Start training now...
Starting training now
Doing Evaluation on the model now
This is Epoch 0, training loss -0.47862, validation loss -1.16697
Saving the model down...
Doing Evaluation on the model now
This is Epoch 20, training loss -2.90473, validation loss 1.35339
Doing Evaluation on the model now
…
