…
	 Output #0 of node 'permute_6' with dims (14,)
	 conditioned on node 'node' with dims (2000,)

Node 'permute_7' takes the following inputs:
	 Output #0 of node 'coupling_7' with dims (14,)

Node 'coupling_8' takes the following inputs:
	 Output #0 of node 'permute_7' with dims (14,)
	 conditioned on node 'node' with dims (2000,)

Node 'permute_8' takes the following inputs:
	 Output #0 of node 'coupling_8' with dims (14,)

Node 'output' takes the following inputs:
	 Output #0 of node 'permute_8' with dims (14,)

ReversibleGraphNet(
  (module_list): ModuleList(
    (0): None
    (1): GLOWCouplingBlock(
      (s1): Sequential(
        (0): Linear(in_features=2007, out_features=160, bias=True)
        (1): ReLU()
        (2): Linear(in_features=160, out_features=160, bias=True)
        (3): ReLU()
        (4): Linear(in_features=160, out_features=160, bias=True)
        (5): ReLU()
        (6): Linear(in_features=160, out_features=14, bias=True)
      )
      (s2): Sequential(
        (0): Linear(in_features=2007, out_features=160, bias=True)
        (1): ReLU()
        (2): Linear(in_features=160, out_features=160, bias=True)
        (3): ReLU()
        (4): Linear(in_features=160, out_features=160, bias=True)
        (5): ReLU()
        (6): Linear(in_features=160, out_features=14, bias=True)
      )
    )
    (2): PermuteRandom()
    (3): GLOWCouplingBlock(
      (s1): Sequential(
        (0): Linear(in_features=2007, out_features=160, bias=True)
        (1): ReLU()
        (2): Linear(in_features=160, out_features=160, bias=True)
        (3): ReLU()
        (4): Linear(in_features=160, out_features=160, bias=True)
        (5): ReLU()
        (6): Linear(in_features=160, out_features=14, bias=True)
      )
      (s2): Sequential(
        (0): Linear(in_features=2007, out_features=160, bias=True)
        (1): ReLU()
        (2): Linear(in_features=160, out_features=160, bias=True)
        (3): ReLU()
        (4): Linear(in_features=160, out_features=160, bias=True)
        (5): ReLU()
        (6): Linear(in_features=160, out_features=14, bias=True)
      )
    )
    (4): PermuteRandom()
    (5): GLOWCouplingBlock(
      (s1): Sequential(
        (0): Linear(in_features=2007, out_features=160, bias=True)
        (1): ReLU()
        (2): Linear(in_features=160, out_features=160, bias=True)
        (3): ReLU()
        (4): Linear(in_features=160, out_features=160, bias=True)
        (5): ReLU()
        (6): Linear(in_features=160, out_features=14, bias=True)
      )
      (s2): Sequential(
        (0): Linear(in_features=2007, out_features=160, bias=True)
        (1): ReLU()
        (2): Linear(in_features=160, out_features=160, bias=True)
        (3): ReLU()
        (4): Linear(in_features=160, out_features=160, bias=True)
        (5): ReLU()
        (6): Linear(in_features=160, out_features=14, bias=True)
      )
    )
    (6): PermuteRandom()
    (7): GLOWCouplingBlock(
      (s1): Sequential(
        (0): Linear(in_features=2007, out_features=160, bias=True)
        (1): ReLU()
        (2): Linear(in_features=160, out_features=160, bias=True)
        (3): ReLU()
        (4): Linear(in_features=160, out_features=160, bias=True)
        (5): ReLU()
        (6): Linear(in_features=160, out_features=14, bias=True)
      )
      (s2): Sequential(
        (0): Linear(in_features=2007, out_features=160, bias=True)
        (1): ReLU()
        (2): Linear(in_features=160, out_features=160, bias=True)
        (3): ReLU()
        (4): Linear(in_features=160, out_features=160, bias=True)
        (5): ReLU()
        (6): Linear(in_features=160, out_features=14, bias=True)
      )
    )
    (8): PermuteRandom()
    (9): GLOWCouplingBlock(
      (s1): Sequential(
        (0): Linear(in_features=2007, out_features=160, bias=True)
        (1): ReLU()
        (2): Linear(in_features=160, out_features=160, bias=True)
        (3): ReLU()
        (4): Linear(in_features=160, out_features=160, bias=True)
        (5): ReLU()
        (6): Linear(in_features=160, out_features=14, bias=True)
      )
      (s2): Sequential(
        (0): Linear(in_features=2007, out_features=160, bias=True)
        (1): ReLU()
        (2): Linear(in_features=160, out_features=160, bias=True)
        (3): ReLU()
        (4): Linear(in_features=160, out_features=160, bias=True)
        (5): ReLU()
        (6): Linear(in_features=160, out_features=14, bias=True)
      )
    )
    (10): PermuteRandom()
    (11): GLOWCouplingBlock(
      (s1): Sequential(
        (0): Linear(in_features=2007, out_features=160, bias=True)
        (1): ReLU()
        (2): Linear(in_features=160, out_features=160, bias=True)
        (3): ReLU()
        (4): Linear(in_features=160, out_features=160, bias=True)
        (5): ReLU()
        (6): Linear(in_features=160, out_features=14, bias=True)
      )
      (s2): Sequential(
        (0): Linear(in_features=2007, out_features=160, bias=True)
        (1): ReLU()
        (2): Linear(in_features=160, out_features=160, bias=True)
        (3): ReLU()
        (4): Linear(in_features=160, out_features=160, bias=True)
        (5): ReLU()
        (6): Linear(in_features=160, out_features=14, bias=True)
      )
    )
    (12): PermuteRandom()
    (13): GLOWCouplingBlock(
      (s1): Sequential(
        (0): Linear(in_features=2007, out_features=160, bias=True)
        (1): ReLU()
        (2): Linear(in_features=160, out_features=160, bias=True)
        (3): ReLU()
        (4): Linear(in_features=160, out_features=160, bias=True)
        (5): ReLU()
        (6): Linear(in_features=160, out_features=14, bias=True)
      )
      (s2): Sequential(
        (0): Linear(in_features=2007, out_features=160, bias=True)
        (1): ReLU()
        (2): Linear(in_features=160, out_features=160, bias=True)
        (3): ReLU()
        (4): Linear(in_features=160, out_features=160, bias=True)
        (5): ReLU()
        (6): Linear(in_features=160, out_features=14, bias=True)
      )
    )
    (14): PermuteRandom()
    (15): GLOWCouplingBlock(
      (s1): Sequential(
        (0): Linear(in_features=2007, out_features=160, bias=True)
        (1): ReLU()
        (2): Linear(in_features=160, out_features=160, bias=True)
        (3): ReLU()
        (4): Linear(in_features=160, out_features=160, bias=True)
        (5): ReLU()
        (6): Linear(in_features=160, out_features=14, bias=True)
      )
      (s2): Sequential(
        (0): Linear(in_features=2007, out_features=160, bias=True)
        (1): ReLU()
        (2): Linear(in_features=160, out_features=160, bias=True)
        (3): ReLU()
        (4): Linear(in_features=160, out_features=160, bias=True)
        (5): ReLU()
        (6): Linear(in_features=160, out_features=14, bias=True)
      )
    )
    (16): PermuteRandom()
    (17): GLOWCouplingBlock(
      (s1): Sequential(
        (0): Linear(in_features=2007, out_features=160, bias=True)
        (1): ReLU()
        (2): Linear(in_features=160, out_features=160, bias=True)
        (3): ReLU()
        (4): Linear(in_features=160, out_features=160, bias=True)
        (5): ReLU()
        (6): Linear(in_features=160, out_features=14, bias=True)
      )
      (s2): Sequential(
        (0): Linear(in_features=2007, out_features=160, bias=True)
        (1): ReLU()
        (2): Linear(in_features=160, out_features=160, bias=True)
        (3): ReLU()
        (4): Linear(in_features=160, out_features=160, bias=True)
        (5): ReLU()
        (6): Linear(in_features=160, out_features=14, bias=True)
      )
    )
    (18): PermuteRandom()
    (19): dummy()
    (20): None
  )
)