…
	 Output #0 of node 'permute_10' with dims (4,)
	 conditioned on node 'node' with dims (1,)

Node 'permute_11' takes the following inputs:
	 Output #0 of node 'coupling_11' with dims (4,)

Node 'coupling_12' takes the following inputs:
	 Output #0 of node 'permute_11' with dims (4,)
	 conditioned on node 'node' with dims (1,)

Node 'permute_12' takes the following inputs:
	 Output #0 of node 'coupling_12' with dims (4,)

Node 'output' takes the following inputs:
	 Output #0 of node 'permute_12' with dims (4,)

ReversibleGraphNet(
  (module_list): ModuleList(
    (0): None
    (1): GLOWCouplingBlock(
      (s1): Sequential(
        (0): Linear(in_features=3, out_features=160, bias=True)
        (1): ReLU()
        (2): Linear(in_features=160, out_features=160, bias=True)
        (3): ReLU()
        (4): Linear(in_features=160, out_features=160, bias=True)
        (5): ReLU()
        (6): Linear(in_features=160, out_features=4, bias=True)
      )
      (s2): Sequential(
        (0): Linear(in_features=3, out_features=160, bias=True)
        (1): ReLU()
        (2): Linear(in_features=160, out_features=160, bias=True)
        (3): ReLU()
        (4): Linear(in_features=160, out_features=160, bias=True)
        (5): ReLU()
        (6): Linear(in_features=160, out_features=4, bias=True)
      )
    )
    (2): PermuteRandom()
    (3): GLOWCouplingBlock(
      (s1): Sequential(
        (0): Linear(in_features=3, out_features=160, bias=True)
        (1): ReLU()
        (2): Linear(in_features=160, out_features=160, bias=True)
        (3): ReLU()
        (4): Linear(in_features=160, out_features=160, bias=True)
        (5): ReLU()
        (6): Linear(in_features=160, out_features=4, bias=True)
      )
      (s2): Sequential(
        (0): Linear(in_features=3, out_features=160, bias=True)
        (1): ReLU()
        (2): Linear(in_features=160, out_features=160, bias=True)
        (3): ReLU()
        (4): Linear(in_features=160, out_features=160, bias=True)
        (5): ReLU()
        (6): Linear(in_features=160, out_features=4, bias=True)
      )
    )
    (4): PermuteRandom()
    (5): GLOWCouplingBlock(
      (s1): Sequential(
        (0): Linear(in_features=3, out_features=160, bias=True)
        (1): ReLU()
        (2): Linear(in_features=160, out_features=160, bias=True)
        (3): ReLU()
        (4): Linear(in_features=160, out_features=160, bias=True)
        (5): ReLU()
        (6): Linear(in_features=160, out_features=4, bias=True)
      )
      (s2): Sequential(
        (0): Linear(in_features=3, out_features=160, bias=True)
        (1): ReLU()
        (2): Linear(in_features=160, out_features=160, bias=True)
        (3): ReLU()
        (4): Linear(in_features=160, out_features=160, bias=True)
        (5): ReLU()
        (6): Linear(in_features=160, out_features=4, bias=True)
      )
    )
    (6): PermuteRandom()
    (7): GLOWCouplingBlock(
      (s1): Sequential(
        (0): Linear(in_features=3, out_features=160, bias=True)
        (1): ReLU()
        (2): Linear(in_features=160, out_features=160, bias=True)
        (3): ReLU()
        (4): Linear(in_features=160, out_features=160, bias=True)
        (5): ReLU()
        (6): Linear(in_features=160, out_features=4, bias=True)
      )
      (s2): Sequential(
        (0): Linear(in_features=3, out_features=160, bias=True)
        (1): ReLU()
        (2): Linear(in_features=160, out_features=160, bias=True)
        (3): ReLU()
        (4): Linear(in_features=160, out_features=160, bias=True)
        (5): ReLU()
        (6): Linear(in_features=160, out_features=4, bias=True)
      )
    )
    (8): PermuteRandom()
    (9): GLOWCouplingBlock(
      (s1): Sequential(
        (0): Linear(in_features=3, out_features=160, bias=True)
        (1): ReLU()
        (2): Linear(in_features=160, out_features=160, bias=True)
        (3): ReLU()
        (4): Linear(in_features=160, out_features=160, bias=True)
        (5): ReLU()
        (6): Linear(in_features=160, out_features=4, bias=True)
      )
      (s2): Sequential(
        (0): Linear(in_features=3, out_features=160, bias=True)
        (1): ReLU()
        (2): Linear(in_features=160, out_features=160, bias=True)
        (3): ReLU()
        (4): Linear(in_features=160, out_features=160, bias=True)
        (5): ReLU()
        (6): Linear(in_features=160, out_features=4, bias=True)
      )
    )
    (10): PermuteRandom()
    (11): GLOWCouplingBlock(
      (s1): Sequential(
        (0): Linear(in_features=3, out_features=160, bias=True)
        (1): ReLU()
        (2): Linear(in_features=160, out_features=160, bias=True)
        (3): ReLU()
        (4): Linear(in_features=160, out_features=160, bias=True)
        (5): ReLU()
        (6): Linear(in_features=160, out_features=4, bias=True)
      )
      (s2): Sequential(
        (0): Linear(in_features=3, out_features=160, bias=True)
        (1): ReLU()
        (2): Linear(in_features=160, out_features=160, bias=True)
        (3): ReLU()
        (4): Linear(in_features=160, out_features=160, bias=True)
        (5): ReLU()
        (6): Linear(in_features=160, out_features=4, bias=True)
      )
    )
    (12): PermuteRandom()
    (13): GLOWCouplingBlock(
      (s1): Sequential(
        (0): Linear(in_features=3, out_features=160, bias=True)
        (1): ReLU()
        (2): Linear(in_features=160, out_features=160, bias=True)
        (3): ReLU()
        (4): Linear(in_features=160, out_features=160, bias=True)
        (5): ReLU()
        (6): Linear(in_features=160, out_features=4, bias=True)
      )
      (s2): Sequential(
        (0): Linear(in_features=3, out_features=160, bias=True)
        (1): ReLU()
        (2): Linear(in_features=160, out_features=160, bias=True)
        (3): ReLU()
        (4): Linear(in_features=160, out_features=160, bias=True)
        (5): ReLU()
        (6): Linear(in_features=160, out_features=4, bias=True)
      )
    )
    (14): PermuteRandom()
    (15): GLOWCouplingBlock(
      (s1): Sequential(
        (0): Linear(in_features=3, out_features=160, bias=True)
        (1): ReLU()
        (2): Linear(in_features=160, out_features=160, bias=True)
        (3): ReLU()
        (4): Linear(in_features=160, out_features=160, bias=True)
        (5): ReLU()
        (6): Linear(in_features=160, out_features=4, bias=True)
      )
      (s2): Sequential(
        (0): Linear(in_features=3, out_features=160, bias=True)
        (1): ReLU()
        (2): Linear(in_features=160, out_features=160, bias=True)
        (3): ReLU()
        (4): Linear(in_features=160, out_features=160, bias=True)
        (5): ReLU()
        (6): Linear(in_features=160, out_features=4, bias=True)
      )
    )
    (16): PermuteRandom()
    (17): GLOWCouplingBlock(
      (s1): Sequential(
        (0): Linear(in_features=3, out_features=160, bias=True)
        (1): ReLU()
        (2): Linear(in_features=160, out_features=160, bias=True)
        (3): ReLU()
        (4): Linear(in_features=160, out_features=160, bias=True)
        (5): ReLU()
        (6): Linear(in_features=160, out_features=4, bias=True)
      )
      (s2): Sequential(
        (0): Linear(in_features=3, out_features=160, bias=True)
        (1): ReLU()
        (2): Linear(in_features=160, out_features=160, bias=True)
        (3): ReLU()
        (4): Linear(in_features=160, out_features=160, bias=True)
        (5): ReLU()
        (6): Linear(in_features=160, out_features=4, bias=True)
      )
    )
    (18): PermuteRandom()
    (19): GLOWCouplingBlock(
      (s1): Sequential(
        (0): Linear(in_features=3, out_features=160, bias=True)
        (1): ReLU()
        (2): Linear(in_features=160, out_features=160, bias=True)
        (3): ReLU()
        (4): Linear(in_features=160, out_features=160, bias=True)
        (5): ReLU()
        (6): Linear(in_features=160, out_features=4, bias=True)
      )
      (s2): Sequential(
        (0): Linear(in_features=3, out_features=160, bias=True)
        (1): ReLU()
        (2): Linear(in_features=160, out_features=160, bias=True)
        (3): ReLU()
        (4): Linear(in_features=160, out_features=160, bias=True)
        (5): ReLU()
        (6): Linear(in_features=160, out_features=4, bias=True)
      )
    )
    (20): PermuteRandom()
    (21): GLOWCouplingBlock(
      (s1): Sequential(
        (0): Linear(in_features=3, out_features=160, bias=True)
        (1): ReLU()
        (2): Linear(in_features=160, out_features=160, bias=True)
        (3): ReLU()
        (4): Linear(in_features=160, out_features=160, bias=True)
        (5): ReLU()
        (6): Linear(in_features=160, out_features=4, bias=True)
      )
      (s2): Sequential(
        (0): Linear(in_features=3, out_features=160, bias=True)
        (1): ReLU()
        (2): Linear(in_features=160, out_features=160, bias=True)
        (3): ReLU()
        (4): Linear(in_features=160, out_features=160, bias=True)
        (5): ReLU()
        (6): Linear(in_features=160, out_features=4, bias=True)
      )
    )
    (22): PermuteRandom()
    (23): GLOWCouplingBlock(
      (s1): Sequential(
        (0): Linear(in_features=3, out_features=160, bias=True)
        (1): ReLU()
        (2): Linear(in_features=160, out_features=160, bias=True)
        (3): ReLU()
        (4): Linear(in_features=160, out_features=160, bias=True)
        (5): ReLU()
        (6): Linear(in_features=160, out_features=4, bias=True)
      )
      (s2): Sequential(
        (0): Linear(in_features=3, out_features=160, bias=True)
        (1): ReLU()
        (2): Linear(in_features=160, out_features=160, bias=True)
        (3): ReLU()
        (4): Linear(in_features=160, out_features=160, bias=True)
        (5): ReLU()
        (6): Linear(in_features=160, out_features=4, bias=True)
      )
    )
    (24): PermuteRandom()
    (25): GLOWCouplingBlock(
      (s1): Sequential(
        (0): Linear(in_features=3, out_features=160, bias=True)
        (1): ReLU()
        (2): Linear(in_features=160, out_features=160, bias=True)
        (3): ReLU()
        (4): Linear(in_features=160, out_features=160, bias=True)
        (5): ReLU()
        (6): Linear(in_features=160, out_features=4, bias=True)
      )
      (s2): Sequential(
        (0): Linear(in_features=3, out_features=160, bias=True)
        (1): ReLU()
        (2): Linear(in_features=160, out_features=160, bias=True)
        (3): ReLU()
        (4): Linear(in_features=160, out_features=160, bias=True)
        (5): ReLU()
        (6): Linear(in_features=160, out_features=4, bias=True)
      )
    )
    (26): PermuteRandom()
    (27): dummy()
    (28): None
  )
)
retrain0ballistics
number of trainable parameters is :
1372904
Start eval now:
Evaluation finished
